simpledemo/my_network_5.pth (torch, 70849 bytes, 8 tensors)

fc1.weight f4 [64, 4]
-0.33764547 0.057627004 -0.014000969 -0.097404666 0.20365751 -0.22213836 -0.32858258 0.050809864
-0.39986074 0.08221091 -0.020732779 -0.3652169 0.21173233 -0.04384978 0.25328666 -0.2903395
0.034275293 -0.27366537 -0.30777246 -0.35765493 -0.48819387 -0.21390812 -0.47632632 0.37991068
-0.38976824 -0.452534 -0.2504551 0.42188555 0.33450288 -0.041900285 0.47059783 0.22805478
0.06454426 -0.14181258 0.510296 -0.32350582 0.46994674 -0.24904367 0.4460885 0.42957824
-0.23040044 -0.37703705 -0.3908807 0.21545674 0.3075837 0.022832705 -0.32029736 -0.21929789
0.035637617 -0.005058825 -0.19600387 0.36763382 0.41086483 0.18778297 -0.28770313 0.28337303
-0.25720906 0.26693463 0.41827416 -0.41812053 -0.4986571 0.33946037 0.36123437 -0.44961447
-0.30871892 0.24860792 0.041981887 -0.17379345 0.063702464 0.399098 0.29078895 0.0004781205
0.029594481 -0.013341308 -0.4786263 0.014128089 0.27275354 0.33763444 0.16914092 0.28779772
0.14969385 0.31778786 -0.24102408 0.1935163 -0.4966777 0.4139583 0.12036486 -0.062156685
0.22701597 -0.23077184 0.24718592 0.41126126 -0.054398537 -0.06422812 0.026328398 0.1435247
0.41236126 0.41354534 0.11610797 -0.35182923 0.17915362 0.5516059 0.4872605 0.43060502
-0.26782632 -0.16827427 -0.46219313 0.4037512 -0.23341048 0.005364884 -0.30640098 0.0031866531
-0.13491964 0.41765377 0.37400618 -0.03297139 -0.2764786 0.54269695 -0.10723409 0.06465747
-0.06362063 0.5024156 -0.36452118 0.36883217 -0.29685396 -0.20005941 0.2587806 -0.2413109
-0.23430657 0.059168033 0.062591076 -0.08264943 0.09819704 -0.36506182 0.07863469 0.4184737
-0.34497845 -0.4579521 0.10398303 -0.20570381 0.30614048 0.14846633 0.2836834 0.23891017
0.025619924 0.3458168 0.39811578 0.23621903 -0.4762888 -0.024502996 -0.14424524 0.42572474
0.2175895 0.4982683 -0.09989785 0.31706238 -0.098537564 0.21016157 -0.36889657 0.47396186
-0.42391217 -0.2714247 0.36744055 -0.32611495 -0.1653772 -0.3258466 -0.02514249 -0.2771728
-0.3819965 -0.5684534 0.25590372 -0.2363456 -0.49904782 0.43042725 0.049982328 -0.062017176
0.42669034 0.0040429984 -0.45514753 0.16651198 0.11232841 0.16965513 -0.4011586 -0.32230294
-0.23347849 -0.34107932 -0.19315715 0.08249385 -0.008837223 -0.43106088 0.29087728 0.48176587
-0.36317468 -0.29546452 -0.33461052 0.11702343 -0.102005124 0.049158856 0.079674155 -0.2536215
-0.12753427 -0.14341155 -0.15081951 0.50391614 -0.10043496 -0.50014865 0.0456715 0.15752165
-0.09353465 0.18780544 -0.0912953 0.09787237 -0.32248247 -0.4805926 0.04629286 -0.2301373
-0.4799862 0.3676266 0.35140005 0.08645751 0.275051 -0.19839609 0.34959784 0.37377864
0.23517573 -0.19017065 -0.13915414 -0.20943868 0.4013713 0.17252319 0.1866168 -0.20856482
-0.02456522 0.20050046 -0.34844023 0.0010321138 -0.19184905 -0.07986206 -0.22890681 -0.16302752
0.11273068 0.00093564525 0.48761737 -0.45622233 -0.49671167 0.49034682 0.017330818 0.43239903
-0.26531994 0.060829222 -0.03633088 -0.49000072 0.032418847 -0.5970122 0.09095103 0.12029936
00000000: dedf acbe 4b0a 6c3d 5264 65bc 197c c7bd
00000010: 988b 503e 3d78 63be fa3b a8be 011e 503d
00000020: 8cba ccbe 325e a83d cad7 a9bc b6fd babe
00000030: 5cd0 583e d49b 33bd caae 813e 61a7 94be
00000040: 4064 0c3d de1d 8cbe 5a94 9dbe 8c1e b7be
00000050: 8cf4 f9be bb0a 5bbe 0be1 f3be a783 c23e
00000060: b48f c7be 89b2 e7be a73b 80be 6201 d83e
00000070: f643 ab3e a29f 2bbd 33f2 f03e 3187 693e
00000080: c82f 843d 5137 11be c2a2 023f 8ea2 a5be
00000090: dc9c f03e 4e05 7fbe b665 e43e aef1 db3e
000000a0: 18ee 6bbe 000b c1be 8421 c8be b1a0 5c3e
000000b0: 9c7b 9d3e a70b bb3c 04fe a3be a08f 60be
000000c0: c0f8 113d 80c4 a5bb 3db5 48be 803a bc3e
000000d0: e05c d23e 2e4a 403e d34d 93be 4516 913e
000000e0: e8b0 83be a8ab 883e 0828 d63e e513 d6be
000000f0: fc4f ffbe c0cd ad3e b6f3 b83e de33 e6be
00000100: 6810 9ebe 1393 7e3e 33f5 2b3d e9f6 31be
00000110: 7076 823d 9356 cc3e 4ae2 943e 3fac fa39
00000120: 2070 f23c 8095 5abc 820e f5be 8079 673c
00000130: 5aa6 8b3e 6cde ac3e 4733 2d3e 395a 933e
00000140: 5849 193e 17b5 a23e 04cf 76be 2329 463e
00000150: 8a4c febe 58f2 d33e da81 f63d 0298 7ebd
00000160: e076 683e 744f 6cbe 4e1e 7d3e d690 d23e
00000170: 00d1 5ebd 088a 83bd a7ae d73c 24f8 123e
00000180: 0421 d33e 37bc d33e 04ca ed3d f622 b4be
00000190: 0c74 373e 0b36 0d3f 357a f93e 4378 dc3e
000001a0: 8820 89be 1750 2cbe 94a4 ecbe 7ab8 ce3e
000001b0: 2803 6fbe e9cb af3b 97e0 9cbe 2bd7 503b
000001c0: 6028 0abe b7d6 d53e bd7d bf3e 020d 07bd
000001d0: 9a8e 8dbe 30ee 0a3f 8c9d dbbd 236b 843d
000001e0: 884b 82bd 4f9e 003f 85a2 babe 92d7 bc3e
000001f0: 3efd 97be 60dc 4cbe e47e 843e 341a 77be
00000200: 10ee 6fbe 2e5a 723d c02f 803d 1b44 a9bd
00000210: 881b c93d 62e9 babe 390b a13d 2f42 d63e
00000220: 04a1 b0be b378 eabe 0ef5 d43d 05a4 52be
00000230: 72be 9c3e 8f07 183e f33e 913e dea4 743e
00000240: e0e0 d13c e60e b13e d5d5 cb3e 67e3 713e
00000250: 20dc f3be 82ba c8bc 06b5 13be 98f8 d93e
00000260: c8cf 5e3e 061d ff3e 3e97 ccbd 0056 a23e
00000270: 10ce c9bd 9834 573e 03e0 bcbe 21ab f23e
00000280: 040b d9be 2ef8 8abe 2b21 bc3e 8af8 a6be
00000290: a458 29be 5ed5 a6be a0f7 cdbc 98e9 8dbe
000002a0: 0c95 c3be 2986 11bf d005 833e 9504 72be
000002b0: 3283 ffbe f660 dc3e 45ba 4c3d b905 7ebd
000002c0: 2877 da3e 217b 843b 1909 e9be 1e82 2a3e
000002d0: 700c e63d 13ba 2d3e a964 cdbe e404 a5be
000002e0: fc14 6fbe f3a1 aebe fdca 45be 89f2 a83d
000002f0: 00ca 10bc 03b4 dcbe deed 943e 04aa f63e
00000300: 08f2 b9be 2047 97be 1252 abbe fba9 ef3d
00000310: 10e8 d0bd cc5a 493d 342c a33d adda 81be
00000320: 5898 02be 7ada 12be 6e70 1abe a600 013f
00000330: d8b0 cdbd be09 00bf 0a12 3b3d 5b4d 213e
00000340: 188f bfbd 1250 403e 08f9 babd 4f71 c83d
00000350: 6c1c a5be 3c10 f6be 959d 3d3d 1da9 6bbe
00000360: c0c0 f5be 8e39 bc3e b5ea b33e a310 b13d
00000370: 7cd3 8c3e 5828 4bbe 7dfe b23e ea5f bf3e
00000380: e8d1 703e 18bc 42be 6c7e 0ebe 1877 56be
00000390: 8a80 cd3e eba9 303e 7918 3f3e 0492 55be
000003a0: 003d c9bc fe4f 4d3e c266 b2be fe47 873a
000003b0: 1474 44be b88e a3bd 8c66 6abe b0f0 26be
000003c0: 58df e63d 1746 753a fca8 f93e f995 e9be
000003d0: fe50 febe bd0e fb3e 5cf9 8d3c 6863 dd3e
000003e0: 04d8 87be 1028 793d b0cf 14bd 60e1 fabe
000003f0: a0c9 043d cbd5 18bf 8944 ba3d 835f f63d

fc1.bias f4 [64]
0.20149955 0.5332383 0.35206035 0.5152603 -0.2062813 0.09615837 0.15379687 0.00956384
-0.42995217 0.16843575 -0.35314348 0.27509737 0.11259535 -0.08814416 0.25844225 0.09047593
-0.2436911 -0.060635194 -0.143071 -0.40441582 -0.5176885 0.22126646 0.43947458 0.4316356
-0.12071296 -0.37257645 0.020898096 0.380615 0.17866251 0.056861974 -0.106547855 0.12516518
0.50824744 0.5100924 0.51505446 0.12015123 0.23270379 -0.48275065 -0.030785928 -0.010255815
0.20884073 -0.10357922 0.15473813 0.4479593 -0.37091818 0.55327487 -0.1762133 0.3456653
0.4410462 -0.0036989371 0.5077445 0.07521282 -0.44232884 0.34968153 0.39374647 -0.02123742
-0.35792035 0.39119527 0.123558305 -0.45930856 -0.27757445 0.28978956 -0.06982362 0.36186573
00000000: e655 4e3e 4e82 083f 4141 b43e 19e8 033f
00000010: 683b 53be aeee c43d ed7c 1d3e a7b1 1c3c
00000020: b122 dcbe 6c7a 2c3e 39cf b4be 90d9 8c3e
00000030: 6498 e63d ed84 b4bd 8b52 843e 724b b93d
00000040: 298a 79be 9c5c 78bd 3481 12be 970f cfbe
00000050: 3c87 04bf ad93 623e d002 e13e 57ff dc3e
00000060: 5b38 f7bd 57c2 bebe 7c32 ab3c f8df c23e
00000070: 4ef3 363e 1ae8 683d c335 dabd 4d2b 003e
00000080: 811c 023f 6a95 023f 9cda 033f d911 f63d
00000090: e749 6e3e 182b f7be c532 fcbc 0208 28bc
000000a0: 58da 553e 5821 d4bd ac73 1e3e ec5a e53e
000000b0: fde8 bdbe 6ca3 0d3f 4271 34be 0bfb b03e
000000c0: cfd0 e13e de69 72bb 8bfb 013f 2e09 9a3d
000000d0: ed78 e2be 7509 b33e 2399 c93e 19fa adbc
000000e0: 5641 b7be bf4a c83e 230c fd3d 7e2a ebbe
000000f0: 3d1e 8ebe 4c5f 943e b0ff 8ebd 7746 b93e

fc2.weight f4 [128, 64]
-0.058625303 0.11727276 0.00061444804 -0.04985917 -0.11813031 0.035965934 -0.07304686 0.100828946
-0.024575742 -0.09075139 0.0056693903 -0.07019651 0.017472586 0.096388996 0.013252594 0.101450905
-0.06580401 -0.07498318 -0.025600716 0.019523075 0.13154276 -0.019378347 0.032221448 0.050682325
-0.04867771 0.07895679 0.060410507 0.022361543 0.14290237 -0.0052633868 -0.047686573 -0.036133498
-0.025880648 -0.018793916 0.11317403 0.026434878 0.07602651 -0.03969748 0.10071703 0.021791212
0.082173675 -0.08327584 0.120450675 0.1646358 -0.10751631 0.072670996 -0.07806306 0.013455923
0.039908938 -0.010102078 0.13248548 -0.016439747 -0.12390464 0.120344155 0.0478136 0.06670579
0.028089583 0.11766626 0.19677925 -0.07212302 -0.08891749 0.07959791 0.1209735 0.0101767685
0.09546162 -0.12307206 -0.107207194 -0.015527219 0.03006503 -0.050434843 0.0078040212 0.06626356
-0.096428454 0.11527538 0.02456607 -0.10526489 0.08758007 -0.031150192 0.02530305 -0.013114214
-0.084748015 0.015923336 0.038948774 -0.008602202 -0.09887928 0.06031485 -0.013951376 0.07950072
-0.09405716 -0.0559493 0.10330436 0.075917795 0.025664717 -0.058120966 0.046259224 -0.079420045
-0.03872001 0.08030531 0.05035326 -0.08050944 0.022920504 0.09324767 -0.059452683 -0.03531848
-0.077021 -0.046196908 0.008618742 -0.029656976 0.07015143 -0.035057962 0.08880977 -0.10603553
0.11362767 0.019904152 -0.08154863 -0.07462415 -0.04839708 -0.11612469 0.082679465 -0.022337407
0.05239825 0.040655866 -0.049979016 0.0481935 -0.07613328 -0.095558256 0.014419913 -0.015083
0.08205601 0.007980974 0.13291794 -0.060661383 0.045241714 0.05110992 0.11097948 0.016564047
-0.0990049 0.0136378 0.11909193 0.18496719 0.025224522 0.032275815 -0.037210587 -0.08529553
-0.028044445 -0.12061883 0.114671275 0.01987303 0.0751962 0.0066974224 -0.0647982 0.13333088
0.046140343 0.005030492 0.0029453475 0.098148584 0.03593672 0.06972577 -0.026797798 0.021308
0.093879566 0.10594286 0.025219254 0.121560805 0.0010655173 -0.0015086854 -0.0038065778 0.047250554
-0.11065802 -0.110228285 -0.03175619 0.006445582 0.044544958 0.016652778 -0.035256684 0.11612948
0.09781471 0.038899284 -0.05392855 0.052200332 0.04823762 0.07437597 0.064276434 -0.057142917
-0.071179956 -0.05724706 0.0052289884 -0.02684182 -0.032930225 -0.06405587 0.1227299 -0.053200264
-0.082360975 0.09473812 0.055492427 -0.0094150035 0.08067441 -0.111468226 0.086125106 -0.09105363
-0.023077175 0.006277519 0.08725845 0.041744847 -0.08369844 -0.06963411 -0.0115831075 -0.0040829442
0.039647758 -0.05189816 -0.09039211 -0.01497976 -0.07700292 -0.036341418 -0.022772027 -0.12793459
0.064127505 -0.10414451 -0.12852676 -0.0850398 -0.13532886 -0.049588103 0.10629294 -0.03701414
-0.12710159 0.10412792 0.007856326 0.055090245 -0.08461421 0.0042410023 -0.07132045 0.00030793418
0.06693929 0.047917873 -0.030822765 0.03828075 -0.077585585 -0.112906314 0.029572958 0.053230632
0.10284301 -0.041941613 0.017317316 0.055858225 0.0013763255 -0.12407659 -0.097032435 0.0051254765
0.03373596 0.0967852 -0.03230907 0.07084985 0.10405542 0.07705292 -0.07245478 -0.028977713
00000000: 1621 70bd b32c f03d e912 213a 2139 4cbd
00000010: 4eee f1bd 0451 133d 9899 95bd 687f ce3d
00000020: 1153 c9bc dddb b9bd 4bc6 b93b 30c3 8fbd
00000030: ab22 8f3c 9867 c53d 6821 593c 7ec5 cf3d
00000040: 41c4 86bd c890 99bd 98b8 d1bc dbee 9f3c
00000050: 25b3 063e 57bf 9ebc a3fa 033d 4598 4f3d
00000060: 4762 47bd 19b4 a13d 0271 773d 8e2f b73c
00000070: 0055 123e 7d78 acbb ff52 43bd b800 14bd
00000080: a703 d4bc b3f5 99bc c9c7 e73d f58d d83c
00000090: c9b3 9b3d d399 22bd bb44 ce3d 7c83 b23c
000000a0: ac4a a83d 868c aabd d8ae f63d 4a96 283e
000000b0: 8331 dcbd 88d4 943d 87df 9fbd 3b76 5c3c
000000c0: 8e77 233d 3083 25bc 46aa 073e a6ac 86bc
000000d0: b7c1 fdbd ff76 f63d 32d8 433d 0c9d 883d
000000e0: 201c e63c 02fb f03d 8080 493e 3cb5 93bd
000000f0: 5f1a b6bd 3b04 a33d f4c0 f73d 76bc 263c
00000100: 6281 c33d 340d fcbd 728f dbbd e065 7ebc
00000110: f04a f63c c494 4ebd e0b8 ff3b 30b5 873d
00000120: 487c c5bd 8015 ec3d c83e c93c 1e95 d7bd
00000130: 2e5d b33d b02e ffbc 5848 cf3c 00dd 56bc
00000140: 5e90 adbd a871 823c c088 1f3d 40f0 0cbc
00000150: 3881 cabd b40c 773d 5094 64bc 46d1 a23d
00000160: 0aa1 c0bd 182b 65bd 3c91 d33d ca7a 9b3d
00000170: d03e d23c 4010 6ebd 507a 3d3d faa6 a2bd
00000180: e098 1ebd 1c77 a43d 383f 4e3d 22e2 a4bd
00000190: c8c3 bb3c a2f8 be3d a884 73bd 1caa 10bd
000001a0: 30bd 9dbd f838 3dbd a035 0d3c 30f3 f2bc
000001b0: 8eab 8f3d f098 0fbd e6e1 b53d 2829 d9bd
000001c0: a0b5 e83d 080e a33c f802 a7bd 8cd4 98bd
000001d0: 043c 46bd c8d2 edbd da53 a93d f0fc b6bc
000001e0: 8c9f 563d c486 263d ccb6 4cbd 8c66 453d
000001f0: c4eb 9bbd 0cb4 c3bd 8041 6c3c b01e 77bc
00000200: fb0c a83d a2c2 023c a41b 083e 1278 78bd
00000210: 604f 393d a358 513d 3649 e33d 53b1 873c
00000220: 15c3 cabd 1471 5f3c 78e6 f33d 0a68 3d3e
00000230: a8a3 ce3c a533 043d 216a 18bd 6caf aebd
00000240: 77bd e5bc 0107 f7bd c6d8 ea3d c4cc a23c
00000250: 7700 9a3d 0d76 db3b ebb4 84bd e487 083e
00000260: a8fd 3c3d d3d6 a43b bb06 413b 2002 c93d
00000270: 6232 133d 62cc 8e3d 0e87 dbbc 1d8e ae3c
00000280: ee43 c03d 92f8 d83d 9c98 ce3c dff4 f83d
00000290: d4a8 8b3a 15bf c5ba c777 79bb cc89 413d
000002a0: aca0 e2bd 5ebf e1bd c712 02bd 7635 d33b
000002b0: c674 363d 686b 883c 5069 10bd 4bd5 ed3d
000002c0: 1453 c83d db54 1f3d 2fe4 5cbd 04d0 553d
000002d0: d094 453d 6e52 983d 5da3 833d b10e 6abd
000002e0: ccc6 91bd e57b 6abd ef57 ab3b 60e3 dbbc
000002f0: d8e1 06bd b92f 83bd d059 fb3d 85e8 59bd
00000300: dfac a8bd 0f06 c23d 074c 633d 6341 1abc
00000310: a038 a53d 7449 e4bd 5c62 b03d 537a babd
00000320: 580c bdbc a5b3 cd3b 8fb4 b23d a5fc 2a3d
00000330: 166a abbd 549c 8ebd 13c7 3dbc 38ca 85bb
00000340: b065 223d 2a93 54bd 801f b9bd ab6d 75bc
00000350: b5b3 9dbd bdda 14bd 678c babc 4901 03be
00000360: 4855 833d b849 d5bd 859c 03be 5929 aebd
00000370: a693 0abe e51c 4bbd 1db0 d93d 249c 17bd
00000380: eb26 02be 0541 d53d d2b7 003c 4fa6 613d
00000390: 374a adbd 1bf8 8a3b 7510 92bd 3a72 a139
000003a0: 7717 893d 8845 443d 0680 fcbc 47cc 1c3d
000003b0: 31e5 9ebd 6d3b e7bd fd42 f23c 5d08 5a3d
000003c0: 5b9f d23d f8ca 2bbd 0bdd 8d3c 98cb 643d
000003d0: d265 b43a de1b febd f1b8 c6bd 9df3 a73b
000003e0: b82e 0a3d 5237 c63d 8456 04bd ba19 913d
000003f0: 021b d53d eccd 9d3d 2c63 94bd ab62 edbc

fc2.bias f4 [128]
0.061674334 -0.07581842 0.11316329 -0.004122655 0.05439009 -0.027392436 0.0006999317 -0.027360648
-0.051075555 0.13055992 -0.0375937 0.028035467 0.06921511 -0.073223084 0.020728555 0.1401217
-0.04946938 0.09740455 0.0126779275 -0.10057081 0.0557387 0.12666534 -0.110932715 0.12700358
0.07331434 -0.047127843 0.05502521 0.15457028 0.018650789 -0.07145217 0.11748113 0.026886223
-0.006797637 0.11975072 0.068186305 -0.019553958 0.16539152 0.06252848 0.14309599 -0.08352039
-0.07462162 -0.089457326 0.06185033 -0.011385873 -0.016499525 0.07660898 0.10325561 -0.03683022
0.028319407 0.104543015 0.15645856 -0.022723354 0.0018325408 0.10111778 0.10444773 -0.08318746
0.061657377 -0.038973644 0.03400156 0.015847592 0.016849693 0.07042775 0.13807647 -0.023902925
-0.032920092 -0.04775872 -0.07035526 -0.0067792526 0.057588607 0.069707416 -0.0940896 -0.05678326
-0.071791016 -0.085167736 -0.052187935 -0.08149119 0.049980734 -0.04345478 0.10558312 -0.083692886
-0.00049817807 -0.061120093 0.1468543 -0.026523273 -0.051086277 0.028578997 0.15659745 0.05445986
0.13583569 -0.00062659127 0.08710309 -0.035594948 0.04700151 -0.065754026 0.08577659 -0.0498899
0.018425109 -0.13032953 0.008991152 -0.07866332 -0.04338156 -0.045719713 0.15052089 0.08553755
-0.05202243 0.13660224 0.1444373 -0.060411684 0.09610538 -0.0750335 0.030438632 0.06950936
0.011616825 0.09868644 0.047057554 0.035118114 -0.117933914 -0.07444283 0.09680209 0.1414408
0.095338695 0.045811858 -0.11408457 0.0551088 0.064156935 0.013294542 0.021851646 -0.031381816
00000000: 3a9e 7c3d b046 9bbd 28c2 e73d 5617 87bb
00000010: 25c8 5e3d 1a66 e0bc 9f7b 373a 7023 e0bc
00000020: 9a34 51bd 80b1 053e dafb 19bd a3aa e53c
00000030: a7c0 8d3d fcf5 95bd eece a93c 107c 0f3e
00000040: 68a0 4abd 097c c73d 15b7 4f3c 12f8 cdbd
00000050: 434e 643d 8fb4 013e b130 e3bd 3a0d 023e
00000060: d425 963d 2009 41bd 1d62 613d ac47 1e3e
00000070: 8ac9 983c 8455 92bd f299 f03d 7f40 dc3c
00000080: b6be debb de3f f53d 43a5 8b3d 9f2f a0bc
00000090: 655c 293e ef0e 803d c187 123e bd0c abbd
000000a0: 38d3 98bd 6735 b7bd c656 7d3d d08b 3abc
000000b0: 032a 87bc 2be5 9c3d ad77 d33d 49db 16bd
000000c0: 1afe e73c a61a d63d ac36 203e 5426 babc
000000d0: de31 f03a d716 cf3d b1e8 d53d 305e aabd
000000e0: 728c 7c3d d4a2 1fbd 3845 0b3d cfd2 813c
000000f0: 5e08 8a3c 6d3c 903d eb63 0d3e 11d0 c3bc
00000100: 38d7 06bd a69e 43bd 6b16 90bd 7e24 debb
00000110: 08e2 6b3d c3c2 8e3d 0cb2 c0bd 9095 68bd
00000120: 2b07 93bd 6c6c aebd 04c3 55bd dae4 a6bd
00000130: 99b8 4c3d a4fd 31bd f63b d83d 2d67 abbd
00000140: 2a98 02ba 1059 7abd f960 163e 5647 d9bc
00000150: d83f 51bd 801e ea3c 155b 203e 4d11 5f3d
00000160: 8318 0b3e d441 24ba 1b63 b23d 02cc 11bd
00000170: a884 403d 0caa 86bd a3ab af3d 5a59 4cbd
00000180: 41f0 963c 1b75 05be a04f 133c 3c1a a1bd
00000190: ddb0 31bd 9844 3bbd 2622 1a3e 502e af3d
000001a0: 7915 55bd 75e1 0b3e 5fe7 133e 3e72 77bd
000001b0: e6d2 c43d 2aab 99bd 705a f93c ec5a 8e3d
000001c0: 7f54 3e3c 1e1c ca3d 6cbf 403d 03d8 0f3d
000001d0: 5687 f1bd 7c75 98bd 2d40 c63d dbd5 103e
000001e0: ef40 c33d 37a5 3b3d 2ca5 e9bd c4b9 613d
000001f0: b664 833d 5ad1 593c 3902 b33c 388a 00bd

fc3.weight f4 [64, 128]
-0.024335615 0.06351007 0.030986244 0.0966218 0.1024644 -0.058096457 0.023857636 -0.044148285
-0.07610468 0.04177226 -0.059525628 -0.062187564 0.08951291 0.059009682 0.1237555 0.090988375
0.12617017 -0.02057432 0.020906514 0.0006983951 0.06812688 0.062754735 -0.013669352 0.1506856
-0.00020375103 -0.023053989 -0.013646329 0.057871368 -0.026450504 0.08527324 0.025562614 0.04071441
-0.011282883 -0.05230364 0.07748458 0.10173694 0.13319041 0.016766014 -0.061525676 -0.06737323
0.026935376 0.033496182 0.061736602 0.042776667 0.021138728 0.019401768 0.0070381304 -0.04859871
-0.0457005 -0.019565543 0.10751752 0.016971907 -0.006566255 0.008223193 0.052178178 -0.019388743
-0.026932964 0.09677894 0.11119269 0.0505665 -0.0312859 0.006331406 0.047801 0.022475699
0.001965157 0.030429319 0.046650432 0.06627024 -0.064096406 0.049601857 0.022781223 -0.03706576
-0.018094607 0.05648873 0.08312491 0.04840181 0.023177138 0.10692449 -0.055073645 -0.07172374
-0.033800878 0.030484235 -0.0013832267 0.008463679 -0.00095736224 0.068977386 0.08350353 -0.013378878
-0.035076197 0.029788818 0.035384897 -0.051036052 -0.06592264 0.01958765 -0.03075254 -0.022399234
0.1004869 -0.050086003 -0.00024461 0.08356186 -0.012296673 -0.07754058 0.11866785 -0.034022342
0.005707027 0.09457424 0.011984104 0.022982497 0.07647004 -0.054664984 -0.07644735 0.086848505
0.017659629 0.049393155 0.0701321 0.0804233 0.08694268 0.09268373 0.080308385 -0.0017132777
-0.010776505 0.0111991605 0.04017656 0.048347253 -0.061320823 -0.0044873436 0.07492477 0.027753578
0.024873944 0.05786816 0.08070836 -0.026243811 0.049283624 0.06157725 0.08347208 0.0473314
0.080417454 0.08344164 -0.053365376 0.058540538 0.048497725 -0.0032876164 0.00798359 0.18085465
-0.010343354 0.082756095 0.058476634 -0.079005055 -0.0012582978 0.047717106 0.022966808 0.12244446
0.0024403036 -0.01946015 -0.057390086 0.09352315 0.04055686 0.09401579 0.081163794 0.11559061
0.08194204 -0.003763884 0.07773404 0.03437991 0.060040887 0.0037473005 0.009750946 0.08850274
0.028568082 -0.07051251 0.011843508 -0.05829125 -0.064788535 0.089177325 0.10757738 0.10294722
-0.014074151 -0.0013031594 -0.031879533 0.08906109 0.011661659 -0.045496687 -0.0067076893 -0.08483855
-0.01295204 0.07492378 0.07340447 0.061057653 -0.050288245 -0.013470929 0.041839436 -0.05472886
0.08438492 0.026601182 -0.023329632 0.12940179 0.046739765 -0.03132479 -0.06010402 0.04176428
0.07409352 0.032920655 -0.026997937 -0.030091135 -0.025887296 0.09497424 0.0056420863 0.008404884
0.023367349 -0.07139721 0.020349834 0.031482555 0.0033891376 0.13985741 0.027561117 0.012101363
0.069537856 0.14247602 0.018880641 0.02925652 0.005118999 -0.08196594 -0.0020254387 0.06486227
-0.028264359 0.072106026 -0.088167086 0.07858864 -0.025373267 -0.003119734 0.08106799 0.0010703348
-0.04778541 0.062368385 0.061860163 -0.037503097 0.055176686 0.052264713 -0.019879045 -0.08604162
0.037421316 0.055979066 -0.060587265 0.062428113 0.019692726 -0.0016294123 0.03034917 0.06681466
-0.030857643 0.08383545 -0.04081728 0.12331582 0.052102085 -0.0052271727 0.07861978 -0.04910323
00000000: 7c5b c7bc 9111 823d ddd6 fd3c a6e1 c53d
00000010: dbd8 d13d 8df6 6dbd 1771 c33c d5d4 34bd
00000020: c5dc 9bbd 6419 2b3d 25d1 73bd 63b8 7ebd
00000030: 8b52 b73d 23b4 713d 8673 fd3d 1d58 ba3d
00000040: c132 013e 7a8b a8bc 2344 ab3c 8014 373a
00000050: 1b86 8b3d 8e85 803d 6bf5 5fbc 534d 1a3e
00000060: 00a6 55b9 b8db bcbc da94 5fbc 870a 6d3d
00000070: baae d8bc bda3 ae3d b068 d13c 27c4 263d
00000080: d7db 38bc 573c 56bd 3cb0 9e3d 755b d03d
00000090: 1163 083e e158 893c 5902 7cbd fafa 89bd
000000a0: 94a7 dc3c 4b33 093d 85df 7c3d 9636 2f3d
000000b0: 202b ad3c 75f0 9e3c 1ea0 e63b 710f 47bd
000000c0: 7330 3bbd eb47 a0bc 2532 dc3d ab08 8b3c
000000d0: bd29 d7bb 92ba 063c c9b8 553d 24d5 9ebc
000000e0: 85a2 dcbc 0934 c63d feb8 e33d d11e 4f3d
000000f0: a525 00bd af77 cf3b fbca 433d f51e b83c
00000100: ddc9 003b e846 f93c 8614 3f3d b1b8 873d
00000110: fa44 83bd 512b 4b3d b09f ba3c 44d2 17bd
00000120: 243b 94bc ba60 673d 653d aa3d fa40 463d
00000130: fbdd bd3c 3afb da3d e794 61bd e5e3 92bd
00000140: ca72 0abd 13ba f93c 634d b5ba 3eab 0a3c
00000150: 7ef7 7aba 0444 8d3d e603 ab3d 1533 5bbc
00000160: 0fac 0fbd ae07 f43c c1ef 103d 2e0b 51bd
00000170: 7302 87bd 4876 a03c c0ec fbbc 997e b7bc
00000180: 13cc cd3d fb26 4dbd 003f 80b9 7b22 ab3d
00000190: fc77 49bc 98cd 9ebd 2108 f33d 035b 0bbd
000001a0: 0302 bb3b 24b0 c13d fa58 443c ca45 bc3c
000001b0: 539c 9c3d 64e8 5fbd 6e90 9cbd a1dd b13d
000001c0: edaa 903c 7a50 4a3d 6ba1 8f3d f9b4 a43d
000001d0: 010f b23d f8d0 bd3d b978 a43d 0f90 e0ba
000001e0: f08f 30bc af7c 373c 2d90 243d c507 463d
000001f0: 8b2b 7bbd 910a 93bb 2872 993d 795b e33c
00000200: 71c4 cb3c 2a07 6d3d 6d4a a53d 43fd d6bc
00000210: a0dd 493d 6d38 7c3d 69f3 aa3d 92de 413d
00000220: e8b1 a43d 73e3 aa3d a795 5abd 34c8 6f3d
00000230: 8da5 463d 0d75 57bb 9acd 023c f631 393e
00000240: 2c77 29bc 077c a93d 3285 6f3d 67cd a1bd
00000250: 78ed a4ba 0373 433d e324 bc3c 29c4 fa3d
00000260: 80ed 1f3b e46a 9fbc de11 6bbd 1189 bf3d
00000270: f31e 263d 5a8b c03d 3439 a63d c5ba ec3d
00000280: 3ad1 a73d 7fab 76bb 0633 9f3d f3d1 0c3d
00000290: 6fed 753d 4595 753b 6fc2 1f3c ed40 b53d
000002a0: 9c07 ea3c dd68 90bd 460b 423c cec2 6ebd
000002b0: daaf 84bd 9aa2 b63d 8851 dc3d fed5 d23d
000002c0: 4597 66bc c6ce aaba 1d94 02bd a965 b63d
000002d0: 8b10 3f3c bc5a 3abd 2dcc dbbb d5bf adbd
000002e0: cb34 54bc a471 993d 1555 963d 9717 7a3d
000002f0: 0cfb 4dbd 2cb5 5cbc d45f 2b3d 5e2b 60bd
00000300: 00d2 ac3d b9ea d93c c91d bfbc e781 043e
00000310: 3272 3f3d 6c4e 00bd a22f 76bd 0611 2b3d
00000320: 58be 973d cfd7 063d c72a ddbc af81 f6bc
00000330: 9811 d4bc db81 c23d 40e1 b83b a3b4 093c
00000340: e26c bf3c b338 92bd b2b4 a63c daf3 003d
00000350: 4b1c 5e3b c836 0f3e dac7 e13c cc44 463c
00000360: dd69 8e3d 3ce5 113e 93ab 9a3c 5fab ef3c
00000370: 47bd a73b c2dd a7bd 39bd 04bb 83d6 843d
00000380: a88a e7bc 53ac 933d f290 b4bd 15f3 a03d
00000390: 99db cfbc 7474 4cbb f906 a63d 7a4a 8c3a
000003a0: a2ba 43bd fe75 7f3d 1561 7d3d d99c 19bd
000003b0: f300 623d 8613 563d 61d9 a2bc 9736 b0bd
000003c0: 1847 193d 4e4a 653d 5a2a 78bd 9fb4 7f3d
000003d0: a452 a13c 0192 d5ba d39e f83c 20d6 883d
000003e0: 2bc9 fcbc ecb1 ab3d 0530 27bd 018d fc3d
000003f0: ff68 553d b448 abbb 6803 a13d 7820 49bd

fc3.bias f4 [64]
0.11990967 0.07092279 0.039495163 0.04413888 -0.054591015 -0.034079738 -0.03766099 0.10090665
-0.064785644 0.013795328 0.005932019 -0.09758075 0.06124249 -0.038710315 -0.08227272 0.055706985
-0.077516794 0.010264671 -0.016063608 0.027150381 -0.0801072 -0.013214492 -0.042983964 -0.0042602518
0.021413106 -0.041129306 -0.030322485 0.046276823 0.11666627 0.04021174 0.017933577 0.015745904
0.03012501 0.015451119 -0.031945806 -0.07678573 0.036321886 0.01459102 0.052641515 0.03484749
0.04950627 -0.03199104 0.041053165 -0.031526316 -0.005052763 -0.04825754 0.10640792 -0.0038173844
0.010078864 0.1093722 -0.0332701 0.032681543 0.031570315 -0.0828401 0.03995109 0.025895866
-0.052617136 -0.0037504444 0.027374346 -0.092095695 -0.009179062 -0.0047581736 -0.047149025 0.025101244
00000000: 3393 f53d f83f 913d aec5 213d f8ca 343d
00000010: d49a 5fbd 3297 0bbd 6942 1abd 25a8 ce3d
00000020: 56ae 84bd cd05 623c 6261 c23b 6bd8 c7bd
00000030: 68d9 7a3d b58e 1ebd 9a7e a8bd 022d 643d
00000040: 20c1 9ebd 272d 283c d497 83bc 7a6a de3c
00000050: 3e0f a4bd 9981 58bc f40f 30bd 9599 8bbb
00000060: 8a6a af3c 3477 28bd dc66 f8bc c48c 3d3d
00000070: baee ee3d 11b5 243d 70e9 923c 8efd 803c
00000080: bac8 f63c b126 7d3c 9bd9 02bd d641 9dbd
00000090: 42c6 143d 2c0f 6f3c a19e 573d 3ebc 0e3d
000000a0: 16c7 4a3d 0909 03bd 5d27 283d bd21 01bd
000000b0: a691 a5bb b3a9 45bd 65ec d93d 152d 7abb
000000c0: d221 253c 88fe df3d 3a46 08bd 15dd 053d
000000d0: e04f 013d 12a8 a9bd c1a3 233d 9123 d43c
000000e0: 1185 57bd 04ca 75bb 2a40 e03c ab9c bcbd
000000f0: c763 16bc 74ea 9bbb 561f 41bd 20a1 cd3c

fc4.weight f4 [2, 64]
0.10224712 -0.0036325806 0.1279943 -0.07216984 0.045387805 0.062338926 -0.07287829 0.05124649
-0.0021348596 0.14042605 0.110272326 0.080123134 0.034835372 -0.035232596 -0.08567831 0.121541075
0.08227084 0.042825583 -0.08633144 0.114048034 0.06576511 0.103016414 -0.07327096 -0.048005875
0.14272286 -0.05533436 0.11456877 -0.01733967 0.09596227 -0.078805424 0.07746284 -0.08318841
0.08004547 -0.101315856 0.09786112 0.0809284 -0.10147092 0.013445497 0.03170158 -0.1237542
-0.05358914 0.08055274 -0.014790361 -0.11181359 0.046048015 0.06943287 0.048702884 -0.11161232
0.017409755 -0.057556964 0.03558442 -0.10443743 0.05787635 -0.08267279 -0.08697738 -0.09923582
-0.11291957 -0.120281816 -0.0142225195 0.09139472 0.019496813 -0.06387586 -0.09470729 -0.07855029
-0.15189312 -0.07209188 -0.11952927 -0.016730947 -0.10805707 0.1018035 0.045207903 -0.1461706
0.07513529 -0.009723472 0.083660685 0.06227913 -0.105064124 0.04124138 -0.04570353 -0.08268452
0.06294661 0.08416309 0.09603399 0.0979896 -0.06835301 -0.048932306 -0.005093272 -0.09944419
0.021599054 0.07221264 0.093620434 0.10168867 -0.13866796 0.0803498 -0.078383565 -0.027018204
-0.06249916 0.10640377 0.063667536 0.068732485 0.027306251 0.021340009 -0.12947266 -0.10783087
0.07257 -0.10179412 0.05775276 0.060465276 0.06953306 0.07743366 -0.04416693 0.08623597
0.033601522 -0.18542862 -0.08789329 0.07967689 -0.096063554 -0.011302877 0.023432909 -0.1298269
-0.15018113 0.03412559 -0.12282406 0.09480141 0.02054848 -0.1385451 -0.15207803 -0.091440424
00000000: f066 d13d 9710 6ebb f010 033e c8cd 93bd
00000010: 90e8 393d 1a57 7f3d 3741 95bd d7e7 513d
00000020: 00e9 0bbb d9cb 0f3e 75d6 e13d 9917 a43d
00000030: 89af 0e3d 0e50 10bd 1c78 afbd 87ea f83d
00000040: 9d7d a83d e169 2f3d 8ace b0bd 0492 e93d
00000050: dcaf 863d 45fa d23d 160f 96bd cfa1 44bd
00000060: f125 123e 48a6 62bd 08a3 ea3d ec0b 8ebc
00000070: de87 c43d bd64 a1bd d6a4 9e3d af5e aabd
00000080: e1ee a33d b07e cfbd 696b c83d cabd a53d
00000090: fccf cfbd 804a 5c3c 84d9 013d d872 fdbd
000000a0: 4980 5bbd d6f8 a43d 4553 72bc 86fe e4bd
000000b0: d89c 3c3d d232 8e3d ad7c 473d 0095 e4bd
000000c0: e79e 8e3c dac0 6bbd f8c0 113d 4be3 d5bd
000000d0: c00f 6d3d 5a50 a9bd 3221 b2bd 263c cbbd
000000e0: 6042 e7bd 5056 f6bd 9205 69bc 282d bb3d
000000f0: c8b7 9f3c 59d1 82bd e5f5 c1bd f9de a0bd
00000100: df89 1bbe e8a4 93bd c3cb f4bd 570f 89bc
00000110: 064d ddbd 5a7e d03d ec2b 393d bfad 15be
00000120: 88e0 993d 334f 1fbc 4b56 ab3d 6718 7f3d
00000130: dc2b d7bd b9ec 283d a033 3bbd 8056 a9bd
00000140: 27ea 803d b35d ac3d 78ad c43d c5ae c83d
00000150: aafc 8bbd 3e6d 48bd 76e5 a6bb 65a9 cbbd
00000160: 80f0 b03c 38e4 933d 12bc bf3d 2642 d03d
00000170: f9fe 0dbe 708e a43d 9087 a0bd 4855 ddbc
00000180: 1fff 7fbd 38ea d93d 2064 823d 9ec3 8c3d
00000190: 5cb1 df3c 3ed1 ae3c 7b94 04be 6ed6 dcbd
000001a0: 959f 943d 7079 d0bd 288e 6c3d 70aa 773d
000001b0: 5967 8e3d 8a95 9e3d 62e8 34bd 7c9c b03d
000001c0: c0a1 093d 00e1 3dbe 6601 b4bd a32d a33d
000001d0: f8bc c4bd b42f 39bc 5ff6 bf3c 58f1 04be
000001e0: 15c9 19be 46c7 0b3d 2e8b fbbd 3e27 c23d
000001f0: 4955 a83c c4de 0dbe 58ba 1bbe 1e45 bbbd

fc4.bias f4 [2]
0.071654856 -0.025795398
00000000: c8bf 923d df50 d3bc
