simpledemo/my_network_1.pth (torch, 70849 bytes, 8 tensors)

fc1.weight f4 [64, 4]
000000 00 88 4c 3b 93 87 4d 3e d3 eb 8c 3e 53 66 93 3d
       0.0031208992 0.20071249 0.2752367 0.07197251
000010 08 c9 21 3e 4f f5 0f 3f 1a b4 8c 3c 43 d9 a1 3d
       0.15799344 0.56233686 0.017175723 0.079027675
000020 40 ac 5f bc 6a e6 87 3d 62 51 d0 3e 5c 77 83 3e
       -0.013651907 0.06635745 0.4068709 0.25677
000030 0a 29 f6 be 70 83 f6 3d 58 08 26 be e0 3c aa bc
       -0.48078185 0.120367885 -0.1621412 -0.02078098
000040 8e 1f 81 3e b9 6a 1f bd 2e 80 6a 3e 96 c4 1e 3e
       0.25219387 -0.038920138 0.22900459 0.15504679
000050 62 fe d4 3e 35 c1 41 3d a7 11 9b 3e 7b d2 ea 3d
       0.4160033 0.047303397 0.30286905 0.11465927
000060 2c 0b d2 3e 18 39 9c be e0 4b 66 bd 06 73 a5 be
       0.41024148 -0.3051231 -0.056224704 -0.32314318
000070 84 dc b1 be a4 30 de 3e 76 17 6f bd b8 95 d1 3d
       -0.34738553 0.43396485 -0.058371983 0.10233635
000080 78 24 d3 bd 5c 0b 8e bd ca e0 a2 3e 10 c6 8a 3e
       -0.1030969 -0.069357604 0.31812125 0.27104235
000090 b0 fb 87 3d 94 f4 aa 3e aa a4 f1 3e e4 e7 03 3f
       0.066398025 0.33389723 0.4719594 0.5152571
0000a0 3c 7e 25 3e fc a1 1b be 12 a7 28 3e c0 0d 06 3f
       0.16161436 -0.15198511 0.16469982 0.5236473
0000b0 48 a1 be bd 9e 19 9b 3e c5 41 c8 bc 60 8e 9e be
       -0.09308106 0.30292982 -0.024445424 -0.30967999
0000c0 b2 c2 ff be 36 90 d4 3e d4 96 f6 be 5d 49 89 3e
       -0.49953228 0.41516274 -0.48161948 0.26813784
0000d0 b2 69 d1 be c0 86 fd be 1d 12 c5 3c 22 cb 83 be
       -0.40900952 -0.4951687 0.024056489 -0.25740916
0000e0 e6 dd 8a 3e 61 c3 25 be 1e 65 89 3e 6b 28 c2 be
       0.2712242 -0.16187812 0.2683496 -0.3792146
0000f0 00 5e 20 bd 46 33 00 bf 9e a3 c6 3e e8 ff ae 3d
       -0.039152145 -0.5007824 0.38796705 0.08544904
000100 c0 9a e4 bd 7e af 78 3e 7a b9 9d 3e 67 ee e8 3d
       -0.11162329 0.24285695 0.3080557 0.11373597
000110 74 df 74 be 52 f3 af 3e a7 85 76 3e 33 66 34 3e
       -0.23913366 0.34365326 0.24074422 0.17617111
000120 dc e6 fd be 7c d5 00 3e 37 7b e9 3e d6 3f d3 be
       -0.49590194 0.12581438 0.45601818 -0.4125964
000130 60 75 24 3d 75 b6 12 3e 78 a4 ea 3e 2a 80 84 3e
       0.040151 0.14327414 0.45828605 0.2587903
000140 d0 9b 34 bd c0 ff b0 3e 29 6e 6c bd ea 45 e0 3d
       -0.044093907 0.34570122 -0.057722244 0.10950835
000150 d8 68 8d be 8e 29 8e 3d 8f e7 c6 3c b7 8d 82 3e
       -0.27619052 0.0694152 0.024280338 0.25498745
000160 44 d1 13 3e d5 76 0d 3e ae a5 f1 3e ee bc 80 bd
       0.14435297 0.13814862 0.47196716 -0.062860355
000170 00 57 4a bd 2e c7 54 be 0b 8c b2 bd ff d6 94 be
       -0.049399376 -0.20779106 -0.08718117 -0.2907028
000180 08 f1 e6 bd f8 c3 e3 be dc a2 57 3e b5 c5 8c be
       -0.11276442 -0.4448545 0.2105822 -0.27494588
000190 f8 1a 7e 3e 7b 1e ae be c9 ac 16 3e b1 38 3b 3e
       0.24814975 -0.3400763 0.1471435 0.18283345
0001a0 9e c0 ec be 1b 2e ad 3e 75 9b de be 9d 0d 81 bc
       -0.46240705 0.33824238 -0.4347798 -0.015753562
0001b0 92 66 aa be fe 4e de 3e a9 b9 91 be f2 09 b7 bd
       -0.3328138 0.4341964 -0.2846196 -0.08937444
0001c0 e0 3d 68 3e 34 e5 b0 3d 49 ab cf 3e 07 61 2f 3e
       0.22679853 0.08637467 0.40560368 0.17126857
0001d0 60 d9 27 bd 30 65 a9 be 42 1e 9c bd d3 36 f4 3e
       -0.04097879 -0.33085012 -0.07622959 0.47698078
0001e0 3a e7 ed 3e e3 03 c0 be e0 69 c9 3d 62 d2 de bc
       0.46465474 -0.37502965 0.09834647 -0.027199928
0001f0 b0 58 cb 3d 22 a0 a0 be b8 a5 69 be 2c c1 b6 be
       0.09929025 -0.31372172 -0.22817123 -0.35694253
000200 b2 b1 af 3e 38 eb 7a be c1 97 ca 3d b5 1b d0 3d
       0.34315258 -0.24503791 0.09892226 0.10161535
000210 0c 65 c0 3e f8 3e 4e 3e b8 e1 5f be 3c 60 c1 be
       0.37577093 0.20141208 -0.21863449 -0.37768734
000220 c0 79 05 bd 99 23 a2 3e 4b d2 c0 be ae 50 f9 bc
       -0.032586813 0.31667784 -0.3766044 -0.030433979
000230 a0 a8 cd 3e 85 f2 7f 3e 21 0e 72 be c2 95 45 3e
       0.40167713 0.24994858 -0.23638202 0.1929541
000240 e0 39 6c be e4 6a e9 3e 1d 86 85 ba b8 9e b9 bc
       -0.23068953 0.45589364 -0.0010187064 -0.02265869
000250 16 22 f5 3e c0 ea ad be a2 72 89 be 93 2d be 3e
       0.47877568 -0.33968163 -0.2684527 0.37144145
000260 9a 08 ad be 55 00 01 3f 7f 5c 0d 3d d3 04 95 be
       -0.33795625 0.5039113 0.03451204 -0.29105243
000270 9c 58 7e be 9d d9 85 3e b2 f3 83 3e c4 31 c0 3d
       -0.2483849 0.26142588 0.25771862 0.09384492
000280 b4 77 bf be e3 4b aa 3e 1c 3f 2b bd 6d 4f 88 be
       -0.37396014 0.33261022 -0.041808233 -0.26623097
000290 82 4f b3 be 84 94 7f 3e f6 10 c3 be d6 f2 87 3e
       -0.35021597 0.24958998 -0.38098878 0.26552457
0002a0 c0 69 27 bc 50 97 77 3d a4 2f e1 be 30 13 a8 be
       -0.010218084 0.060447037 -0.4398166 -0.3282714
0002b0 d0 a2 38 3d 3d 10 f0 3d 6d 48 98 3d 7f 94 9e 3e
       0.045077145 0.11721847 0.07435689 0.3097267
0002c0 b0 51 dd 3e e8 f7 99 bd df 28 c8 3d 7e 6a 88 be
       0.43226385 -0.075179875 0.097734205 -0.26643747
0002d0 40 9a bc be ce 4f ed 3e 8e 37 bd be cc 69 a3 3d
       -0.36836433 0.4634995 -0.36956447 0.079791635
0002e0 a0 cf 6f be ee 39 ac be 76 54 45 3e 55 a1 98 3e
       -0.23419046 -0.33637947 0.192705 0.29810587
0002f0 f0 ff da 3e 73 e6 ec 3d 30 fe 95 bc 6a a3 9b 3e
       0.4277339 0.11567392 -0.018309683 0.30398113
000300 ac 58 f3 be d4 de 83 be 0a 9a 3d bd 76 fa bf 3d
       -0.4752859 -0.25755942 -0.04628948 0.093739435
000310 62 24 9d be b4 b1 7b 3e e5 ae d6 be 3f 01 42 3c
       -0.3069182 0.24579507 -0.4193031 0.011841117
000320 a0 64 da bc ea 44 90 3e 42 9a cf 3e ab 6c a7 3d
       -0.02665931 0.28177577 0.40547377 0.08175024
000330 c0 cb 30 bd e6 19 f8 be ee a0 da 3e 95 be da bd
       -0.04316306 -0.4845726 0.42700905 -0.10680882
000340 3e 53 e4 be 02 5d 01 bf 40 10 32 be 90 05 70 3e
       -0.4459476 -0.50532544 -0.17389011 0.23439622
000350 aa af e9 be b0 5b 9c be 86 20 f9 be 9e 13 9d be
       -0.45641834 -0.30538702 -0.48657626 -0.3067903
000360 20 ac f2 3c bc b5 a6 3e a0 d7 92 bd 4c 9f 07 be
       0.029623091 0.32560527 -0.071700335 -0.1324436
000370 38 80 84 3e ee 8a 60 be 99 db ab 3e e3 ce 2d 3d
       0.25879073 -0.21927997 0.33565977 0.04243363
000380 58 f2 ff 3d 21 9f f9 3e 3e 3e 8c 3b 25 42 0c bd
       0.12497395 0.48754218 0.004279881 -0.034242768
000390 24 3d 93 3e 7f 23 59 3c 0f a3 c7 bd 37 5f 91 3e
       0.28757584 0.013253092 -0.09747898 0.28392956
0003a0 64 d4 68 3e d9 c0 00 3e c6 20 f0 3e df 91 d4 be
       0.2273727 0.12573566 0.46900004 -0.4151754
0003b0 28 6b a4 3e f5 a6 fb be b9 3f b8 3e db d2 9b 3c
       0.32113004 -0.49150816 0.35986117 0.019021442
0003c0 40 59 96 bc 4a 2b b3 3d 69 b3 4e 3d 9d 83 1d be
       -0.018353105 0.08748491 0.050464068 -0.15382238
0003d0 d0 1b 1b 3d 37 cb b8 be 83 2d 88 be e3 d2 86 3e
       0.03786832 -0.3609254 -0.26597223 0.2633277
0003e0 20 e7 43 bd 51 22 ef 3e 4b 19 86 be d4 ae ba 3e
       -0.04782784 0.4670587 -0.26191172 0.36461508
0003f0 00 75 83 3c b1 17 1e 3d 34 17 83 3e 43 98 81 bd
       0.016047 0.038596813 0.2560364 -0.0632787

fc1.bias f4 [64]
000000 32 3c 90 bd 39 dd 9d be 5f 7f 35 be f4 dc 2f be
       -0.07042731 -0.30832842 -0.1772437 -0.1717413
000010 74 1b 41 bd ee fe f8 be 44 73 37 be 7d 01 a0 3e
       -0.047145322 -0.48631996 -0.17915064 0.31251135
000020 ca 64 d6 3e a9 28 85 be 6d 7f d4 3e aa 7f 8f be
       0.4187377 -0.26007584 0.41503468 -0.28027087
000030 0b 17 d2 be 08 54 47 3e e7 d2 c7 3e 6a bc f2 bd
       -0.41033205 0.19465649 0.39028093 -0.118523434
000040 d0 04 72 be cf 53 92 3e c9 68 e7 bb f2 8b 37 3e
       -0.23634648 0.28579566 -0.007062052 0.17924479
000050 d3 12 bb 3e d9 de f2 be 01 ac ec be 55 cf d7 3e
       0.365378 -0.47435644 -0.4622498 0.4215037
000060 d4 ba dc 3d 4b 97 9b 3e 10 28 97 3e a0 fc ba 3e
       0.10777822 0.30388865 0.29522753 0.36520863
000070 86 9d a9 be 24 48 be be 02 bd d0 3d db c7 cc 3e
       -0.33127993 -0.37164414 0.101923004 0.39996228
000080 35 79 98 be 0e 07 dc be 72 73 01 3f f0 d2 a3 3e
       -0.29779974 -0.42974132 0.5056678 0.3199687
000090 ac dd a0 3e 14 c1 e9 3e c5 06 92 be 1f 56 b5 bd
       0.31419122 0.4565512 -0.2852079 -0.08854317
0000a0 e7 b3 41 3e 44 dc 8d 3d aa 39 8b be 89 64 ad 3e
       0.18916284 0.06926778 -0.27192432 0.33865765
0000b0 bf 4c a0 be 33 f3 19 be 6a e8 ba 3e 49 37 d3 be
       -0.31308553 -0.1503418 0.36505443 -0.41253117
0000c0 6d 8a b1 3e 9b e4 d5 bd a4 d5 b6 be f7 b1 8a be
       0.34675923 -0.10443994 -0.3570987 -0.270889
0000d0 56 57 24 3d 1c dd c6 be c2 51 f2 be 71 d5 1d bd
       0.040122353 -0.38840568 -0.47328 -0.03853363
0000e0 cf be ac 3e 09 a7 19 3e 05 8a 98 3e 1f fe e7 be
       0.33739325 0.15005125 0.297928 -0.45311067
0000f0 07 02 b5 3e 2b 6a c0 be 4f 1e 0a 3f 12 56 0c be
       0.3535311 -0.37581 0.539525 -0.13704708

fc2.weight f4 [128, 64]
000000 44 3c 41 3d 26 59 c5 3d 34 96 89 bd 7c e8 20 bd
       0.047176614 0.09636144 -0.06718102 -0.039284214
000010 1a 88 fc 3d 20 26 e1 bb cc ba 63 3d 9e ac a8 3d
       0.12330647 -0.006871 0.055598065 0.08236049
000020 80 8c c9 ba 70 be 6d bc f2 f5 cc bd ae c8 f0 3d
       -0.0015376955 -0.014510736 -0.10007848 0.117570266
000030 58 50 42 3d 80 c4 4b 3b 8c 82 c0 bd fc 05 37 3d
       0.047439903 0.0031092465 -0.093999 0.04468344
000040 90 9e 64 3c 74 e6 8b bd 18 5a a6 bd 3e cd ae bd
       0.01395382 -0.06831065 -0.08122653 -0.085352406
000050 02 31 a5 bd ac 08 a2 bd e0 ab 84 3c 30 1f b8 3c
       -0.08065988 -0.0791181 0.016195238 0.022475809
000060 80 76 db ba 28 dc ea 3d 1c 8a dc 3d c8 ac c8 3c
       -0.001674369 0.11467773 0.1076853 0.024496451
000070 96 d0 c5 bd 74 ad 67 bd 96 ef da bd f8 53 ab bc
       -0.09658925 -0.056561902 -0.10690229 -0.020914063
000080 a0 6d 92 bc 90 60 06 3c 8c a1 f9 bd 0e 39 a0 3d
       -0.017874539 0.008201733 -0.12189016 0.07823382
000090 1a 76 ae 3d 40 c6 58 bd 40 8e 83 3d 80 d9 4c bb
       0.0851862 -0.05292344 0.064236164 -0.003125757
0000a0 24 a2 06 bd 10 ef b7 3c 76 95 f9 3d 22 d9 ea bd
       -0.032869473 0.022452861 0.121867105 -0.11467196
0000b0 08 90 36 bd 64 c6 fc bd 88 43 92 bd 20 12 5d 3d
       -0.044570953 -0.123425275 -0.07141787 0.053972363
0000c0 2e ee b0 bd 40 72 17 bd b4 2c 7a bd 10 a7 5e 3d
       -0.08639179 -0.03697419 -0.06107779 0.054358542
0000d0 cc cd 6d bd a0 b8 50 bc 54 cd 75 bd 5a a3 d2 bd
       -0.05805759 -0.0127393305 -0.06001027 -0.10285063
0000e0 a4 9b 07 bd 16 31 93 bd b0 f9 c6 bc de 0e b6 bd
       -0.033107415 -0.07187097 -0.024288982 -0.088895544
0000f0 00 44 0c 39 e0 fe 2d 3c fc fc 1a 3d 04 67 32 bd
       0.00013376772 0.010619849 0.03783892 -0.043555275
000100 4b 1c b7 3d 4e 6b 99 bd 66 f0 b0 bd fa 5e 8c 3d
       0.08940943 -0.0749117 -0.08639602 0.06854053
000110 91 8c 92 3d a1 5a af bd 04 92 0d 3d a3 27 03 bd
       0.07155717 -0.08562208 0.03456308 -0.032020222
000120 73 7f 81 bd 5d 73 a5 bd af db dc bd 78 e8 f6 3c
       -0.06323137 -0.080786444 -0.10784089 0.030140147
000130 20 b6 70 bd 3e e8 a0 bd 96 6a de 3d 43 42 c1 3c
       -0.058767438 -0.07856797 0.108601734 0.023591166
000140 80 38 2c 3d 8f f0 fc bc 59 bf fa bc f7 e4 5e 3d
       0.04204607 -0.030876426 -0.03060882 0.054417577
000150 a0 e9 b5 bd 90 4d 20 bd 9a 17 cd bc b8 9f 51 bd
       -0.08882451 -0.03913647 -0.025035668 -0.05117771
000160 e9 3b cb 3b 41 1b 82 3d 10 6d 8d bc 28 24 59 bd
       0.00620221 0.063528545 -0.01726392 -0.053012997
000170 d4 bd 06 3d a0 1d a4 bb 18 2a 40 3d 5e ae cb 3d
       0.032895878 -0.0050084144 0.046915144 0.09945367
000180 d1 d5 00 be d0 41 49 bc d0 34 1f bd 18 f2 ef bd
       -0.12581564 -0.012283757 -0.038868725 -0.117160976
000190 78 ec cb bd 80 75 be 3c 48 96 b4 bc 2c 1d b3 bd
       -0.09957212 0.023249388 -0.022044316 -0.087457985
0001a0 38 37 9c 3d 94 97 76 bd 8a 2f e6 bd e0 ad 52 3d
       0.0762772 -0.06020315 -0.11239536 0.05143535
0001b0 a8 a5 e2 bd 62 5d c5 bd 17 0b af 3d e0 e8 6d 3c
       -0.11066753 -0.09636952 0.08547037 0.014520854
0001c0 27 d4 95 bc f0 25 a0 3d e6 29 7d bd 7c d6 b8 bc
       -0.018289639 0.07819736 -0.061807536 -0.022563212
0001d0 78 82 32 3d 90 11 23 bc 18 65 86 bd 9c 84 d5 bc
       0.043581456 -0.009952918 -0.06562251 -0.02606421
0001e0 b7 93 07 3d 04 17 c6 3d ed cd 80 bc 29 d9 87 3d
       0.033099856 0.09672359 -0.015723193 0.06633217
0001f0 33 a0 83 3c 6e 81 d1 3d be fc 8b bd 57 6d df 3d
       0.0160676 0.10229765 -0.06835316 0.10909527
000200 61 55 f8 3b 90 70 23 3d da 44 01 bd c6 ce e6 bd
       0.0075785373 0.03990227 -0.031559803 -0.11269908
000210 4c e8 5c 3d f6 5a 92 3d ba 47 fd bd 01 78 79 bd
       0.053932473 0.07146256 -0.123671964 -0.06090546
000220 81 c1 92 3d 83 dd 9c 3d 04 ea 10 3e 39 1c d0 bd
       0.07165814 0.076594375 0.1415177 -0.10161633
000230 9a 4e cd bd 49 b5 b7 bb 14 65 ff bd fc 3b a2 bd
       -0.10024758 -0.0056063277 -0.12470451 -0.07921597
000240 1e 7a b2 bd 26 05 df 3d b6 81 4e 3d 4a 9f b3 3d
       -0.08714698 0.10889654 0.05041667 0.08770616
000250 32 0b f0 bc 27 0c ef 3d 02 48 ea 3d 13 58 c3 3d
       -0.029302213 0.1167224 0.11439516 0.09538283
000260 68 ac a1 bd 6c 90 b6 bd bb d3 7a bc 39 61 72 3d
       -0.07894212 -0.08914265 -0.01530927 0.05917475
000270 61 89 8a 3d 67 bb 39 bd cd c0 47 3d dd 1b 40 bd
       0.06764484 -0.045344736 0.048767854 -0.046901572
000280 82 9c a0 3d 4c 3b 78 bd ef 9b 33 bd 2c 1b a9 3d
       0.078423515 -0.060603425 -0.04384988 0.08257136
000290 3a 9f 78 3d 4b 1d 8c bd 0b 2e 00 be df f1 84 3d
       0.060698725 -0.06841525 -0.12517564 0.06491446
0002a0 18 5a 3b bd 49 6d dc 3d a6 16 85 bd 3c 8b 5a 3d
       -0.045740217 0.10763032 -0.064984605 0.05335544
0002b0 80 a4 56 bc 1a 4d bf 3d 82 a5 30 bd 1e 1f 9a bc
       -0.013100743 0.09340878 -0.04312659 -0.018813666
0002c0 c6 69 6b 3d 12 5c fa bc 49 08 ea bc 8a 16 37 bc
       0.05747392 -0.03056148 -0.028568404 -0.011174807
0002d0 f1 fa a3 bc 0c 17 7d 3d 48 c9 69 bd fb 78 d0 3d
       -0.02001712 0.061789557 -0.057076722 0.10179325
0002e0 aa 96 ad 39 15 3f b0 bb 02 cd 67 3d 55 95 41 bd
       0.00033109385 -0.0053786137 0.056591995 -0.047261555
0002f0 c5 0b aa bd e9 35 28 bd ab 6f 9f 3c 16 5e 83 3d
       -0.08303026 -0.041067038 0.019462427 0.0641443
000300 f6 ad 70 3b 05 65 3e 3e ef 75 08 3e e0 41 98 3b
       0.0036724783 0.18593223 0.13326238 0.004646525
000310 1c 1a 3f 3d 91 83 e0 3c 58 41 fc 3c a2 6e 92 3c
       0.04665576 0.027406486 0.030792877 0.01787502
000320 c1 90 0a 3e 39 67 c1 3d 66 7b 45 3d 30 90 5e 3c
       0.13531782 0.09443516 0.048213385 0.013584182
000330 a8 5a b4 3c cd bf 89 3c c2 3e ee 3c 98 09 80 3b
       0.022015885 0.01681509 0.02908266 0.0039073937
000340 57 51 97 bd 84 24 58 bc 7a 34 d1 bd 0f d9 68 bd
       -0.07388561 -0.0131923 -0.10215087 -0.05684763
000350 a7 da 18 bc 8e dd b2 bd 70 2a d6 3d 80 ce ed 3d
       -0.0093294745 -0.087336645 0.10457313 0.116116524
000360 25 97 1f bd 88 ef 01 3e e4 40 01 bd c0 f6 8f bd
       -0.038962502 0.1268903 -0.031556025 -0.07029486
000370 89 9b d4 bd f2 a4 03 3e e5 d9 de 3d 20 9f b1 3c
       -0.103812285 0.1285589 0.10881404 0.021682322
000380 4f ef 31 3d 40 70 40 bd d4 2f 03 3e 97 21 e5 3d
       0.043441113 -0.04698205 0.12811214 0.111880474
000390 4a 62 43 3d f7 a8 93 bc 4b 6c 3f b6 c6 3f ed 3c
       0.047701158 -0.018024905 -2.8524253e-06 0.028961074
0003a0 ef a0 85 bd 90 61 f4 3d 2e c9 91 3d a6 a4 8d 3d
       -0.06524836 0.11932671 0.0711845 0.0691617
0003b0 64 9b 80 3d 9e 5f 64 3d 9f bc 5f 3c b7 0d 18 3c
       0.062796384 0.05575525 0.013655811 0.009280614
0003c0 dc 19 de 3d 13 39 04 bc a3 18 70 3c 63 40 ce bd
       0.10844776 -0.008070248 0.014654311 -0.100708745
0003d0 f8 6e 2a 3d 80 19 c8 3b 58 78 29 3d e3 01 9c bc
       0.041609734 0.0061065555 0.041374534 -0.019043868
0003e0 b4 8a dd 3d 6a f6 b4 bd 69 17 4a 3d 0c f6 13 3d
       0.10817471 -0.08836062 0.049338732 0.03612332
0003f0 57 6a 87 bd fb b4 6e 3d cf 69 56 bd d5 f5 82 3d
       -0.066120796 0.058278065 -0.052347 0.06394545

fc2.bias f4 [128]
000000 18 d8 56 3d f4 ea c8 bd c1 99 d7 3d d1 96 46 bd
       0.052452177 -0.09810439 0.10527373 -0.048483673
000010 27 5a e6 3c 56 6d 8a bd e9 b3 ee bb db 5a ef 3d
       0.02811916 -0.067591354 -0.0072846306 0.11687251
000020 88 fc bf bb 2e c8 3e bd 3e 95 45 3d f8 27 95 3d
       -0.0058589615 -0.046577625 0.04823803 0.07283014
000030 f6 7c 3f 3d f0 33 e3 3d 22 84 d2 3d af 3e ae 3d
       0.04675003 0.11093891 0.102791086 0.0850805
000040 64 7a 08 3d 78 7d d9 bd e9 94 1a 3e bf 95 fc 3b
       0.033319846 -0.106196344 0.15095867 0.007708281
000050 05 d5 40 bc 54 1d 0b bd d5 a5 52 3c 04 c3 6b bd
       -0.011769538 -0.033963516 0.01285692 -0.05755903
000060 30 65 04 3e 08 b1 8f 3b 63 17 2f 3e ed 17 56 3d
       0.12929225 0.0043851174 0.17098765 0.05226891
000070 27 7a 0a bd 3e 1e c2 bd 64 b9 93 bd 8f 82 7a 3c
       -0.0338079 -0.094784245 -0.07213095 0.015289917
000080 4c 09 80 bd cf 4a e5 3b 7c 44 27 bd 0a fc a6 bd
       -0.06251773 0.0069974433 -0.040836796 -0.081535414
000090 5b 93 a5 3d c3 70 80 3d e7 00 95 bc c9 96 85 bd
       0.080847465 0.062715076 -0.018188907 -0.065229006
0000a0 10 3e 0c bd 57 a0 cb 3d de cd c4 3d 70 5f c0 bd
       -0.034238875 0.09942692 0.096095785 -0.09393203
0000b0 d3 22 7b 3d 7e a9 92 bb 5a ab 94 bd ba 91 91 3d
       0.061312508 -0.0044757714 -0.07259245 0.07107873
0000c0 60 bd 23 bc 0a d6 cf 3d 29 66 59 bd 4c b0 14 bd
       -0.009993881 0.101482466 -0.053075943 -0.036300942
0000d0 02 0d fb 3c 3a 9f 80 3d 1a cf 83 bd 1d 9f ec bb
       0.030645851 0.0628037 -0.06435986 -0.007221116
0000e0 cc c2 94 bc 0c 39 c7 bd 14 41 ee bd 8e e9 ca 3d
       -0.018159293 -0.09727678 -0.116335064 0.09907828
0000f0 ec 66 1f 3b 52 9b ad bc b8 d2 cb bd 37 e3 21 bc
       0.002432282 -0.021192227 -0.09952301 -0.009880832
000100 e0 49 f1 3b 7c 20 37 bd 26 84 34 3d ac 6c 23 bd
       0.007363543 -0.044708714 0.04407134 -0.03989856
000110 1c 30 7d 3d 50 7b d5 bd 0f 9e e2 3d e8 28 e6 bd
       0.06181346 -0.104239106 0.110653035 -0.11238271
000120 48 ea 9b bd 13 60 fb 3c 2c 61 11 3d 92 aa a4 bd
       -0.07613045 0.03068546 0.03549306 -0.08040346
000130 66 91 bb 3b 14 06 56 bd 74 e6 0a 3d 33 a6 cd bd
       0.00572412 -0.05225189 0.033911183 -0.100414656
000140 67 46 62 bc f0 05 28 3c b3 90 86 3d 31 c7 a7 bd
       -0.013810731 0.010255322 0.06570568 -0.081922896
000150 2a c4 ed bd 46 de e3 bd a8 3b 8f bd ac 1b 97 bd
       -0.11609681 -0.1112638 -0.069938004 -0.07378325
000160 90 95 9a bd fb d0 44 3d 66 aa 8a bd 6c 71 10 3b
       -0.07548058 0.04805086 -0.06770782 0.002204026
000170 84 fd 80 3d 92 b7 33 3d 0a 3f 1f 3e 1d 3b a8 bd
       0.06298354 0.04387624 0.15551391 -0.082144
000180 cd a3 8e 3d a6 f9 61 bd b6 7f 86 bd 75 ed 8c bb
       0.06964836 -0.055169724 -0.06567328 -0.004300768
000190 be 41 c7 3d ee c4 9d bc 45 89 76 bd 9e f0 d0 bd
       0.09729336 -0.019258942 -0.060189504 -0.10202144
0001a0 22 50 c6 3d a2 6f c8 bd 3e 82 82 bd f0 ce 07 bd
       0.09683253 -0.09786917 -0.06372498 -0.033156335
0001b0 ec 42 80 bd 08 7b bb 3d bc e3 59 3c 99 d6 48 3d
       -0.06262764 0.09154326 0.013298925 0.04903278
0001c0 d8 5c be bc 84 7d 31 3d 08 ab c9 bc b2 7e e0 3b
       -0.02323763 0.04333259 -0.024617687 0.0068510408
0001d0 b0 fe 20 3c b6 2c 33 3e 94 7c 2a 3e f8 c8 8d bb
       0.009826347 0.17497525 0.16649085 -0.004326936
0001e0 77 ec ef bc 47 bd e2 bd 3c a5 56 bd 50 1f 01 bd
       -0.02928756 -0.11071258 -0.052403674 -0.031524003
0001f0 fd 2b a6 ba 16 d7 17 bc 02 4a 37 3d 32 6e 4b 3d
       -0.0012677904 -0.009267589 0.044748314 0.049665637

fc3.weight f4 [64, 128]
000000 c4 06 41 bd 78 7c a5 bd c4 fa 14 3d d0 69 1c 3d
       -0.047125593 -0.08080381 0.03637196 0.03818685
000010 6a 80 81 bc 64 06 f4 3c 30 4d da bc ef 39 6e bb
       -0.015808303 0.029788204 -0.026648134 -0.003635045
000020 eb aa 3a 3d 68 69 26 3a 85 2b d0 3d bc 94 2f bd
       0.045573156 0.0006348104 0.10164551 -0.042866454
000030 43 fe bf 3d 64 d9 7e 3d c3 ac 4d 3c ad db 59 bd
       0.093746684 0.06221904 0.012553397 -0.053188015
000040 17 59 b4 3d 3c 77 99 3c 13 7e db 3d d9 df 43 3b
       0.08806055 0.018733613 0.10717406 0.0029888062
000050 1f de 61 bd bc 62 8f bd 25 5f d1 3d 63 0a aa bd
       -0.05514347 -0.07001254 0.102232255 -0.08302762
000060 65 a9 7a 3d 97 37 46 3d 5a fa 56 bd 05 be 11 3d
       0.061196703 0.04839286 -0.052484848 0.035581607
000070 19 88 d1 3b 0a 95 d2 3c c4 9a ba bc 15 76 36 3d
       0.006394398 0.025705833 -0.022778876 0.044546206
000080 2a 5c 6f 3d c1 00 eb bc 6d b8 43 bd a7 de 0f bd
       0.058437504 -0.028686883 -0.047783304 -0.035124447
000090 66 d0 92 3d d9 4d f9 3c 2d 10 b4 bc e1 35 d4 3d
       0.07168655 0.030432628 -0.02198037 0.10361839
0000a0 30 34 47 bc 47 10 27 3d 56 c3 47 bd a5 2b b0 3d
       -0.012158439 0.040787008 -0.04877027 0.086020745
0000b0 4b 72 91 3d f4 56 7d bc 7c 49 a6 bc 66 ae a5 bc
       0.07101878 -0.015462626 -0.020298712 -0.020224761
0000c0 d7 20 cc 3c 02 18 6c bd bc cd 36 bd 2f 5b b1 3d
       0.024918003 -0.057640083 -0.044629797 0.0865997
0000d0 60 00 d2 3c de c2 cf 3d b3 e9 f2 3c 9d 90 30 bc
       0.025634944 0.1014459 0.029652452 -0.010776666
0000e0 a7 8d 8a bc e1 b7 3f 3d a9 94 8a 3d 09 85 98 3d
       -0.016913248 0.04680622 0.06766636 0.074472494
0000f0 f3 66 87 3d e8 8c 7a bd db 38 15 bd 92 b7 06 3d
       0.06611433 -0.061169535 -0.036431175 0.03288991
000100 a4 99 d7 bc 70 aa 3a bd c0 90 b2 bb 95 40 61 bc
       -0.026318379 -0.045572698 -0.0054493845 -0.013748308
000110 16 0e 4a 3d fb a5 28 bd e6 4e 54 bd d1 dc 50 bd
       0.04932984 -0.041173916 -0.051833056 -0.050991837
000120 9e 38 9d bd 20 85 a6 3d e0 62 68 3d d4 a9 93 3d
       -0.076768145 0.0813086 0.05673492 0.072101265
000130 f3 5d 07 bd f6 b2 bd bc 3b 7e 9b 3c 95 01 40 3d
       -0.03304858 -0.023156624 0.01898109 0.04687651
000140 ca 43 c2 3c b9 6d 93 3d d1 d3 95 bc 5c cd a2 3d
       0.023713965 0.07198662 -0.018289478 0.079493254
000150 46 71 2a bd ce d0 2c 3d c0 6a 20 bd ba 8e 99 bd
       -0.041611932 0.04219132 -0.039164305 -0.07497926
000160 54 f4 8e bc 64 d7 e1 3d e8 26 ab bd 0c 08 d6 bc
       -0.01745049 0.110274106 -0.0835703 -0.026126884
000170 8c 4e b1 bc 2f 88 71 3d ef e5 f9 3d fc ba d8 bc
       -0.0216439 0.058967765 0.122020595 -0.026456349
000180 8e aa 72 3d c8 7d f3 3c b5 df b9 3c 91 be 09 3d
       0.059244685 0.029723063 0.02268968 0.033629004
000190 f1 db 42 3d 01 dd 96 3d 14 d6 ea 3c a0 36 b8 bc
       0.047573034 0.07366372 0.028666534 -0.022486985
0001a0 7e bc 8c 3d 6a 2a a4 bd 08 f7 96 bd 86 9b 99 bd
       0.068718895 -0.08015902 -0.07371336 -0.07500367
0001b0 3e 5f 94 3d f7 7b 54 3c 94 cd 0c bd 41 01 c3 3b
       0.072447285 0.012969009 -0.034375742 0.005951077
0001c0 22 37 4c 3d 1e 19 71 bd 47 5b aa 3d aa 3b 55 bd
       0.049857266 -0.058861844 0.08318191 -0.052058853
0001d0 54 9e d2 bc f2 8d 07 3d 8a 71 ee 3c 0d 99 83 bc
       -0.025710262 0.033094354 0.029106874 -0.016064191
0001e0 99 4a c4 3d 62 c7 38 bd 00 fa 12 39 8a 6b 60 3d
       0.09584541 -0.04511202 0.00014016777 0.054790057
0001f0 84 4b 95 bc 84 6a b2 3d ad 00 af 3c e6 79 69 3c
       -0.018224485 0.087117225 0.021362627 0.014250254
000200 06 05 29 3d 00 1e 06 3c d4 b9 da bc f2 08 46 3d
       0.041264556 0.0081858635 -0.026699938 0.048348375
000210 f3 eb 40 3d dc ee 5d bd c8 92 97 3c 5c c1 21 bd
       0.04710002 -0.054182872 0.018502608 -0.039491042
000220 31 03 b7 3d 21 56 37 3d d3 1c 44 3d 4c af 3d 3d
       0.089361556 0.044759873 0.04787905 0.046309754
000230 e2 a3 15 3d ea 21 3b bc bd 28 bf 3d 99 d5 2b bd
       0.036533244 -0.01142166 0.09333942 -0.04195175
000240 c4 9c 32 3d 9a 69 d7 bc 63 34 2c 3d b0 c3 bf 3d
       0.043606535 -0.026295472 0.042042147 0.09363496
000250 ce 13 49 3d 2a 56 44 3d 67 a9 b3 3d 00 e7 d8 3b
       0.049091153 0.047933735 0.08772545 0.006619334
000260 b7 7c 17 3e 16 09 6d bc 66 b0 ac 3c f0 06 a8 3d
       0.14793669 -0.014467498 0.021080207 0.08204448
000270 75 42 85 3d 3b d2 92 3d b9 77 93 3d 1b 93 8c 3d
       0.06506816 0.071690045 0.0720057 0.06863996
000280 00 c9 b4 3c e3 b4 7f 3d 9f 86 a5 3d 38 f7 7b 3c
       0.0220685 0.062428366 0.080823176 0.015378766
000290 c8 be 24 bd d4 af 6b 3d 8c 75 9a 3d 4f 57 95 3d
       -0.040221006 0.05754073 0.075419515 0.072920434
0002a0 bc 6d 40 bd ab a5 eb bb 24 e9 de 3d 50 48 50 bd
       -0.04697965 -0.00719138 0.10884312 -0.050850213
0002b0 41 99 03 3d d5 86 13 3d 1b d5 96 3d c9 83 0c 3e
       0.032128576 0.036017258 0.073648654 0.13722147
0002c0 f1 85 da 3d 7f 21 0e bc 6b 36 2f bd 35 1b dd 39
       0.106700785 -0.008674978 -0.042776506 0.00042172676
0002d0 5c dd 27 3d 1b 55 a4 3d 3a f2 d1 3d 86 df b9 3c
       0.04098259 0.08024045 0.10251279 0.022689592
0002e0 41 88 08 3d 3c d2 a1 3d 88 ea 17 bc 46 be 9f bd
       0.033333067 0.07901427 -0.009272225 -0.07799964
0002f0 1c 29 25 bc ff a3 2b bd 49 3a dc 39 69 c7 9b 3d
       -0.010080602 -0.041904446 0.00042005096 0.07606394
000300 3a cf 8c bd c2 fd 9b bb f9 55 3b 3d 3a 65 6f 3d
       -0.06875463 -0.004760475 0.045736287 0.058446147
000310 d6 8c a4 3c 40 ae ca bc 1e 6b 9e 3d 00 4a 76 3a
       0.020086687 -0.024741292 0.07735275 0.0009395182
000320 3d 54 8f 3d bf 71 22 bd 27 69 af 3d 8c 94 a2 3d
       0.06998489 -0.039659258 0.08564978 0.07938489
000330 ec 70 b8 3c 56 30 e6 bc 4c a5 60 bd 9d 7a 61 3b
       0.022514783 -0.02809922 -0.05484514 0.0034405359
000340 eb 7b 66 3d c0 bb 21 bb 83 ea 09 3e 6c bd 55 3c
       0.05627052 -0.0024678558 0.13468365 0.01304565
000350 32 54 26 3d 40 38 eb 3a ec ed ab 3d cb 3b 3e bd
       0.04060764 0.0017945841 0.08394989 -0.04644374
000360 7f 55 0f 3d c2 fa ec 3c f5 af ab 3d 87 bb 73 3c
       0.034993645 0.028928164 0.083831705 0.014876253
000370 b5 c5 97 3d 66 85 4e bd 4b 27 05 3d 18 2f 53 bd
       0.074107565 -0.050420187 0.032508176 -0.051558584
000380 ab ce 28 bd a8 9d 07 bb db 54 2a bd 21 c7 b5 3d
       -0.04121272 -0.0020693336 -0.04158483 0.088758714
000390 87 85 34 3d 9d 3e b6 bc 6a 3b fd 3d e5 e4 52 bd
       0.044072654 -0.022246653 0.12364848 -0.051487822
0003a0 76 84 99 3d 60 5a 9d bc b8 fb d9 3c 7b d4 3e bd
       0.07495968 -0.019208133 0.026609287 -0.046589356
0003b0 5c e7 a5 bc de 94 12 bb eb d6 37 bd 44 0a 7f bd
       -0.020251922 -0.0022366564 -0.044882696 -0.06226565
0003c0 cc 68 f3 3c 91 05 e2 3b 84 9b b1 3c 97 2b 40 3c
       0.029713057 0.006897636 0.021680601 0.011729143
0003d0 40 b9 5c bb 83 85 0c 3b ad 06 d3 3d e2 e3 84 3d
       -0.0033679754 0.0021441884 0.10304008 0.06488778
0003e0 b9 ae ba 3d 43 88 cd bb c0 a1 81 bb 37 a2 f7 3b
       0.09115357 -0.006272347 -0.0039560497 0.0075571793
0003f0 df d7 6f bd 7b 6f bf 3c c6 1d 85 3d 8b 09 83 3d
       -0.05855548 0.023368588 0.064998195 0.063983046

fc3.bias f4 [64]
000000 7f 65 33 bd 31 93 8f 3d af 1d 6c 3d 48 25 dd bc
       -0.043797966 0.070104964 0.057645496 -0.026995316
000010 5a e0 4a 3b 99 0b 2c 3d c9 e9 86 3c bf 38 84 bd
       0.0030956478 0.042003248 0.0164689 -0.06456136
000020 7f f7 65 bc 3e 1c 2a bd db 0c c2 3c e3 c2 88 bd
       -0.014036058 -0.04153084 0.02368777 -0.06677797
000030 30 19 86 3d 25 73 6e 3d d3 b3 1e 3d c1 de 47 3d
       0.06547773 0.05821528 0.038745712 0.04879642
000040 13 b4 d1 3c 83 cc 3f bb 59 c4 45 bd 38 ba 4b 3a
       0.025598561 -0.0029266186 -0.048282955 0.0007771584
000050 96 f5 ea 3d 3f 70 b2 bd ab 5c 5a bd 55 ef e4 bb
       0.11472623 -0.087128155 -0.05331103 -0.0069865384
000060 65 3b d6 3d 7e 3f 37 bd d7 06 31 3d b6 4c fb 3c
       0.10460547 -0.044738285 0.043219414 0.030676227
000070 a5 d6 14 3d 6e fb 06 bd 53 91 67 3c c4 ed 23 bd
       0.036337513 -0.032954626 0.014133769 -0.040021673
000080 1b ca 89 3c f0 4c 6d 3d eb 8b 11 3c 8e 03 0d bc
       0.016820004 0.0579347 0.008883457 -0.008606805
000090 b5 b1 c1 bd 6d 68 b2 3b f7 3f 93 3d 89 3f d3 3d
       -0.09457723 0.0054445774 0.07189935 0.10314853
0000a0 88 6f de 3d fb 68 3e 3d de 62 ae 3c f4 ac 89 3c
       0.10861117 0.046486836 0.021287378 0.016806103
0000b0 d8 b4 cc 3d 31 f4 55 3c 19 d7 23 bc 11 c0 81 3c
       0.09995431 0.013058708 -0.010000014 0.015838655
0000c0 bd b1 a7 bb c5 43 99 bd b9 20 c1 3c 4e 07 53 3d
       -0.0051176236 -0.07483629 0.023575174 0.05152064
0000d0 e8 61 90 bd b5 87 42 bd f8 59 91 3c f9 bc 52 bd
       -0.07049924 -0.0474927 0.017743096 -0.05144975
0000e0 21 7f 60 3d 29 e1 8f bd 1b 9c 1b 3c 2e 14 c7 3d
       0.05480874 -0.07025368 0.009497668 0.09720646
0000f0 7b 62 60 3c fa a1 59 3d fd 75 26 3c be 0c 31 bd
       0.013695355 0.05313299 0.010159967 -0.043225043

fc4.weight f4 [2, 64]
000000 77 1f a6 3d cb 9f e1 bc f4 06 bb bd 02 3f 9a bc
       0.0811147 -0.027542016 -0.091321856 -0.018828873
000010 2a fc 91 3a fe f6 b6 bd a1 b5 cf 3d 5a cd e5 3d
       0.0011137773 -0.08933829 0.10142065 0.11220808
000020 1e 17 a3 3d 26 2b f1 bd 02 03 25 3e d4 0b 42 3d
       0.07963394 -0.11775808 0.16114429 0.04737456
000030 86 50 62 3d a6 71 d3 3d d8 b8 03 be 92 1c b7 3d
       0.055252574 0.10324411 -0.12863481 0.08940996
000040 66 57 55 3d ce 93 94 bd 9c 77 2c 3d ad 42 bb 3a
       0.052085303 -0.07254754 0.042106256 0.0014286839
000050 1a cc af bc e8 68 ee bc 87 d9 c6 3d 90 28 a0 bd
       -0.021459628 -0.029102758 0.09709459 -0.07820237
000060 8a 10 66 bb 05 c0 ad ba 3e 86 c9 3d 8b 4a c7 bd
       -0.0035105073 -0.0013256079 0.09840058 -0.09731015
000070 0f b9 a2 3d d4 bb 15 3e 52 83 d8 bd fd ff cb 3c
       0.079454534 0.14622432 -0.10571922 0.024902338
000080 cc 9e e7 3d 6e 91 ff 3c ee 63 57 3d 0d 48 b1 3d
       0.11309585 0.031197276 0.052585535 0.08656321
000090 c1 a8 8a bd 24 49 25 3d a0 d0 1a 3c 77 d9 83 3d
       -0.067704685 0.040352955 0.009449154 0.064379625
0000a0 d2 b0 0e 3d 7e 4d 3c bc 41 77 05 3d c3 a5 21 3e
       0.034836598 -0.011493085 0.032584433 0.1578589
0000b0 23 78 1d 3d e3 ad ca bc 59 42 93 3c 4a 8c 0a bc
       0.03844465 -0.024741119 0.017975973 -0.008456299
0000c0 f5 92 54 bd ac 37 8a bc aa 46 cd 3d 62 e6 90 bd
       -0.05189796 -0.01687225 0.10023244 -0.07075192
0000d0 e8 df b5 3d 80 0a d3 bb e1 b9 e2 bd 20 33 b5 3b
       0.08880597 -0.0064404607 -0.1107061 0.005529776
0000e0 ab 9d dc 3d 35 f7 d3 3d e5 d5 0c 3c 92 69 0e 3c
       0.1077226 0.103498854 0.008595918 0.008692162
0000f0 21 72 05 bd a4 a7 b1 3d 39 0a c6 bd 8b de a0 bd
       -0.032579545 0.08674553 -0.096699186 -0.07854947
000100 94 b6 26 be d1 bb 2e be 1c 21 b1 3d c4 cd b6 bd
       -0.16280586 -0.17063834 0.08648893 -0.089259654
000110 9c af a4 bd 14 5b 3f 3d 0e c1 a8 3d b1 a4 c1 3d
       -0.08041307 0.04671772 0.08239947 0.094552405
000120 81 d2 04 be 80 38 cc 3c e7 7e 6b 3c 92 f3 4f 3d
       -0.12970926 0.024929285 0.014373518 0.050769396
000130 27 d7 3a be 44 ea 58 bc e9 4f 86 bd 83 eb 07 bd
       -0.18246137 -0.013239447 -0.065582104 -0.033183586
000140 9b 4b ed bc 6c fb 33 3d 7e 35 d9 3d 17 48 c8 3d
       -0.028966716 0.043940946 0.10605906 0.09779375
000150 bb 64 0b be d2 bd a9 3d 2b 2c 2f 3c 53 42 f8 bb
       -0.13612644 0.082881585 0.010691683 -0.007576266
000160 10 0e b1 bd 1d f3 80 3d 91 c6 89 3d 7b 87 d9 bc
       -0.0864526 0.0629637 0.06727327 -0.02655386
000170 c2 e7 88 3d ce a0 2f 3d 98 5c 24 be b5 a9 d1 3d
       0.06684829 0.042877965 -0.16050947 0.10237447
000180 9c 91 5f bd 16 5a 4e bc 67 2e 43 3d 77 80 f9 3d
       -0.054582223 -0.01259472 0.047651675 0.12182706
000190 6d 78 8c ba 53 7a 62 3d fa c3 a6 bd 1c f9 fc bd
       -0.0010717042 0.05529244 -0.08142848 -0.12352201
0001a0 63 8d b6 bd 6f f2 db bd 3d 9a 8e 3d 28 06 77 bc
       -0.08913686 -0.107396 0.06963012 -0.015077151
0001b0 31 9e 00 be a6 62 10 be 8a f1 b2 3c 1c b1 26 be
       -0.12560345 -0.14100131 0.02184369 -0.162785
0001c0 47 d4 09 bd 53 bf 87 3d 21 04 30 be 6e 0a e1 3d
       -0.03364971 0.06628289 -0.17189075 0.109883174
0001d0 6c 7b d1 bd c0 3e b8 3c 30 ba 61 bd 8f 37 e3 3d
       -0.10228619 0.022490859 -0.055109203 0.11094581
0001e0 bc 9a a1 bc da ca 26 3d 99 8e e7 3c 26 05 0f be
       -0.019727103 0.040720798 0.028266238 -0.13966808
0001f0 32 df 18 be e4 87 10 3d 5e 7d a6 3d 27 a4 b4 bc
       -0.14928892 0.035285845 0.08129381 -0.02205093

fc4.bias f4 [2]
000000 46 9e e6 3d 86 8c 16 be
       0.11260657 -0.14702043
