simpledemo/my_network_4.pth (torch, 70849 bytes, 8 tensors)

fc1.weight f4 [64, 4]
0	0x3cd87c00	0.026426315
1	0xbedf3adc	-0.43599594
2	0x3e31b609	0.17354597
3	0x3d9cfe64	0.07665709
4	0x3e7c96f4	0.24666959
5	0x3ad88450	0.0016518924
6	0xbec81116	-0.39075536
7	0xbebeda90	-0.37276125
8	0x3e9d9584	0.30778134
9	0x3e1479f5	0.14499648
10	0xbeead323	-0.4586421
11	0xbe47265e	-0.1944823
12	0xbe24f848	-0.16110337
13	0xbe8c35da	-0.27384835
14	0x3e8e3784	0.2777673
15	0x3e87d4fb	0.2652968
16	0x3e5c9354	0.21540576
17	0xbefb9782	-0.4913903
18	0xbde32fe8	-0.11093122
19	0xbed85000	-0.42248535
20	0x3e870c92	0.26376778
21	0x3edf2c93	0.43588695
22	0x3dfb4562	0.12269093
23	0xbe24eb75	-0.16105445
24	0xbea4f336	-0.32216805
25	0xbeae3179	-0.3402212
26	0xbd40c8f9	-0.047066662
27	0x3e4406a0	0.19143152
28	0x3e2ee238	0.17078483
29	0x3e61117d	0.21979327
30	0x3eefed30	0.46860647
31	0x3ed202da	0.410178
32	0x3e43f938	0.19138038
33	0x3ec2d924	0.3805629
34	0x3edebbf4	0.43502772
35	0xbe87ab33	-0.26497802
36	0xbe93cce2	-0.2886725
37	0x3ecf2215	0.4045569
38	0x3e4fa7f4	0.20278913
39	0xbd39326f	-0.045214113
40	0xbdfa0540	-0.122080326
41	0xbcd7969d	-0.026316935
42	0x3e1191a6	0.14215717
43	0xbbd18ae8	-0.0063947327
44	0xbe9fa9e0	-0.31184292
45	0xbe0aaf9d	-0.13543554
46	0x3ddc06a8	0.10743457
47	0x3d1fe811	0.039039675
48	0x3e097424	0.1342321
49	0xbd9e98d8	-0.077439964
50	0xbef5ec5c	-0.4803189
51	0xbea1900a	-0.31555206
52	0xbeb4ebcc	-0.3533615
53	0x3e0bf9af	0.13669465
54	0x3c135089	0.008991369
55	0xbeb0099d	-0.34382334
56	0xbe0c5374	-0.1370371
57	0x3e85b5eb	0.26115355
58	0x3eea039a	0.45705873
59	0xbe243e3a	-0.16039363
60	0x3ec513e4	0.38491738
61	0xbf0bee58	-0.5466056
62	0x3e0d169d	0.13778158
63	0x3cbdd492	0.02317265
64	0xbed16644	-0.40898335
65	0x3f0ca1e7	0.54934543
66	0x3e22f79a	0.15914765
67	0x3e8b4698	0.27202296
68	0xbd9d4888	-0.0767985
69	0xbe4a606e	-0.19763348
70	0x3db8eb82	0.090292946
71	0x3e4a656b	0.1976525
72	0xbdc70e18	-0.09719485
73	0xbdae67b0	-0.085158706
74	0xbc7eca9e	-0.015551237
75	0x3e514b49	0.20438875
76	0x3dd0bac0	0.1019187
77	0xbeacd168	-0.33753514
78	0xbdb0a6a8	-0.08625537
79	0xbe29d478	-0.16584957
80	0xbe19947c	-0.14998049
81	0x3df9ef05	0.122037925
82	0xbef798fd	-0.48358908
83	0x3cd1e071	0.025619717
84	0x3e11932c	0.14216298
85	0x3e4e2178	0.20129955
86	0x3b56196a	0.0032668957
87	0x3c4cdba0	0.012503535
88	0x3e966c3a	0.29379445
89	0xbf00accb	-0.5026366
90	0xbf024939	-0.5089298
91	0xbed2756a	-0.41105205
92	0x3ed4d3b0	0.41567755
93	0x3e51c4b0	0.20485187
94	0xbec629c3	-0.38703737
95	0xbed9f94a	-0.42573005
96	0xbe67be70	-0.2263124
97	0xbeca3c9e	-0.39499372
98	0xbc707780	-0.0146769285
99	0xbdf7ed50	-0.12105811
100	0xbee40418	-0.44534373
101	0x3ee10d24	0.43955338
102	0x3edf502f	0.43615863
103	0xbe418174	-0.18897039
104	0xbec446ce	-0.3833527
105	0x3eb592fa	0.35463697
106	0x3e184ac0	0.14872265
107	0xbe9dc84f	-0.30816886
108	0xbe9b90da	-0.3038395
109	0x3ea100ee	0.31446022
110	0xbeca7fa2	-0.395505
111	0x3eea815e	0.45801824
112	0xbea6f556	-0.3260905
113	0x3f01613d	0.50539
114	0xbeb2a799	-0.34893492
115	0xbcd9f7ce	-0.02660742
116	0xbed5bdf8	-0.41746497
117	0x3da706c5	0.08155588
118	0x3e853ee4	0.26024544
119	0xbeed5c7a	-0.46359617
120	0x3ef21da0	0.47288227
121	0xbedbd5ae	-0.42936462
122	0x3ed6b99e	0.4193849
123	0xbee610ed	-0.44934788
124	0x3e9ab136	0.30213326
125	0xbe8ca1db	-0.27467236
126	0xbe8a40fd	-0.27002707
127	0x3eeb6c18	0.45980906
128	0xbedef294	-0.43544447
129	0xbeb26a6a	-0.34846812
130	0xbe705a2c	-0.23471898
131	0xbeb5da2c	-0.35518014
132	0xbec271e0	-0.37977505
133	0x3d86568a	0.06559475
134	0x3efa6f08	0.48912835
135	0xbebf7df9	-0.37400797
136	0xbe00abe4	-0.12565571
137	0xbdea1858	-0.114304245
138	0xbb04535e	-0.0020191292
139	0xbe0e2f74	-0.1388529
140	0xbdca1768	-0.09867746
141	0x3eb33576	0.35001725
142	0xbeb1ab3e	-0.3470096
143	0x3c27bde3	0.010238144
144	0xbe95c862	-0.29254442
145	0xbea1cc13	-0.3160101
146	0x3cb20315	0.021729985
147	0xbd9ce9a2	-0.076617494
148	0x3eda42ba	0.42629033
149	0xbd840b3d	-0.06447456
150	0x3e96406c	0.29346025
151	0x3e839a45	0.25703636
152	0xbdc1c740	-0.09461832
153	0x3e8ae726	0.27129477
154	0xbe314924	-0.17313057
155	0x3ea476b5	0.32121816
156	0xbe096170	-0.13416076
157	0xbd9edec8	-0.07757336
158	0x3ebb3043	0.36560258
159	0xbeec134a	-0.46108466
160	0x3e96a6ba	0.29424077
161	0x3e84a33a	0.25905782
162	0xbd232275	-0.039827783
163	0xbdd1e25f	-0.10248255
164	0x3d67a470	0.056553304
165	0x3eab35a5	0.33439365
166	0x3e0de30d	0.13856144
167	0xbe1d293f	-0.15347765
168	0xbec91106	-0.392708
169	0x3cfcb160	0.030846298
170	0xbe529a0c	-0.20566577
171	0xbe4750c8	-0.1946441
172	0x3e115230	0.14191508
173	0x3e6da690	0.2320807
174	0xbe91e860	-0.284976
175	0xbeaecb5e	-0.34139532
176	0x3e74055c	0.2383017
177	0xbe07a679	-0.13247098
178	0x3e34728e	0.17621824
179	0x3e9ba73c	0.30401027
180	0xbef0b8ca	-0.47015983
181	0xbe36111e	-0.17779967
182	0xbe3f2a98	-0.18668592
183	0x3e4c59c4	0.19956118
184	0xbee96884	-0.45587552
185	0x3f0b6cdc	0.5446298
186	0x3e90e268	0.28297734
187	0xbe89f41b	-0.2694405
188	0x3eedd466	0.4645111
189	0xbeec90d6	-0.4620425
190	0xbd86b180	-0.06576824
191	0xbe968d16	-0.29404515
192	0xbdc101f8	-0.09424204
193	0xbe38b9b9	-0.18039598
194	0x3e30d094	0.17267066
195	0xbdc23fb4	-0.09484807
196	0xbef62c28	-0.48080564
197	0xbf0095e6	-0.50228727
198	0xbde800bd	-0.11328266
199	0x3e00a9d5	0.12564786
200	0x3ec8294e	0.39094013
201	0xbdefeef8	-0.117155015
202	0xbc5130c0	-0.012767971
203	0xbeecb142	-0.46228987
204	0x3e05d0b4	0.13067895
205	0x3e8d3951	0.2758279
206	0x3eef399a	0.46723634
207	0x3e596fdf	0.21234082
208	0xbcb1ed80	-0.021719694
209	0x3eb59b33	0.3546997
210	0x3d11118e	0.035417132
211	0x3f050f27	0.51976246
212	0xbe770fa4	-0.2412706
213	0xbf25674f	-0.6461076
214	0x3c32fadf	0.01092407
215	0x3e875826	0.2643444
216	0x3bd7ae80	0.0065820813
217	0xbc5f5e4c	-0.013633322
218	0x3e8d281f	0.27569672
219	0x3ecac1ef	0.39601085
220	0x3edc12c8	0.4298308
221	0x3dcf17d7	0.10111969
222	0xbe602ba9	-0.21891655
223	0x3e09f472	0.13472155
224	0x3e8fb102	0.28064734
225	0xbef49258	-0.477679
226	0x3eafd0e2	0.34339052
227	0x3e34d164	0.17658001
228	0x3d3b37d0	0.045707524
229	0xbeca7b5c	-0.3954724
230	0xbeb226c4	-0.347952
231	0xbe55d460	-0.20881796
232	0x3eab2e52	0.33433777
233	0x3da1b7cb	0.07896384
234	0x3eb30d83	0.34971246
235	0x3dfc3f29	0.12316734
236	0x3ea3137c	0.31850803
237	0x3e72b698	0.23702466
238	0xbeb8f70e	-0.36125988
239	0xbe91bce4	-0.28464425
240	0xbda0b2f8	-0.078466356
241	0xbe1e8634	-0.15480882
242	0x3d190e07	0.037366893
243	0xbe5b1fe1	-0.2139888
244	0xbe0c2bc4	-0.1368857
245	0xbf009462	-0.50226414
246	0x3e1deb2f	0.15421747
247	0x3dcace7d	0.09902666
248	0xbd2ec130	-0.042664707
249	0xbeaf6a9a	-0.34261018
250	0xbe095800	-0.13412476
251	0xbe73850c	-0.23781222
252	0x3ecceb3c	0.4002322
253	0xbee999c2	-0.4562512
254	0xbd1eea80	-0.038797855
255	0xbeee9af2	-0.4660259

fc1.bias f4 [64]
0	0x3f0d307f	0.55152124
1	0x3f0197a1	0.5062199
2	0x3e9fa800	0.3118286
3	0x3dd38106	0.10327344
4	0xbdb94018	-0.09045428
5	0xbe34c049	-0.17651476
6	0xbeb8293d	-0.35968962
7	0x3e3351d2	0.1751168
8	0x3ee5be1c	0.44871604
9	0x3ec4171a	0.38298875
10	0x3e8f82f3	0.28029594
11	0xbdeda820	-0.11604333
12	0xbee8e108	-0.45484185
13	0x3d7b7e79	0.06139991
14	0x3df98fa6	0.12185602
15	0x3ddf6c13	0.109092854
16	0xbde1ef4c	-0.110319704
17	0x3efab01c	0.48962486
18	0x3e085265	0.13312681
19	0xbeda74f6	-0.4266736
20	0xbe6ffdb4	-0.23436624
21	0x3ceb590f	0.02872899
22	0x3e13c470	0.14430404
23	0x3f04437b	0.5166547
24	0xbea38ad6	-0.3194186
25	0xbe5ddcd1	-0.21666266
26	0x3ea085f4	0.31352198
27	0x3f028844	0.50989175
28	0x3f014d6c	0.5050876
29	0xbe03fab3	-0.12888603
30	0xbeea7918	-0.45795512
31	0xbe80a91e	-0.25129026
32	0xbeae3462	-0.3402434
33	0x3c4d76d7	0.012540541
34	0x3eae3f06	0.34032458
35	0x3e87a4f5	0.2649304
36	0x3f0401f0	0.51565456
37	0xbe8b688a	-0.27228194
38	0x3ee45b60	0.44600964
39	0x3e613011	0.21990992
40	0xbe826090	-0.25464296
41	0x3cea6424	0.028612204
42	0xbeb84c5c	-0.35995758
43	0xbe76d444	-0.2410441
44	0xbe715e14	-0.23571044
45	0xbd6880c3	-0.05676342
46	0x3ec11bb0	0.37716436
47	0xbe86956a	-0.2628587
48	0x3c8c5023	0.017128056
49	0x3d527849	0.051384244
50	0x3b36a600	0.002786994
51	0x3ec858df	0.39130303
52	0xbec9d57c	-0.39420688
53	0xbe2f20d5	-0.17102368
54	0x3ec56313	0.3855215
55	0x3f03f58c	0.5154655
56	0xbda4ba35	-0.08043329
57	0xbd0aaa80	-0.033854008
58	0x3e879d70	0.26487303
59	0xbee067b6	-0.43829125
60	0x3e87ef2b	0.26549658
61	0x3d64476b	0.055732172
62	0xbe1e8da4	-0.15483719
63	0xbe98051e	-0.29691404

fc2.weight f4 [128, 64]
0	0xbcce8e6e	-0.0252144
1	0x3dbedb9f	0.09319233
2	0xbde3b1cf	-0.11117899
3	0xbe0270de	-0.12738368
4	0xbd5061e4	-0.050874606
5	0xbcc11f48	-0.023574486
6	0x3d84731a	0.064672664
7	0xbd558e29	-0.052137528
8	0xbd95c9a5	-0.07313851
9	0xbd11e4b0	-0.035618484
10	0x3d434483	0.04767276
11	0xbd29d390	-0.041461527
12	0x3d2eaee4	0.042647257
13	0x3d5d3888	0.05400899
14	0x3d196737	0.03745195
15	0x3c0fe441	0.008782447
16	0x3deabc07	0.114616446
17	0x3db0d327	0.08634024
18	0x3dc47b08	0.09593779
19	0x3ba986e0	0.005173549
20	0x3db87c1a	0.090080455
21	0xbd81ad14	-0.0633184
22	0xbd2da4c0	-0.042393446
23	0xbdd81ea5	-0.1055272
24	0x3abe6f80	0.0014529079
25	0xbcdaf940	-0.02673018
26	0xbd830a6f	-0.063984744
27	0x3db146e4	0.086560994
28	0xbd66abcc	-0.056316182
29	0x3dfa661a	0.122265056
30	0xbc92aa20	-0.017903388
31	0xbd2f1f68	-0.04275456
32	0x3d79b7a8	0.060966164
33	0xbd9f67dc	-0.077834815
34	0xbdb1656d	-0.086619236
35	0x3d905636	0.070476934
36	0xbd3883db	-0.045047622
37	0xbd828959	-0.06373853
38	0x3989b93c	0.00026268687
39	0xbd8cde1e	-0.06878303
40	0xbdd8485c	-0.105606765
41	0x3d5b471c	0.053534612
42	0xbde57eda	-0.11205836
43	0x3d92a92c	0.07161173
44	0xbd5e2c52	-0.054241486
45	0xbdf06197	-0.11737364
46	0xbdeee079	-0.116639085
47	0xbce92e60	-0.028464496
48	0x3c9b4690	0.018954545
49	0xbdf03c4b	-0.1173025
50	0x3db86a36	0.09004633
51	0xbddc5e69	-0.10760195
52	0xbd927476	-0.071511194
53	0x3dc86143	0.09784176
54	0xbd9b1f2f	-0.07574307
55	0xbdb93700	-0.090436935
56	0x3d912f28	0.070890725
57	0x3dd6e106	0.104921386
58	0x3cfc9361	0.030831994
59	0x3bffbb20	0.0078042895
60	0x3dae8a66	0.08522491
61	0xbdc25db3	-0.09490528
62	0xbd7e1f38	-0.06204149
63	0xbd42092c	-0.04737203
64	0x3ddf39a5	0.10899667
65	0xbd309762	-0.04311312
66	0x3c9f62a8	0.019456223
67	0xbd5aff1e	-0.053465955
68	0xbc7e9a10	-0.015539661
69	0xbd0d09f2	-0.034433313
70	0x3d5f8c27	0.05457702
71	0xbd8d367f	-0.0689516
72	0xbd532a9f	-0.05155432
73	0x3d2c4e37	0.04206678
74	0x3c8b5473	0.017008042
75	0x3ccdbb6a	0.02511378
76	0xbcdb09b8	-0.026738033
77	0x3e3dc4f5	0.18532164
78	0x3dc96350	0.098333955
79	0x3bef4fe4	0.007303225
80	0xbc96dbb9	-0.018415319
81	0xbdb2bc9a	-0.08727379
82	0x3dfdbd26	0.12389593
83	0x3c1f48d0	0.00972195
84	0x3dbc2c0b	0.09188088
85	0xbd230f26	-0.03980937
86	0x3d9fc22c	0.07800707
87	0xbd299b0d	-0.041407634
88	0x3d555d54	0.052090958
89	0xbd63271f	-0.05545723
90	0x3c5919f6	0.0132508185
91	0x3d6e80bf	0.05822825
92	0x3d4e794f	0.050408658
93	0xbdd253f7	-0.10269921
94	0xbd799f6e	-0.06094306
95	0xbdbc47ba	-0.09193368
96	0xba9fd480	-0.0012194067
97	0x3d205596	0.03914412
98	0x3e287d42	0.16454032
99	0x3cfa8a1b	0.030583432
100	0x3ce1b08d	0.027550006
101	0xbd8ae1d8	-0.067813575
102	0x3de5368a	0.11192043
103	0x3d046674	0.03232427
104	0x3dbd4e90	0.092435
105	0xbcc085a4	-0.023501225
106	0xbdade5e0	-0.08491111
107	0x3db155ea	0.08658965
108	0xbc5b177a	-0.0133722965
109	0x3d5290a5	0.051407475
110	0x3ca1f8b9	0.01977192
111	0xbd5de604	-0.054174438
112	0x3d197034	0.03746052
113	0x3d70c930	0.058785617
114	0xbb973da0	-0.0046155006
115	0x3d71c790	0.05902821
116	0x3da1f656	0.07908313
117	0x3d3f7cbd	0.04674982
118	0x3d2c4d8d	0.042066146
119	0x3ddbf2f2	0.107396975
120	0x3dab7c97	0.08373373
121	0xbcf4c7c8	-0.02988042
122	0x3c4aa957	0.012369475
123	0xbd97099a	-0.07374878
124	0x3e35e370	0.17762542
125	0x3dc7c691	0.097546704
126	0xbdee76e0	-0.11643767
127	0x3dfb6bda	0.122764304
128	0xbdc7f285	-0.09763054
129	0x3e1d63a6	0.15370044
130	0x3d3b3e71	0.045713846
131	0xbcffd669	-0.031230168
132	0x3dd6f308	0.10495573
133	0x3da3b18b	0.07992848
134	0x3ca338c8	0.019924536
135	0xbdadfe08	-0.08495718
136	0xbc708aa8	-0.014681496
137	0x3d2b5528	0.04182926
138	0x3decf07e	0.11569308
139	0xbd21b598	-0.039479822
140	0xbb54a9c0	-0.0032449812
141	0x3c671d49	0.014106103
142	0x3d2eb453	0.04265244
143	0x3d2ccca8	0.042187363
144	0xbdb6043d	-0.08887527
145	0x3d3f7aa9	0.046747837
146	0xbbfac972	-0.0076534087
147	0xbd2b53c4	-0.041827932
148	0x3db26bcb	0.08711966
149	0x3c1b67a2	0.009485157
150	0xbd6b5c8b	-0.057461303
151	0x3dc966d3	0.09834065
152	0xbdcb0ffe	-0.0991516
153	0x3df753e4	0.12076548
154	0x3dc8cd45	0.09804777
155	0x3d0a3dc1	0.0337503
156	0x3e184961	0.14871742
157	0x3d50c78c	0.050971553
158	0x3d179731	0.03700942
159	0x3dd812c4	0.10550454
160	0xbd96af2c	-0.0735763
161	0x3cca1ea5	0.024672816
162	0xbc662119	-0.014045977
163	0xbd338a51	-0.04383308
164	0xbd30ba7a	-0.043146588
165	0x3dfda7b5	0.12385503
166	0x3e13c915	0.14432175
167	0xbdb6475a	-0.08900328
168	0xbd87c8e0	-0.06630111
169	0x3dfc6c61	0.12325359
170	0x3dd1705c	0.10226509
171	0xbdd9e532	-0.10639419
172	0x3d791121	0.06080735
173	0x3d37bb49	0.044856343
174	0xbd1730af	-0.036911663
175	0xbbe547a0	-0.0069970638
176	0xbd59cf34	-0.05317612
177	0xbd29a838	-0.04142019
178	0xbd80164c	-0.06254253
179	0xbd1a7a0a	-0.03771404
180	0x3dba7517	0.09104364
181	0xbdb1807c	-0.086670846
182	0x3d60c088	0.054871112
183	0x3cf7f481	0.030267956
184	0x3cc18646	0.023623597
185	0x3da7cd38	0.08193439
186	0x3c8921c9	0.016739743
187	0xbd1d9f2c	-0.038481876
188	0xbd8e2824	-0.0694125
189	0xbe00f2da	-0.1259264
190	0xbd8ac614	-0.06776062
191	0x3defdc44	0.11711934
192	0x3df4b4b2	0.119485274
193	0xbcbbaf48	-0.022910729
194	0x3d60a934	0.054848865
195	0x3cad0570	0.021120757
196	0xbdec674e	-0.11543141
197	0x3d32f7d4	0.04369338
198	0x3dac31f6	0.08407967
199	0x3dc2efae	0.095183715
200	0xbd774a28	-0.060373455
201	0x39fdbe00	0.0004839748
202	0x3dfaa5a8	0.12238628
203	0xbce350a0	-0.027748406
204	0x3d7943f0	0.060855806
205	0xbc8dd6e8	-0.01731439
206	0x3ce31370	0.02771923
207	0x3a990580	0.0011674613
208	0xbde4ac76	-0.11165707
209	0xbceeaab8	-0.02913414
210	0xbca22470	-0.019792765
211	0x3dffb3aa	0.1248544
212	0xbd100380	-0.035159588
213	0xbd886358	-0.06659573
214	0xbdf226e0	-0.11823821
215	0xbddaf814	-0.106918484
216	0xbdf19fc4	-0.11798051
217	0xbbdb8180	-0.006698787
218	0x3dbab1aa	0.09115918
219	0x3db80694	0.0898563
220	0xbab3e480	-0.0013724715
221	0xbda30970	-0.079607844
222	0xbdca9e70	-0.09893501
223	0xbd80c5fe	-0.06287764
224	0x3da47772	0.08030595
225	0x3d5264c0	0.051365614
226	0xbd28b098	-0.041184038
227	0xbdcdfd06	-0.10058026
228	0xbb6c6040	-0.0036068112
229	0xbd6391dc	-0.055559024
230	0xbda96104	-0.082704574
231	0xbdc576a8	-0.096417725
232	0x3d807624	0.062725335
233	0x3c640690	0.01391758
234	0x3c2a10f0	0.010380015
235	0x3dbfe75e	0.09370302
236	0xbdf05b00	-0.11736107
237	0x3ccea2f8	0.025224194
238	0x3b395840	0.002828136
239	0x3df591f0	0.11990726
240	0xbd7946e0	-0.060858607
241	0x3ca903d0	0.0206317
242	0xbdea789e	-0.11448787
243	0xbd912844	-0.07087758
244	0x3dae4efc	0.08511159
245	0xbdab76b6	-0.08372252
246	0xbde5083e	-0.11183213
247	0xbc0baf50	-0.0085256845
248	0x3d0c5fcc	0.034271047
249	0xbd472fd4	-0.048629597
250	0xbcfda578	-0.03096269
251	0xbc1aad40	-0.00944072
252	0xbd755440	-0.0598948
253	0x3d5e2904	0.054238334
254	0xbdba2a98	-0.09090155
255	0x3dc732a4	0.09726456

fc2.bias f4 [128]
0	0x3de5ea7d	0.11226366
1	0x3dd63b57	0.10460537
2	0x3df9cee5	0.12197665
3	0xbd7cf288	-0.061754733
4	0x3e0696fb	0.13143532
5	0xbd1542c1	-0.036440615
6	0x3d3fb6d8	0.046805233
7	0xbd30fe40	-0.04321122
8	0x3dcb6683	0.09931662
9	0xbd98a7ec	-0.074539036
10	0xbd26e349	-0.0407441
11	0xbd18a2b4	-0.03726454
12	0x3e05ffe4	0.13085896
13	0x3d5b461c	0.05353366
14	0xbd1f8c18	-0.038951963
15	0x3ddaa7e0	0.10676551
16	0xbc0afeb4	-0.0084835775
17	0x3d42346d	0.04741328
18	0x3d6e2011	0.05813605
19	0x3cb64c3e	0.022253152
20	0x3dc2bedd	0.095090605
21	0x3d8565fe	0.06513594
22	0x3dd1efa9	0.1025079
23	0xbd2d102c	-0.04225175
24	0x3d492dfc	0.04911612
25	0x3db71184	0.08938888
26	0xbd0cec54	-0.034405068
27	0xbde8e88c	-0.1137248
28	0xbda3b312	-0.07993139
29	0x3c4c4750	0.012468174
30	0xbdeb875a	-0.11500426
31	0xbdfa47ee	-0.12220751
32	0xbc9317a0	-0.017955601
33	0x3e1d3560	0.15352392
34	0xbd496efc	-0.04917811
35	0x3a271c22	0.00063747365
36	0xbbdeb6b6	-0.006796683
37	0xbc9ee18a	-0.019394655
38	0x3e024b2a	0.12723985
39	0x3c96baf8	0.0183997
40	0xbc5005f4	-0.012696732
41	0x3d6b4c59	0.057445858
42	0xbd391890	-0.04518944
43	0xbdc42e5e	-0.09579156
44	0xbdd79246	-0.10525946
45	0x3e16cfe4	0.14727741
46	0x3d0ac2f4	0.033877328
47	0x3d6bb153	0.057542156
48	0x3e0c0096	0.13672099
49	0x3c8e3b0f	0.017362146
50	0x3b3406c1	0.0027469846
51	0x3d82223b	0.06354185
52	0x3d32be50	0.043638527
53	0xbd146c60	-0.036236167
54	0x3e0d1e13	0.13781004
55	0xbc2006b3	-0.009767222
56	0x3d4d7c27	0.05016723
57	0x3d6584fd	0.05603503
58	0x3d8b5aca	0.06804426
59	0x3dfc8753	0.123304985
60	0x3dbf7f51	0.093504556
61	0x3cb8c970	0.02255699
62	0xbdbe287e	-0.09285067
63	0xbd814791	-0.06312478
64	0x3e1a7cf0	0.15086722
65	0xbdd95555	-0.10611979
66	0x3d97ac0c	0.07405862
67	0x3c9e8142	0.019348744
68	0x3e25af1c	0.1618008
69	0xbe07bcaf	-0.13255571
70	0xbd34b518	-0.044118017
71	0x3e0b8394	0.13624412
72	0xbc8a3b03	-0.016873842
73	0x3b9df5dc	0.0048205685
74	0x3dbe5afe	0.09294699
75	0xbd583ffe	-0.052795403
76	0xbd3a992a	-0.045556225
77	0x3d9b1d33	0.07573929
78	0x3e22be87	0.15892993
79	0x3a18aa7a	0.0005823743
80	0x3ddaa3f7	0.10675805
81	0x3da97a20	0.082752466
82	0x3dab0ba2	0.08351828
83	0xbd745c07	-0.059658077
84	0x3dfe1021	0.1240542
85	0xbd3ee434	-0.04660435
86	0xbc10c3cf	-0.008835747
87	0xbd1ce152	-0.03830082
88	0xbc18d0a2	-0.009327086
89	0x3d632b02	0.055460937
90	0x3e08ca68	0.13358462
91	0xbd9f43c3	-0.077765964
92	0x3c144552	0.00904973
93	0x3c8beb02	0.017079834
94	0x3d5adc8c	0.053432986
95	0x3dc79a15	0.09746186
96	0x3ca008b7	0.019535406
97	0xbd7c2f90	-0.061568797
98	0x3d6f350f	0.05840021
99	0xbd8dcbbc	-0.06923625
100	0x3e0cbaad	0.13743086
101	0x3e140a48	0.14457047
102	0x3e12833a	0.14307871
103	0xbd10f451	-0.03538925
104	0xbe02fb16	-0.12791094
105	0xbdd7ea6f	-0.105427615
106	0x3e163dd3	0.14672022
107	0xbd4f4bad	-0.05060928
108	0xbdaa47d4	-0.083144814
109	0xbc31e33f	-0.010857402
110	0x3e166524	0.1468702
111	0xbd9d8e8e	-0.07693206
112	0xbd273d96	-0.040830217
113	0x3dd4bcf1	0.103876
114	0xbd29618f	-0.041352805
115	0xbd57eed6	-0.052718006
116	0xbd923e4e	-0.0714079
117	0x3d972335	0.07379762
118	0xbdee89c2	-0.11647369
119	0xbde4602a	-0.11151154
120	0x3bb1128e	0.005403823
121	0xbde7bd6a	-0.11315425
122	0xbdb65c6a	-0.08904345
123	0x3c038568	0.008027412
124	0xbd85c4d3	-0.06531682
125	0x3d77a06d	0.06045573
126	0xbd35402d	-0.044250656
127	0x3db7ae55	0.08968798

fc3.weight f4 [64, 128]
0	0x3d2b201a	0.04177866
1	0xbb2e2f13	-0.0026578351
2	0x3dd889fe	0.10573195
3	0x3d8f1de7	0.06988125
4	0xbb110cae	-0.0022132802
5	0xbc080dad	-0.008304042
6	0xbdc24c77	-0.09487241
7	0xbd86d3f5	-0.06583396
8	0xbdb7ec5c	-0.08980629
9	0x3d7fc99b	0.062448125
10	0x39a167ea	0.00030785735
11	0x3d4dcfaf	0.05024689
12	0x3c20df16	0.009818813
13	0x3de180d6	0.11010902
14	0x3be16fed	0.0068797977
15	0xbd515d6e	-0.051114492
16	0x3d2d84dc	0.042363033
17	0x3d90cc8a	0.07070263
18	0xbda4a931	-0.08040083
19	0x3da8871b	0.08228894
20	0xbd02f687	-0.031973388
21	0x3d967d94	0.07348171
22	0xbc93c0a4	-0.018036194
23	0x3ccc247e	0.024919745
24	0x3d92d625	0.07169751
25	0x3d162f43	0.036666166
26	0xbd108198	-0.03527984
27	0x3d3c2b5e	0.045939796
28	0x3db3115e	0.08743547
29	0xbdb2abc3	-0.08724167
30	0xbcdeff68	-0.027221397
31	0xbd3dc8cc	-0.046334073
32	0x3ccf567c	0.025309794
33	0x3df678c2	0.120347515
34	0x3d2ece7b	0.042677384
35	0x3cebd954	0.028790154
36	0x3c2be2c8	0.010491081
37	0x3d46e613	0.04855926
38	0xbd107555	-0.035268147
39	0x3d1e081d	0.038581956
40	0xb9467659	-0.0001892684
41	0x3e0b4637	0.13601004
42	0xbd1b32af	-0.037890133
43	0x3d59c717	0.053168382
44	0x3db2aa51	0.087238915
45	0x3db8d2b6	0.09024565
46	0x3d8bfe77	0.06835645
47	0xbe0c5ffa	-0.13708487
48	0x3c9ec9e0	0.01938337
49	0xbd541449	-0.051777158
50	0x3e13fb0e	0.14451239
51	0xbcffba7a	-0.031216849
52	0x3d94a54f	0.072580926
53	0x3cb4ba28	0.022061422
54	0x3deea8af	0.116532676
55	0xbd278002	-0.040893562
56	0xbd3c70ed	-0.046006132
57	0x3db9ee5d	0.09078667
58	0x3dbfc306	0.0936337
59	0x3e1d0a14	0.15335876
60	0x3a18a91e	0.000582354
61	0x3cd22f34	0.025657274
62	0x3be2dc4c	0.006923234
63	0x3d733e26	0.05938544
64	0xbd42af95	-0.04753073
65	0x3df62f66	0.12020759
66	0x3d19fe5b	0.037596088
67	0x3dfc6027	0.12323027
68	0x3d7a775b	0.061148982
69	0x3db9b51a	0.090677455
70	0xbd41320d	-0.047166873
71	0x3dbf79e9	0.093494244
72	0xbcc350d1	-0.023842247
73	0x3da8dfd5	0.082458176
74	0x3df6b530	0.120462775
75	0x3ce69abf	0.02814996
76	0xbd8a3e39	-0.06750149
77	0xbca0cd57	-0.019629164
78	0x3dc09fe1	0.094054945
79	0x3dc60ee0	0.09670806
80	0x3d35bbf3	0.044368695
81	0x3d031326	0.032000683
82	0x3d9f99d3	0.077930115
83	0x3ccf4028	0.025299147
84	0x3de3caa9	0.11122639
85	0x3d7de02e	0.061981373
86	0xbc95e2fd	-0.018296713
87	0x3df708ad	0.12062202
88	0x3d2cb2ab	0.04216258
89	0xbcfdddb2	-0.030989502
90	0xbc7f2542	-0.015572848
91	0xbc8348b8	-0.016025886
92	0x3d5c69e8	0.053811938
93	0x3d72aff6	0.05924984
94	0x3cf5f9e8	0.030026391
95	0x3d3c18fb	0.04592226
96	0x3d625fe5	0.055267233
97	0xbd8dfe4a	-0.069332674
98	0x3d4b33e7	0.049610045
99	0x3d9e0df3	0.07717504
100	0x3daf81d1	0.085696824
101	0x3dafe224	0.08588055
102	0x3d844508	0.06458479
103	0x3d264f5a	0.04060302
104	0x3d7fbc3e	0.06243538
105	0x3cb73118	0.022362277
106	0x3d308a16	0.04310044
107	0x3cbd068f	0.023074416
108	0x3d877b00	0.06615257
109	0xbd01f125	-0.031724114
110	0x3df7f2f0	0.121068835
111	0xbd37e53a	-0.04489634
112	0x3d4bc737	0.049750533
113	0x3e021fb6	0.1270741
114	0xbd8c1ade	-0.06841062
115	0x3d2a6343	0.04159857
116	0xbd45759e	-0.04820787
117	0x3cb90673	0.022586083
118	0x3db42b3f	0.08797311
119	0xbd8a5140	-0.067537785
120	0xbb670b63	-0.003525459
121	0xbc0b72e0	-0.008511275
122	0x3b4636ee	0.0030245143
123	0x3d59ceac	0.053175613
124	0x3c0cb3ab	0.008587758
125	0xbd4a6e96	-0.04942187
126	0x3d9fe038	0.07806438
127	0x3dac9793	0.08427348
128	0x3d3659aa	0.044519104
129	0xbc8bbf54	-0.017059006
130	0x3c016056	0.007896503
131	0xbdad9468	-0.08475572
132	0x3d8cc9d2	0.06874432
133	0xbd17ca40	-0.037058115
134	0x3d00d7b9	0.03145573
135	0x3d4161f1	0.047212545
136	0xbd07f492	-0.033192225
137	0x3c7cdcd6	0.015433511
138	0x3d1af823	0.037834298
139	0x3d0b85e7	0.034063246
140	0xbd419898	-0.047264665
141	0xbdaab2b2	-0.08334865
142	0xbdcaa632	-0.098949805
143	0xbd1eb69b	-0.038748365
144	0xbd008a10	-0.031381667
145	0x3c6c5585	0.014424686
146	0x3d922939	0.07136769
147	0xbc362fe3	-0.0111198155
148	0xbdb23d5e	-0.08703111
149	0xbd79677b	-0.060889702
150	0xbd545380	-0.051837444
151	0xbd8621ef	-0.06549441
152	0x3d967613	0.073467396
153	0xbd8950b1	-0.06704844
154	0xbda17d13	-0.07885184
155	0xbc0a9138	-0.008457474
156	0x3d3b6257	0.04574808
157	0xbd32b82b	-0.043632668
158	0xbc9c9b80	-0.019117117
159	0xbdac4f50	-0.08413565
160	0xbd87e5d7	-0.06635635
161	0x3ca04d0f	0.019567994
162	0xbdcc6fbb	-0.099822484
163	0xbc3ff486	-0.011716014
164	0xbc5f210e	-0.013618721
165	0xbd5767c0	-0.052589178
166	0xbc056520	-0.008141786
167	0x3c470b61	0.012148709
168	0x3d7b6f5f	0.06138551
169	0xbce1a0c9	-0.027542489
170	0x3d8ce25b	0.068791114
171	0x3d949163	0.07254293
172	0x3cf4c1a8	0.029877499
173	0x3ca6b04f	0.020347742
174	0x3d966717	0.073438816
175	0xbdd1ad77	-0.10238164
176	0xbd4906a8	-0.049078614
177	0xbce33e28	-0.0277396
178	0x3d03d910	0.03218943
179	0x3bf8ef67	0.0075968984
180	0x3bba3ee4	0.0056837667
181	0xbca51684	-0.020152338
182	0x3c26cf07	0.010181195
183	0xbc1589fc	-0.009127136
184	0xbcad64fe	-0.02116632
185	0xbdb9bff4	-0.09069815
186	0x3d2cf827	0.042228844
187	0x3be8ddef	0.0071065347
188	0xbc8e65c4	-0.01738251
189	0xbc9a8048	-0.018859997
190	0xbd20c03a	-0.03924582
191	0x3d7e4ec6	0.062086843
192	0x3c6b05f2	0.014344679
193	0xbcd689de	-0.026188787
194	0x3c546487	0.012963421
195	0x3d8568f4	0.06514159
196	0xbc9a3d85	-0.018828163
197	0xbd217637	-0.03941938
198	0xbc9d4a36	-0.019200426
199	0xbc71ba5d	-0.014753905
200	0xbc824d94	-0.015906133
201	0xbbca67dc	-0.006176932
202	0xbd8f3d5d	-0.06994126
203	0xbd91e1a3	-0.07123115
204	0x3d47a566	0.04874172
205	0x3d855df3	0.0651206
206	0x3d42a076	0.04751631
207	0x3ce5c40e	0.028047588
208	0x3d5d2aa2	0.053995736
209	0x3d6665a9	0.056249294
210	0xbdbb7aa6	-0.09154253
211	0x3d3e40f2	0.046448655
212	0xbd99d552	-0.07511391
213	0x3b6c1e00	0.0036028624
214	0xbd857ac8	-0.06517559
215	0xbdaa81d0	-0.08325541
216	0x3cc1bdfc	0.023650162
217	0x3cfbeafb	0.030751696
218	0xbd88ae07	-0.06673818
219	0x3b825e8e	0.003978557
220	0x3d11f6c5	0.03563573
221	0x3d941732	0.07230987
222	0x3d9e6e99	0.077359386
223	0xbda80416	-0.08203904
224	0xbcd68ff6	-0.026191693
225	0xbd05843a	-0.032596804
226	0x3c92343c	0.017847173
227	0x3bdf4915	0.006814132
228	0x3d876448	0.06610924
229	0x3cf0300d	0.029319787
230	0xbcf0071d	-0.029300267
231	0xbd143ccb	-0.03619079
232	0xbcb153e1	-0.021646442
233	0xbd66bc57	-0.05633196
234	0x3d413724	0.047171727
235	0xbc14a77b	-0.009073134
236	0x3d52e915	0.051491816
237	0xbd0b3f03	-0.03399564
238	0x3c9e6314	0.019334354
239	0x3bc60c75	0.0060439655
240	0xbd00fc68	-0.031490713
241	0xbd9eb79e	-0.07749866
242	0x3d9bf60a	0.076152876
243	0xbae63712	-0.001756402
244	0x3d918bfd	0.07106779
245	0xbbde54b2	-0.006784999
246	0x3ceee524	0.029161997
247	0x3ca314dc	0.019907407
248	0xbdab2f6c	-0.083586544
249	0xbcc5566c	-0.02408906
250	0x3c366c47	0.011134214
251	0x3d8b0117	0.06787317
252	0xbb7178d1	-0.0036845694
253	0xbd25b49b	-0.040455442
254	0xbdc2f3ba	-0.095191434
255	0xbd27eb83	-0.040996086

fc3.bias f4 [64]
0	0x3b8ce817	0.004300128
1	0x3d1092dd	0.03529631
2	0x3d5db375	0.05412622
3	0xbd4fc9ae	-0.050729446
4	0xbb405423	-0.0029347024
5	0xbda26389	-0.07929141
6	0xbbe6ce00	-0.0070436
7	0x3d8a99f3	0.06767645
8	0xbd6a081a	-0.057136633
9	0xbcb6d581	-0.022318603
10	0xbd49c02f	-0.049255546
11	0x3a1f440d	0.0006075509
12	0x3d768d29	0.060193215
13	0x3d0f80b7	0.03503486
14	0xbd960e97	-0.073270015
15	0x3ccb372e	0.024806585
16	0xbd6d4457	-0.057926502
17	0x3d9cc57d	0.076548554
18	0xbd49c8b3	-0.049263667
19	0x3d46b13a	0.04850886
20	0x3bec0424	0.007202642
21	0xbd94b4b3	-0.07261028
22	0x3c2e233b	0.010628517
23	0x3dec5e14	0.115413815
24	0xbd7234e8	-0.059132487
25	0x3cb3ec23	0.021963185
26	0x3d944784	0.07240203
27	0x3dc1e036	0.09466593
28	0xbd4f4c00	-0.05060959
29	0x3ca5692c	0.020191751
30	0x3c8ac652	0.01694027
31	0x3e0bf490	0.13667512
32	0xbd48e380	-0.049045086
33	0xbd019ef0	-0.031645715
34	0xbc52aae3	-0.012858125
35	0x3ce1400c	0.02749636
36	0xbccb1f80	-0.024795294
37	0x3d91f39c	0.07126543
38	0x3d2496e9	0.04018298
39	0x3d3302e7	0.04370394
40	0xbd9c7446	-0.07639365
41	0x3d26a400	0.040683746
42	0x3caa49c8	0.020787135
43	0x3d69617f	0.056977745
44	0x3c8d4ae0	0.017247617
45	0x3b06a500	0.0020545125
46	0x3d9064b1	0.07050455
47	0xbcb2fd74	-0.021849371
48	0x3c0f761d	0.008756188
49	0xbd456d3e	-0.048199885
50	0x3d984a0a	0.07435997
51	0x3d277562	0.04088343
52	0xbc3da416	-0.011574766
53	0x3daa5390	0.083167195
54	0x3d8b2e74	0.067959696
55	0xbc7581f1	-0.014984594
56	0x3dcd9466	0.100380704
57	0x3d07a758	0.033118576
58	0xba9b1ff1	-0.0011835081
59	0x386dec81	5.6725465e-05
60	0x3d847f59	0.06469602
61	0xbd00ed70	-0.031476438
62	0x3d2eb555	0.0426534
63	0x3d8e9eec	0.06963906

fc4.weight f4 [2, 64]
0	0xbd75ed57	-0.060040798
1	0x3cef1cef	0.029188601
2	0x3d52ee44	0.05149676
3	0x3c9500b9	0.018188821
4	0xba785853	-0.00094736106
5	0xbce8ae60	-0.028403461
6	0x3cac0c60	0.021001995
7	0x3cc0aed9	0.023520874
8	0x3b10b32f	0.0022079458
9	0xbb25dddb	-0.0025309238
10	0xbd331a30	-0.043726146
11	0x3c00f5a5	0.007871066
12	0xbd8c6b16	-0.068563625
13	0xbd72bfbe	-0.05926489
14	0x3d04a10a	0.03238014
15	0x3dfa5783	0.12223723
16	0xbab5b100	-0.0013861954
17	0x3d9e4099	0.07727165
18	0xbd99f396	-0.075171635
19	0x3e0c566b	0.13704841
20	0xbb6a8cfb	-0.0035789597
21	0xbab4fd80	-0.0013808459
22	0x3d405e93	0.046965193
23	0xbd8fceea	-0.070218876
24	0xbd041c99	-0.032253835
25	0xbdc5b834	-0.096542746
26	0xba1b6144	-0.00059272745
27	0x3dab8f57	0.08376949
28	0xbd9678f9	-0.073472925
29	0xbdff5750	-0.124678254
30	0xbdb3b14c	-0.08774051
31	0xbd70ed24	-0.058819905
32	0x3d5617a8	0.052268654
33	0x3dada22b	0.08478197
34	0x3ce17161	0.027519884
35	0xbcbc01b0	-0.022950023
36	0x3db83414	0.08994308
37	0x3e036a2e	0.12833473
38	0x3ce698f4	0.028149106
39	0xbca72782	-0.020404581
40	0x3d828501	0.06373025
41	0x3d85787e	0.06517123
42	0xbc6564a2	-0.0140010435
43	0xbdda5043	-0.1065984
44	0x3cba47af	0.02273926
45	0xbc88ce80	-0.01670003
46	0x3d98f974	0.074694544
47	0xbdc3df02	-0.0956402
48	0xbd7b99ae	-0.061425857
49	0x3d48616a	0.048921026
50	0xbbd16c3c	-0.0063910764
51	0x3daa050b	0.08301743
52	0x3d3e4a4d	0.046457577
53	0x3e409852	0.18808106
54	0xbddb3349	-0.10703141
55	0x3e1d06f5	0.15334685
56	0xbcdf2333	-0.027238464
57	0xbd2eedcf	-0.04270726
58	0xbca5325d	-0.020165617
59	0x3de39af3	0.111135386
60	0x3d8fe982	0.0702696
61	0x3d28b9be	0.041192763
62	0x3d4b4301	0.049624447
63	0xbdeae9af	-0.11470353
64	0xbdb70470	-0.08936393
65	0x3dca8144	0.09887937
66	0xbdc1ddb2	-0.09466113
67	0x3d411d5f	0.04714715
68	0xbbf0ccef	-0.0073486487
69	0xbdcefed6	-0.101072
70	0xbdb0fd8e	-0.08642112
71	0xbdb210ca	-0.086946085
72	0xbcca9f72	-0.024734233
73	0xbdc87f28	-0.09789878
74	0xbd46881c	-0.048469648
75	0xbe109668	-0.14119875
76	0xbc5be335	-0.01342087
77	0xbc0e147f	-0.008671879
78	0x3def72a7	0.1169179
79	0x3dd148d0	0.10218966
80	0xbd552de8	-0.052045733
81	0xbe057bb0	-0.13035464
82	0x3d4f621b	0.05063067
83	0x3dbff628	0.093731225
84	0x3d4c7bc8	0.049922734
85	0x3cbd2310	0.023088008
86	0xbe02948a	-0.12751976
87	0xbdbd76b1	-0.09251154
88	0x3d6650cf	0.05622941
89	0xbc4a591f	-0.01235035
90	0x3d24f619	0.04027376
91	0xbce429a4	-0.027851887
92	0x3de743ad	0.11292205
93	0xbd4a2774	-0.04935403
94	0xbb211b23	-0.0024582825
95	0xbd7be3fb	-0.061496716
96	0x3dac88cc	0.084245294
97	0xbdd14b51	-0.102194436
98	0xbd139e1a	-0.03603945
99	0xbe18182e	-0.14852974
100	0xbd76bdfa	-0.06023977
101	0xbd819742	-0.06327678
102	0xbdf5736f	-0.11984908
103	0xbd9358e2	-0.071946874
104	0x3b61166c	0.003434564
105	0xbc91f555	-0.017817179
106	0x3db96dea	0.090541676
107	0xbc8909e1	-0.016728343
108	0x3de2189d	0.11039851
109	0xbd93114c	-0.071810335
110	0x3dd43c4c	0.10363063
111	0xbd581fbc	-0.05276464
112	0x3d2c757f	0.04210424
113	0xbe3a3ad3	-0.18186502
114	0xbe0fb4c9	-0.14033808
115	0xbd4f1ce5	-0.050564665
116	0xbcf06f55	-0.029349962
117	0xbd3e6df6	-0.046491586
118	0x3d4b2b19	0.049601648
119	0xbdf04799	-0.11732406
120	0xbe226669	-0.15859379
121	0x3c93ef56	0.01805846
122	0x3db457c8	0.088058054
123	0x3d8c6d3e	0.06856774
124	0x3dd6b3ce	0.10483514
125	0xbe0be1a9	-0.13660301
126	0x3da52499	0.08063621
127	0xbdb887da	-0.09010287

fc4.bias f4 [2]
0	0xbd91b9fc	-0.07115552
1	0x3cefb987	0.029263271
