simpledemo/my_network_3.pth (torch, 70849 bytes, 8 tensors)

fc1.weight f4 [64, 4]
0	0xbea0cf48	-0.31408143
1	0x3ef964c9	0.48709705
2	0xbe8c3d85	-0.27390686
3	0xbda9341e	-0.08261894
4	0xbea5aae4	-0.32356942
5	0x3ea5fca2	0.32419306
6	0xbdb2c804	-0.08729556
7	0x3ee81a2a	0.45332462
8	0x3df76b28	0.12080985
9	0xbda859a2	-0.08220221
10	0x3c7aae51	0.015300349
11	0xbd8d826e	-0.06909643
12	0xbe1378c4	-0.14401537
13	0x3f0c12e8	0.5471635
14	0xbed64ce9	-0.41855553
15	0x3ecba46a	0.39773875
16	0xbe5d082c	-0.21585149
17	0x3e2d497d	0.16922565
18	0x3e40c948	0.18826783
19	0xbeebb225	-0.4603435
20	0xbe9ef8a8	-0.31049085
21	0xbcbc0483	-0.02295137
22	0xbecfa045	-0.40551963
23	0x3e996f57	0.29967758
24	0xbefda362	-0.49538714
25	0xbe9bcaa4	-0.3042804
26	0xbeface40	-0.4898548
27	0xbe5531bc	-0.20819753
28	0xbe07f1d0	-0.13275838
29	0xbda7ed4c	-0.08199558
30	0x3e16ca5e	0.14725634
31	0xbe94c5cb	-0.29057154
32	0x3e8d37f2	0.27581745
33	0xbeacdf92	-0.3376432
34	0x3e9611b2	0.29310375
35	0xbef62b55	-0.48079935
36	0xbd975638	-0.07389492
37	0x3e12363a	0.14278498
38	0xbee0c030	-0.43896627
39	0xbed1a0cd	-0.40942994
40	0xbefd5e18	-0.4948585
41	0xbebfd897	-0.37469932
42	0x3cca631f	0.024705468
43	0xbcfc2ecf	-0.030784039
44	0xbee1a360	-0.44069958
45	0xbe1ca99e	-0.15299079
46	0xbeaf40b4	-0.34229052
47	0x3e6cd19f	0.23126839
48	0xbdea8ca8	-0.11452609
49	0xbe54e01b	-0.20788614
50	0xbecb73a5	-0.39736667
51	0x3e938677	0.28813526
52	0xbdbc9140	-0.09207392
53	0x3c1931f4	0.009350289
54	0xbe4876b8	-0.19576538
55	0x3e8c67e5	0.27423015
56	0x3ef60508	0.48050714
57	0xbe5b72cc	-0.2143051
58	0x3e57915f	0.21051548
59	0xbd527e94	-0.051390246
60	0x3e8c9a84	0.27461636
61	0x3da28430	0.07935369
62	0xbed8aa2c	-0.4231733
63	0xbed7e84a	-0.4216941
64	0x3dcaa8b8	0.09895462
65	0x3dfdad6c	0.12386593
66	0xbe94230f	-0.28932998
67	0x3ef4f073	0.47839698
68	0xbed2d74a	-0.41179878
69	0xbebc44fb	-0.36771378
70	0x3edef49e	0.43546003
71	0xbefdd6f5	-0.49578062
72	0x3eb96cbc	0.3621577
73	0x3e38f4bc	0.18062109
74	0xbec05203	-0.3756257
75	0x3d31d1e4	0.043413058
76	0x3ee6aa6c	0.45051897
77	0xbdbcf6be	-0.0922675
78	0xbd5902e4	-0.052981272
79	0xbeb87cdd	-0.36032763
80	0xbe6c57c0	-0.23080349
81	0xbe1a77f4	-0.15084821
82	0x3ee92cfd	0.45542136
83	0xbec0dab5	-0.3766686
84	0x3e5bc324	0.21461159
85	0xbe4524c5	-0.19252308
86	0x3e910f85	0.28332153
87	0x3dc9a6b0	0.09846246
88	0x3edccb96	0.43124074
89	0x3e830824	0.25592148
90	0xbec51c1c	-0.38498008
91	0x3c97585a	0.018474746
92	0xbe9aed7c	-0.3025931
93	0x3efa7011	0.48913625
94	0xbee1ba95	-0.44087663
95	0x3e6bb36e	0.23017666
96	0xbef604b0	-0.4805045
97	0xbc40610a	-0.011741886
98	0x3ad8afbf	0.0016531869
99	0x3ea9c4ce	0.33157963
100	0x3eaf45f6	0.34233063
101	0xbe1e98a9	-0.15487923
102	0xbda1f4f5	-0.0790805
103	0x3eed840c	0.46389806
104	0x3ef6e856	0.48224133
105	0xbec89dfb	-0.3918303
106	0xbeb70976	-0.35749406
107	0xbebd5f1c	-0.36986625
108	0xbe46b580	-0.19405174
109	0x3e4fba93	0.20286016
110	0x3efc7749	0.49309757
111	0x3e2ff2d7	0.1718248
112	0x3ec6f742	0.38860518
113	0x3e458780	0.1928997
114	0x3e78eb17	0.2430843
115	0x3dd09627	0.10184889
116	0x3b98bd80	0.004661262
117	0x3ee6e105	0.4509355
118	0xbc474abe	-0.012163816
119	0x3c3af313	0.0114104925
120	0x3e323ecc	0.17406768
121	0xbddffd6b	-0.109370075
122	0x3eaefe91	0.34178594
123	0x3ee66892	0.45001656
124	0xbe2a83a0	-0.16651773
125	0x3e2d75c3	0.16939454
126	0xbd2c3cb7	-0.04205009
127	0x3ca0d70c	0.019633792
128	0x3dfefdf8	0.124507844
129	0x3ce83dbe	0.028349753
130	0x3e154788	0.14578068
131	0x3e1b5cc2	0.15172103
132	0xbdecc608	-0.11561209
133	0x3f01854a	0.5059401
134	0x3efc8823	0.49322614
135	0x3e91bf3e	0.2846622
136	0x3debe790	0.115187764
137	0xbeb9869a	-0.36235505
138	0x3e801f9f	0.25024125
139	0xbd2fe028	-0.04293838
140	0x3d8e65c8	0.06953007
141	0x3d891968	0.06694299
142	0xbee49d88	-0.44651437
143	0xbe330e5c	-0.17485946
144	0xbeb7031a	-0.35744554
145	0xbdaddb38	-0.08489078
146	0xbee09b4c	-0.43868482
147	0xbeb18b44	-0.34676564
148	0xbea5c866	-0.32379454
149	0x3ea61db2	0.3244453
150	0x3e4042f2	0.18775538
151	0x3eb4802a	0.3525403
152	0xbee53c8e	-0.44772762
153	0xbef82056	-0.4846217
154	0x3ea54120	0.3227625
155	0xbdbee903	-0.09321787
156	0xbeb7804e	-0.35840076
157	0xbe28e2b6	-0.16492733
158	0xbdbe2fc5	-0.09286455
159	0x3efb60aa	0.49097186
160	0x3e4436f0	0.19161582
161	0xbe3f05cf	-0.1865456
162	0x3d80aaa9	0.06282551
163	0x3ec58d6f	0.38584468
164	0xbe56723c	-0.20942014
165	0xbe655448	-0.22395432
166	0xbb9936ca	-0.004675721
167	0xbe81ef45	-0.2537786
168	0xbd1d33a0	-0.03837931
169	0x3d8aa893	0.06770434
170	0x3eeeefd0	0.46667337
171	0xbd14e082	-0.03634692
172	0xbe0c7eb0	-0.13720202
173	0xbe029598	-0.12752378
174	0xbe8f167e	-0.27946848
175	0xbeb3782a	-0.35052615
176	0xbdbdc098	-0.0926525
177	0xbe6b42e8	-0.22974741
178	0xbece512a	-0.40296298
179	0xbe88d6cc	-0.26726377
180	0x3eac01bc	0.33595073
181	0x3e54148f	0.20710967
182	0xbc9610eb	-0.018318614
183	0x3e8a812d	0.27051678
184	0xbde20d18	-0.11037654
185	0x3f0f68a7	0.5601906
186	0x3ed705c4	0.41996586
187	0xbe987b87	-0.29781744
188	0xbed8b516	-0.42325658
189	0x3e1effec	0.15527314
190	0x3ec73ca5	0.38913456
191	0xbea4df01	-0.32201388
192	0x3ef211f8	0.47279334
193	0x3cdf6df3	0.027274108
194	0xbdfd067e	-0.12354754
195	0x3ce55a26	0.027997088
196	0x3e44be58	0.19213235
197	0x3e62f94c	0.22165412
198	0xbee3b758	-0.44475818
199	0xbed8a2c4	-0.4231168
200	0xbe85924a	-0.26088172
201	0xbd2a22a6	-0.04153695
202	0x3f0439dd	0.5165079
203	0x3e62f6da	0.22164479
204	0xbe01e478	-0.1268481
205	0x3df24344	0.11829236
206	0xbbe0fea7	-0.0068662944
207	0xbdd324bf	-0.10309743
208	0x3e9ff468	0.31241155
209	0x3d5e4ed0	0.05427438
210	0xbe8873c2	-0.26650816
211	0xbd886e58	-0.066616714
212	0xbdc5fe90	-0.096676946
213	0xbeabad44	-0.3353063
214	0xbec8499e	-0.39118665
215	0xbe5a4cb4	-0.21318322
216	0xbee4bd14	-0.44675505
217	0x3e6cb145	0.23114498
218	0xbe9361f5	-0.28785673
219	0x3ec24a09	0.3794711
220	0x3ea18e8a	0.3155406
221	0x3eec967d	0.46208563
222	0x3d5d39fd	0.05401038
223	0x3de5568f	0.1119815
224	0x3e31e2ec	0.1737172
225	0xbe220dbf	-0.15825556
226	0x3d86c7f2	0.06581105
227	0xbeb998bb	-0.36249337
228	0xbea48f0a	-0.3214038
229	0xbe5b3674	-0.21407491
230	0xbd8946d0	-0.067029595
231	0x3ebbe850	0.36700678
232	0xbe694fac	-0.22784299
233	0x3d8e1834	0.0693821
234	0xbea79e5d	-0.3273801
235	0x3c6aea45	0.014338081
236	0xbe48ed5c	-0.19621795
237	0x3b2b5300	0.0026142
238	0xbeb6f0a0	-0.35730457
239	0xbe85a8b2	-0.26105267
240	0x3ea7b1ba	0.32752782
241	0xbcb667a9	-0.022266226
242	0x3e90af41	0.28258708
243	0xbe3e9d80	-0.18614769
244	0xbc0fd600	-0.008779049
245	0xbe1d1428	-0.1533972
246	0x3cdab2a0	0.026696503
247	0xbed93cb0	-0.42429113
248	0xbe486eb0	-0.19573474
249	0x3d5b7616	0.053579412
250	0x3d952279	0.07281966
251	0xbe94796e	-0.28998893
252	0xbca2a080	-0.019851923
253	0x3ebbf73a	0.36712056
254	0x3e485e82	0.19567302
255	0x3ebfa295	0.37428728

fc1.bias f4 [64]
0	0x3da496fe	0.08036612
1	0x3e8140fa	0.25244886
2	0x3ed4b9d6	0.41548032
3	0x3ee4e6b8	0.44707274
4	0xbe6d375d	-0.2316565
5	0xbe58a654	-0.21157199
6	0xbdf8d100	-0.121492386
7	0x3e514ff7	0.2044066
8	0xbe7017ce	-0.23446581
9	0x3e3acf5d	0.18243165
10	0x3eefe21d	0.46852198
11	0x3f0077eb	0.5018298
12	0x3e642ca8	0.2228266
13	0xbe10b253	-0.14130525
14	0x3e84c369	0.25930336
15	0xbeca3f6a	-0.39501506
16	0x3e179ea5	0.14806612
17	0xbe8397b4	-0.25701678
18	0xbde490a1	-0.11160398
19	0x3e793e7c	0.24340242
20	0x3b6a427b	0.0035745192
21	0xbe00a497	-0.12562786
22	0x3e3dee38	0.18547904
23	0xbccd0a87	-0.025029434
24	0x3eaadb62	0.333705
25	0x3f057195	0.5212644
26	0x3ef92a46	0.48665065
27	0x3e0b14fb	0.13582222
28	0x3ded776b	0.11595043
29	0xba08085c	-0.0005189234
30	0x3e79b0c8	0.24383843
31	0x3ed40338	0.41408706
32	0x3dfa3cd1	0.12218631
33	0x3ea829d4	0.32844412
34	0xbc60f2dc	-0.013729777
35	0xbe13bd80	-0.14427757
36	0xbed9131e	-0.42397398
37	0x3ce3621d	0.027756745
38	0xbe9b171c	-0.3029107
39	0xbe85b663	-0.26115713
40	0x3ec7646a	0.38943797
41	0x3ef05c7e	0.46945566
42	0x3ec83527	0.39103052
43	0xbd98a0b8	-0.0745253
44	0xbeb989be	-0.362379
45	0xbeeb9365	-0.4601089
46	0x3e74e98d	0.23917218
47	0x3dd36ecf	0.103238694
48	0x3e13bdd5	0.14427884
49	0xbe5d7860	-0.2162795
50	0x3d2c94c3	0.042134058
51	0x3f0277bd	0.50963956
52	0xbe4149e0	-0.18875837
53	0xbe8eb80e	-0.27874798
54	0x3e4ab823	0.19796805
55	0xbd2c5646	-0.042074464
56	0x3e3b19b1	0.18271519
57	0x3e123738	0.14278877
58	0x3e6cc5e6	0.23122367
59	0x3d2fd3f0	0.04292673
60	0xbf02b479	-0.5105663
61	0xbecd3c4c	-0.40085065
62	0xbec00ae9	-0.37508324
63	0x3e9001f9	0.28126505

fc2.weight f4 [128, 64]
0	0xbd3bb110	-0.045823157
1	0xbd80386d	-0.06260762
2	0x3da4f26f	0.08054053
3	0xbde2d01e	-0.110748515
4	0x3da73c14	0.08165756
5	0x3d04386c	0.03228037
6	0xbd09bac4	-0.03362538
7	0x3d9b06ae	0.075696334
8	0xbcf4ced0	-0.029883772
9	0x3cb6f0b5	0.022331575
10	0xbdae30fe	-0.08505438
11	0xbde78950	-0.11305487
12	0x3dcbb927	0.099474244
13	0xbde52926	-0.11189489
14	0xbd38130a	-0.044940032
15	0xbdf13044	-0.11776784
16	0xbd204166	-0.03912487
17	0x3ddff9f6	0.10936348
18	0x3d8be270	0.06830299
19	0xbc0902a1	-0.008362443
20	0xbd1d1f21	-0.038359765
21	0xbdb33229	-0.08749802
22	0xbdf7e6df	-0.12104582
23	0x3d945754	0.07243219
24	0xbda5f75f	-0.08103823
25	0xbd25adac	-0.04044883
26	0x3dd707e8	0.10499555
27	0x3d021745	0.031760473
28	0x3c956494	0.018236436
29	0xbdd2a83b	-0.10285994
30	0xbd0e18d4	-0.034691647
31	0x3d445ef6	0.047942124
32	0xbdff71dd	-0.124728896
33	0xbbf25273	-0.0073950826
34	0xbdd83e10	-0.105587125
35	0xbdfd7216	-0.12375276
36	0xbdabfe4e	-0.08398114
37	0xbdfa1a09	-0.12211997
38	0x3da4822a	0.08032639
39	0xbdd8949a	-0.105752185
40	0x3d9dc1b2	0.0770296
41	0xbd97419c	-0.07385561
42	0xbc9ed428	-0.019388273
43	0xbda3c6a2	-0.079968706
44	0x3db09ed6	0.086240456
45	0x3cf01d78	0.029310927
46	0x3d34f1c2	0.04417587
47	0xbda2197f	-0.07915019
48	0xbd7e45d9	-0.06207833
49	0x3deb0764	0.11476019
50	0xbd3af7eb	-0.04564659
51	0x3d707a46	0.05871036
52	0x3cb5f938	0.022213563
53	0x3d8d72c0	0.069066525
54	0x3d69431e	0.056948774
55	0x3d5d2a5e	0.053995483
56	0x3d91fba2	0.07128073
57	0xbd2f6a34	-0.042825893
58	0xbd013847	-0.03154781
59	0x3dbb3b34	0.091421515
60	0xbd480e2d	-0.048841644
61	0xbd42fe04	-0.04760553
62	0xbd882966	-0.06648521
63	0x3d370843	0.044685613
64	0xbdf7478b	-0.120741926
65	0xbd982b6d	-0.07430158
66	0x3db5a7df	0.088699095
67	0x3c6a09a3	0.014284524
68	0xbcea88cf	-0.028629689
69	0xbca76095	-0.020431796
70	0x3c0ab2e0	0.008465499
71	0xbd3c87b7	-0.046027865
72	0xbd2cdbec	-0.04220192
73	0x3d3ccd2f	0.046094116
74	0x3e382295	0.17981942
75	0x3db905a3	0.09034278
76	0x3a4f7a23	0.0007914623
77	0x3ddc5a88	0.10759455
78	0xbd024a43	-0.031809103
79	0x3d9b7028	0.075897515
80	0x3d37a8f7	0.04483887
81	0x3c13f62d	0.009030861
82	0xbd9ea9db	-0.07747241
83	0x3e19c7f2	0.1501768
84	0x3d934d11	0.071924336
85	0x3d0c2023	0.034210335
86	0xbd433563	-0.047658335
87	0x3d7529b3	0.05985422
88	0xbc3fac57	-0.011698804
89	0xbd84d78a	-0.06486423
90	0x3e1ba443	0.1519938
91	0x3d08d783	0.033408653
92	0xbd75fb0f	-0.06005388
93	0xbde4955e	-0.11161302
94	0x3da0cde0	0.078517675
95	0xbd340c01	-0.04395676
96	0x3dcff6cf	0.10154497
97	0xbd2d9934	-0.042382434
98	0x3ded2613	0.11579528
99	0x3d0ede28	0.034879833
100	0x3d72b508	0.059254676
101	0x3cbefec6	0.023314845
102	0xbd4caf7c	-0.049972042
103	0x3dcc60a9	0.09979374
104	0x3db3c83b	0.08778425
105	0x3e2d2a28	0.16910613
106	0x3d8de04e	0.06927548
107	0xbd508d94	-0.05091627
108	0xbdd04c28	-0.10170776
109	0x3da042b6	0.07825224
110	0x3e0d974b	0.13827245
111	0xbd63f9ea	-0.05565826
112	0xbd9f75e5	-0.077861585
113	0x3d1c7654	0.038198784
114	0x3e0037ed	0.12521334
115	0x3dd2cf26	0.10293417
116	0xbd90714a	-0.07052858
117	0xbbbbf180	-0.005735576
118	0xbdc53fe6	-0.09631328
119	0x3d9e7e71	0.077389605
120	0x3e0ea605	0.13930519
121	0x3dfe1bdf	0.1240766
122	0x3d9d26ef	0.076734416
123	0xbce18310	-0.027528316
124	0xbd358a26	-0.0443212
125	0xbd7ee634	-0.062231258
126	0xbd9e6dda	-0.07735796
127	0xbdb5237e	-0.0884466
128	0x3e13d6ad	0.14437361
129	0x3ddca46e	0.1077355
130	0x3db320a7	0.08746462
131	0x3cceb9d3	0.025235092
132	0x3d42b240	0.047533274
133	0x3cedd3ad	0.029031599
134	0x3caa3630	0.020777792
135	0x3dab3d62	0.08361317
136	0x3d854a4c	0.06508312
137	0xb9801b0a	-0.00024434208
138	0xbd87365e	-0.066021666
139	0x3e115704	0.1419335
140	0xbdaa1034	-0.08303872
141	0x3dab2d9a	0.08358307
142	0x3ddd3278	0.10800642
143	0xbdc3fcc4	-0.095696956
144	0x3d34418a	0.044007815
145	0xbbc49475	-0.005999143
146	0xbbb14d24	-0.005410807
147	0xbd0628b8	-0.032753676
148	0x3d126bd8	0.03574738
149	0xbd69abde	-0.05704867
150	0xbb6d727c	-0.0036231568
151	0x3cf28ceb	0.02960821
152	0x3c74777a	0.014921064
153	0x3d8fdaee	0.070241794
154	0xbd1930fe	-0.03740024
155	0xbc1306b5	-0.008973767
156	0x3dfd4908	0.12367445
157	0xbd843d21	-0.06456972
158	0xbc31a5b9	-0.010842734
159	0x3e05f17a	0.13080397
160	0xbdc3174a	-0.095259264
161	0xbd3d7716	-0.046256147
162	0xbd2abf58	-0.041686386
163	0xbd9489ec	-0.07252869
164	0x3c6f9ea0	0.0146252215
165	0x3d4b0606	0.04956629
166	0xbd925e22	-0.07146861
167	0x3dfe2cbb	0.124108754
168	0x3dde78bc	0.10862872
169	0x3c9380b2	0.018005703
170	0x3d55f05a	0.05223117
171	0xbd110404	-0.03540422
172	0x3d545494	0.051838472
173	0xbd9355e8	-0.0719412
174	0xbc40056b	-0.011720042
175	0x3cf59e6f	0.029982774
176	0xbd1e2c7b	-0.03861664
177	0x3de63916	0.11241357
178	0xbcb49ada	-0.022046495
179	0x3d8dfcce	0.06932984
180	0xbd8abd4a	-0.06774385
181	0x3df0c396	0.11756055
182	0x3df5a12d	0.119936325
183	0x3dff60ee	0.1246966
184	0xbd1ae142	-0.03781248
185	0xbd9ce5a6	-0.076609895
186	0x3db9ec39	0.09078259
187	0x3d01703c	0.031601176
188	0x3def07cf	0.11671411
189	0x3da8e398	0.08246535
190	0xbd8811fd	-0.06644056
191	0x3d1e3f6f	0.038634714
192	0x3e2b3edd	0.16723199
193	0xbd67b946	-0.056573175
194	0x3de487d0	0.11158717
195	0xbd28275f	-0.041053172
196	0xbdc4354e	-0.095804796
197	0x3d8b1c7b	0.067925416
198	0xbd664e44	-0.056226984
199	0x3d979dca	0.07403143
200	0xbd964040	-0.073364735
201	0xbcb80ca8	-0.022466972
202	0x3c9db56a	0.019251544
203	0x3e03b5a1	0.12862255
204	0xbc1a12c0	-0.009403884
205	0xbdacbcb8	-0.08434433
206	0x3dcca206	0.09991841
207	0x3dbf44dc	0.09339306
208	0x3e2abd02	0.16673663
209	0x3d353be4	0.04424657
210	0x3c73a248	0.014870234
211	0xbcc402dc	-0.023927145
212	0xbdcc91bf	-0.09988736
213	0xbb28a2e6	-0.002573186
214	0x3d4a51dd	0.049394477
215	0x3cca2717	0.024676843
216	0xbcf3c626	-0.02975757
217	0x3deebdca	0.11657293
218	0x3d345a5e	0.044031493
219	0xb9f25616	-0.00046221976
220	0x3db9cf2e	0.090727195
221	0x3dac0a37	0.08400386
222	0x3da0809d	0.07837031
223	0x3da7fc50	0.08202422
224	0xbd8a6388	-0.06757265
225	0x3db81e11	0.0899011
226	0xbd8af4be	-0.06784962
227	0xbd7d8c94	-0.061901644
228	0xbdd17122	-0.102266565
229	0xbc1426b4	-0.009042431
230	0xbd164dc2	-0.03669525
231	0xbdc7967c	-0.097454995
232	0xbdbd9482	-0.09256841
233	0xbddf9c28	-0.10918456
234	0x3d292de8	0.041303545
235	0x3df571fc	0.119846314
236	0xbdc2a1e4	-0.095035344
237	0xbcd4291b	-0.025898507
238	0x3ccc7228	0.024956778
239	0x3e0b140d	0.13581868
240	0x3da87af3	0.08226576
241	0x3deb1d32	0.11480178
242	0x3d2eec54	0.04270585
243	0x3e156a01	0.14591219
244	0xbdcd52e6	-0.10025577
245	0x3dcc0b50	0.09963095
246	0xbd968247	-0.07349067
247	0x3d4b08b3	0.049568843
248	0xbe152928	-0.14566481
249	0xbdb73fa4	-0.08947685
250	0x3d812e78	0.06307691
251	0x3dc1cb70	0.09462631
252	0xbd94822f	-0.07251393
253	0x3d81f53a	0.063456014
254	0xbc509c1f	-0.012732535
255	0xbcd65b92	-0.026166711

fc2.bias f4 [128]
0	0x3d62ddf1	0.05538744
1	0x3d83b2ff	0.06430625
2	0xbd8a7806	-0.06761174
3	0x3defa4c2	0.11701347
4	0x3e095606	0.13411722
5	0x3e15acf2	0.14616755
6	0x3e053a9f	0.13010643
7	0xbdc1bd69	-0.09459955
8	0xbce8e0e0	-0.028427541
9	0x3b04c5ce	0.0020259502
10	0xbd6b9a74	-0.057520345
11	0x3e0a8869	0.13528599
12	0x3e082423	0.13295035
13	0x3dda31eb	0.10654052
14	0x3e14a2c8	0.14515221
15	0x3dc7870e	0.097425565
16	0x3c17760b	0.009244452
17	0xbda3faaa	-0.08006795
18	0x3d56bcfd	0.052426327
19	0xbd12604a	-0.03573636
20	0x3c3f7d67	0.011687613
21	0x3da243d2	0.07923092
22	0xbcf0c27d	-0.029389614
23	0xbd095171	-0.033524934
24	0x3dd0cc5d	0.10195229
25	0xbdb756ae	-0.0895208
26	0xbd795ac6	-0.060877584
27	0x3df4317d	0.11923502
28	0xbd805eae	-0.06268059
29	0x3c9f90b2	0.019478176
30	0x3da4db2d	0.08049617
31	0xbdbce7ac	-0.092238754
32	0xb9e18ba9	-0.000430194
33	0xbdc558a9	-0.09636051
34	0x3e0e8219	0.13916816
35	0x3bc09def	0.005878202
36	0x3d0662e4	0.032809153
37	0xbd874045	-0.06604055
38	0x3da96568	0.08271295
39	0x3c357495	0.011075159
40	0x3d344f95	0.044021208
41	0x3dd42798	0.103591144
42	0x3bc3f6bf	0.005980342
43	0x3d07d21a	0.033159353
44	0x3d524154	0.051331833
45	0x3cf1349d	0.029444033
46	0x3d0e9ab4	0.034815505
47	0xbd0f2a79	-0.034952614
48	0xbd9fb0a3	-0.07797363
49	0xbdae9535	-0.08524553
50	0x3d784ac0	0.060618162
51	0xbd70bd54	-0.058774307
52	0x3dccb952	0.099962845
53	0x3d8bf224	0.06833294
54	0xbdcda47a	-0.10041137
55	0x3cc0db4b	0.023542067
56	0xbbc6f964	-0.00607221
57	0xbda01f5c	-0.07818481
58	0x3e16fbb6	0.14744458
59	0xbb7ba1eb	-0.0038396071
60	0xbd8400cd	-0.06445465
61	0xbd8d8b30	-0.069113135
62	0xbd4bcbc0	-0.049754858
63	0x3e075030	0.13214183
64	0x3e191e40	0.14952946
65	0x3b4b0600	0.0030978918
66	0xbdd59234	-0.10428277
67	0x3de84126	0.11340551
68	0xbd4092f0	-0.04701513
69	0xba24e49c	-0.0006290169
70	0x3ddef224	0.108860284
71	0x3d0f56d2	0.034994908
72	0x3d811a9b	0.06303903
73	0x3daec0e4	0.08532885
74	0xbb1e34db	-0.002414039
75	0x3d5b5ec4	0.053557172
76	0x3d9d00e6	0.07666187
77	0xbdcfda66	-0.10149078
78	0x3ccaf49c	0.024774842
79	0xbaf11a16	-0.0018394615
80	0xbda0b1b2	-0.07846393
81	0x3daac32b	0.083380066
82	0xbdddcd78	-0.10830206
83	0xbd827412	-0.06369795
84	0xbceeb79b	-0.029140284
85	0xbd99d9b5	-0.075122274
86	0x3cf8d35d	0.030374223
87	0x3da53daa	0.08068402
88	0xbdc67be3	-0.09691598
89	0xbdf63f49	-0.120237894
90	0xbddd1623	-0.10795238
91	0xbcc1c1d8	-0.023652002
92	0xbdf6ba86	-0.12047295
93	0xbded52e8	-0.11588079
94	0xbc40e840	-0.011774123
95	0xbc7d411a	-0.015457416
96	0x3d152517	0.036412325
97	0xbd51c698	-0.051214784
98	0x3d7d6424	0.06186308
99	0x3e1c6a96	0.15275034
100	0x3bd65c4f	0.0065417658
101	0x3c967d01	0.018370153
102	0x3d825e8b	0.06365689
103	0xbdb36da2	-0.08761145
104	0x3b99a000	0.004688263
105	0xbd30a314	-0.043124273
106	0x3c9016ed	0.017589057
107	0x3d159d54	0.036526993
108	0x3ddfc5d8	0.109264076
109	0x3cca6bc8	0.024709597
110	0xbc567c0a	-0.013091097
111	0x3dd71e3c	0.105038136
112	0xbd3d8533	-0.046269607
113	0x3d9a6371	0.07538498
114	0xbe0cec21	-0.13761951
115	0x3dc51ab6	0.09624235
116	0xbbcafcfa	-0.006194708
117	0xbd33b9a8	-0.043878227
118	0x3cfc4e11	0.030798944
119	0xbd76bfb4	-0.060241416
120	0xbd5b3349	-0.053515706
121	0xbc403bc4	-0.011732999
122	0x3e0245fc	0.1272201
123	0xbd8392ce	-0.06424485
124	0x3da04ad8	0.07826775
125	0xbc6ed6e0	-0.014577597
126	0xbd8c49e2	-0.068500295
127	0x3daa753c	0.08323142

fc3.weight f4 [64, 128]
0	0x3d8766e1	0.066114195
1	0x3cf1a464	0.029497333
2	0xbd337484	-0.04381229
3	0x3c8e7698	0.017390534
4	0x3c54efb0	0.012996599
5	0xbd1179fa	-0.035516717
6	0xbd9a4828	-0.07533294
7	0x3dac9ca1	0.08428312
8	0x3d67f57a	0.05663059
9	0x3d10d772	0.035361715
10	0x3d5d44f6	0.054020844
11	0xbda63864	-0.081162244
12	0xbd8a255e	-0.067454085
13	0x3cb95898	0.022625253
14	0x3c116310	0.008873716
15	0x3d39a0ee	0.04531949
16	0x3d4e97ba	0.050437666
17	0x39d6f000	0.00040996075
18	0x3da7591d	0.08171294
19	0x3da7927b	0.08182236
20	0xbd1b023f	-0.03784394
21	0x3bacbfe0	0.0052718967
22	0xbd93bf1e	-0.07214187
23	0x3d383b36	0.044978343
24	0x3a586380	0.0008254573
25	0xbc076fe0	-0.008266419
26	0x3d88c42d	0.066780426
27	0xbdb4b92b	-0.088243805
28	0x3d472bee	0.04862588
29	0xbd4d1020	-0.050064206
30	0x3db0051f	0.08594727
31	0x3d464fde	0.04841601
32	0xbd0ffc2f	-0.03515261
33	0xbc18d708	-0.009328611
34	0x3d8118ed	0.06303582
35	0x3dadf037	0.08493083
36	0x3cad68b8	0.021168098
37	0x3c4a31c0	0.012340963
38	0xbdab4311	-0.08362401
39	0xbd77f8bb	-0.060539942
40	0xbc06fde8	-0.008239247
41	0xbd7ff1b5	-0.06248637
42	0xbd3741c0	-0.04474044
43	0x3d97bb53	0.07408776
44	0x3d80a989	0.06282336
45	0x3d9f50a1	0.077790506
46	0x3c1d76e8	0.009610869
47	0xbd50167c	-0.050802693
48	0xbaaa9480	-0.0013014227
49	0x3d41de46	0.047331117
50	0xbd8240a3	-0.06359985
51	0x3dadc9d1	0.08485759
52	0xbc9f1dc0	-0.019423366
53	0x3da91093	0.082551144
54	0xbd614b73	-0.055003595
55	0x3d6f294a	0.058388986
56	0xbd45c30e	-0.04828172
57	0xbc62e090	-0.013847485
58	0xbda5cae0	-0.08095336
59	0xbd97304a	-0.07382257
60	0xbd818c1d	-0.063255526
61	0xbd0c3dc4	-0.03423859
62	0x3d8a7111	0.06759847
63	0xbc1f2d60	-0.009715408
64	0xbdaa9ff1	-0.08331288
65	0xbd4fd139	-0.05073664
66	0x3d062fa0	0.032760262
67	0x3d27459a	0.04083786
68	0xbdaad713	-0.083418034
69	0x3d87ffbb	0.066405736
70	0xbd2b039f	-0.0417515
71	0xbd3076dd	-0.043082107
72	0x3da9ef53	0.082976006
73	0x3c7c9900	0.015417337
74	0xbd6251be	-0.055253737
75	0xbd706e52	-0.05869896
76	0x3d75468a	0.059881724
77	0xba459a80	-0.0007537976
78	0x3c69be40	0.014266551
79	0x3c7a9508	0.015294321
80	0xbdb24944	-0.087053806
81	0xbcf146c0	-0.029452682
82	0x3d6d52da	0.05794034
83	0xbd33525e	-0.043779723
84	0x3daf5e81	0.08562947
85	0xbdb256de	-0.08707975
86	0x3ccfe644	0.025378354
87	0x3d31dd42	0.0434239
88	0xbdab3517	-0.083597355
89	0x3c4b7ec0	0.012420356
90	0x3d5e8db2	0.05433435
91	0x3dac3b0f	0.08409702
92	0x3c2fa478	0.010720365
93	0xbb937f90	-0.0045012906
94	0x3ce2f594	0.027704991
95	0xbcfdcd6e	-0.030981746
96	0xbce91e38	-0.028456792
97	0x3d832d8d	0.064051725
98	0x3ce65990	0.028118879
99	0x3d66de92	0.056364603
100	0xbda239c4	-0.07921174
101	0xbd5d7f0f	-0.05407625
102	0xbc9681ec	-0.018372498
103	0xbd83f2b9	-0.0644278
104	0x3b37e100	0.0028057694
105	0xbcbfa370	-0.023393363
106	0xbcfda724	-0.030963488
107	0x3d61fab2	0.055170722
108	0xbca04c54	-0.019567646
109	0x3b2f9260	0.0026790127
110	0x3d557302	0.052111633
111	0xbc70c228	-0.014694728
112	0xbd983c94	-0.07433429
113	0xbcbcafdc	-0.023033075
114	0xbd95b4d2	-0.07309879
115	0xbda7883e	-0.08180283
116	0xbcf216e2	-0.029551927
117	0xbc0ba1c8	-0.008522458
118	0xba8adcc0	-0.0010594353
119	0x3d749712	0.059714384
120	0xbd3852b4	-0.045000747
121	0xbd81b634	-0.063335806
122	0xbd803cb8	-0.06261581
123	0xbd3ff54a	-0.046864785
124	0xbc494a28	-0.012285747
125	0xbd6a3a22	-0.057184346
126	0xbba610e0	-0.0050679296
127	0xbcb1c974	-0.021702506
128	0xbd8f6971	-0.07002533
129	0xbb6076f1	-0.0034250582
130	0x3d2195bd	0.039449442
131	0x3d885a83	0.06657889
132	0x3e1a1d35	0.15050204
133	0xbda3f256	-0.08005206
134	0x3cf0173b	0.029307952
135	0x3d966722	0.0734389
136	0x3ca0452f	0.01956424
137	0xbc0ed6de	-0.0087182205
138	0x3d48c82b	0.04901902
139	0xbcd55cb8	-0.026045188
140	0x3da7287c	0.08162019
141	0x3dde337a	0.10849662
142	0x3ca34b4b	0.019933363
143	0x3da944bc	0.08265063
144	0x3d1b9a09	0.037988696
145	0xbb90ab70	-0.004414968
146	0xbd8be7bb	-0.068313085
147	0x3d6182aa	0.05505625
148	0xbc9f0944	-0.019413598
149	0x3dc12c49	0.09432275
150	0xbbb2ecba	-0.005460349
151	0x3c8e223a	0.017350305
152	0x3c49961c	0.012303855
153	0x3db360c7	0.08758693
154	0xbd1248ac	-0.035713837
155	0x3da82e24	0.082119256
156	0xbd4d3f4e	-0.0501092
157	0x3d91cc97	0.071191005
158	0xbd3212a8	-0.043474823
159	0xbbd5346b	-0.006506493
160	0x3c19ba6e	0.009382827
161	0xbd09b499	-0.033619497
162	0x3d49abcf	0.049236115
163	0x3db29712	0.087202206
164	0xbd12e640	-0.035864115
165	0xbd799b44	-0.06093909
166	0xbd4b631a	-0.049655057
167	0x3c3350fb	0.0109446
168	0xbc80e35b	-0.015733412
169	0xbc19ce57	-0.009387574
170	0x3cf21d0b	0.029554864
171	0x3d9fc3e9	0.07801039
172	0xbce6fa4e	-0.028195526
173	0x3d840da7	0.064479165
174	0x3d7ee19f	0.062226888
175	0xbd9d0bcf	-0.07668268
176	0xbc6e1c36	-0.014533093
177	0x3c647306	0.013943439
178	0x3d68ab86	0.056804202
179	0x3b638900	0.003471911
180	0x3daaa47d	0.08332155
181	0x3d49a697	0.049231138
182	0x3d6c4d6c	0.057691023
183	0xbbaf5778	-0.0053510033
184	0xbc9ab9fc	-0.018887512
185	0x3d85335b	0.06503936
186	0x3d444eff	0.0479269
187	0x3c5c87fd	0.0134601565
188	0x3c42cd7f	0.011889814
189	0x3db9cc87	0.090722136
190	0x3d32d47e	0.04365968
191	0x3cc899c7	0.02448739
192	0x3d8340e4	0.06408861
193	0x3cc07e6c	0.023497783
194	0x3d120d9c	0.03565751
195	0xbd2a92a1	-0.041643742
196	0xbd9129fe	-0.070880875
197	0xbd46b848	-0.048515588
198	0x3c886674	0.016650416
199	0xbd793881	-0.060844902
200	0xbd8bef1f	-0.06832718
201	0x3d501978	0.05080554
202	0x3ce6d443	0.028177386
203	0x3d56474a	0.05231408
204	0xbd8fb9a3	-0.07017829
205	0xbd93b0e6	-0.07211475
206	0xbbc1c0d6	-0.0059128804
207	0x3b72723a	0.0036994354
208	0xbda3a239	-0.07989926
209	0xbcdfb219	-0.027306603
210	0xbcf05c05	-0.029340753
211	0xbc329908	-0.010900743
212	0x3d92d840	0.07170153
213	0xbcbd51a2	-0.023110215
214	0xbd188f56	-0.03724607
215	0x3d2e8c89	0.042614494
216	0x3d9770e5	0.0739458
217	0xbda4273f	-0.08015298
218	0xbc826dd5	-0.015921513
219	0x3c64f830	0.013975188
220	0xbd59b770	-0.053153455
221	0x3c297298	0.010342263
222	0x3d89d3bf	0.067298405
223	0xb91a5051	-0.00014716505
224	0xbd387246	-0.045030855
225	0xbdb02ce8	-0.08602315
226	0xbd1c7e1b	-0.0382062
227	0x3ca6b629	0.020350533
228	0x3c16d0e5	0.009205078
229	0x3d2cea0f	0.042215403
230	0xbceff36c	-0.029290877
231	0x3d08bf38	0.033385485
232	0xbd770834	-0.060310557
233	0x3d886b47	0.066610865
234	0xbd210802	-0.039314277
235	0x3d87e24e	0.06634961
236	0x3d9f9f16	0.07794015
237	0x3cf5c308	0.030000225
238	0x3d8835d4	0.06650892
239	0xbd2514b9	-0.040302966
240	0x3b428315	0.0029680182
241	0xbd9c8686	-0.07642846
242	0x3d5df4f4	0.054188684
243	0x3cff60ba	0.031174053
244	0xbd7a2343	-0.061068784
245	0xbda98bb0	-0.082785964
246	0x3d8202a6	0.063481614
247	0x3d2882d2	0.041140385
248	0xbb179035	-0.0023126726
249	0x3d18b04f	0.037277516
250	0x3ca1fa6d	0.019772733
251	0xbd24cbc5	-0.040233392
252	0x3d83f112	0.06442465
253	0x3db34fd3	0.0875546
254	0x3cfd43cb	0.030916115
255	0xbca7e2c0	-0.020493865

fc3.bias f4 [64]
0	0xbd35f13c	-0.044419512
1	0x3d887e4d	0.06664715
2	0x3d49c576	0.04926058
3	0x3d50c714	0.050971106
4	0xbd885782	-0.06657316
5	0x3dddbdc5	0.10827211
6	0x3d9afe11	0.075679906
7	0x3cefd6f3	0.0292773
8	0x3c43b851	0.0119458
9	0xbbec01af	-0.007202349
10	0xbd5e1364	-0.05421771
11	0x3d411235	0.047136504
12	0x3d79bc16	0.06097039
13	0x3d131889	0.03591207
14	0x3a8c8700	0.0010721385
15	0x3daef40c	0.08542642
16	0xbd583384	-0.052783504
17	0x3dad4128	0.08459693
18	0x3d02abda	0.03190217
19	0xbd4f8480	-0.05066347
20	0x3dc053d5	0.0939099
21	0x3d91edef	0.0712546
22	0xbd4fe69f	-0.050757047
23	0x3d2508b2	0.040291496
24	0x3db0820f	0.08618557
25	0xbd085c9d	-0.033291448
26	0x3cb75bd3	0.022382652
27	0xbafb5498	-0.0019174991
28	0xbd2f0876	-0.04273268
29	0x3d447f3e	0.04797291
30	0x3d7aae72	0.06120152
31	0x3ccc7194	0.024956502
32	0xbd9653fb	-0.07340237
33	0x3dd6e77e	0.104933724
34	0xbbd154dd	-0.0063882903
35	0x3aa9718b	0.0012927515
36	0xbcd94325	-0.026521275
37	0x3cac576e	0.021037783
38	0xbb95bffc	-0.0045700055
39	0xbc228e2b	-0.009921591
40	0x3ddf4dff	0.109035484
41	0xbd4f9f15	-0.05068882
42	0x3d4bf76c	0.049796507
43	0xbdc8b600	-0.09800339
44	0x3da7e3fe	0.08197783
45	0xbb19980a	-0.002343657
46	0xbb94e1d0	-0.0045435205
47	0xbcc9e582	-0.02464557
48	0x3dcc5957	0.09977978
49	0xbd805024	-0.062652856
50	0xbc0e3278	-0.008679025
51	0x3d21c122	0.039490826
52	0x3d3e71ee	0.04649537
53	0x3cb4d8a6	0.022075962
54	0xbda74944	-0.08168271
55	0xbd920342	-0.07129528
56	0xbd83c8b9	-0.06434769
57	0x3cb79c34	0.02241335
58	0xbc396d14	-0.01131751
59	0x3d818f92	0.06326212
60	0xbd101c72	-0.035183378
61	0x3da09294	0.078404576
62	0x3cd0c58b	0.02548482
63	0x3cbfb03c	0.023399465

fc4.weight f4 [2, 64]
0	0x3d98c24e	0.07458936
1	0x3d9460c2	0.072450176
2	0xbdc66794	-0.09687725
3	0x3ded254c	0.115793794
4	0xbc95dad8	-0.01829283
5	0x3db36110	0.087587476
6	0x3e27e508	0.16395962
7	0xbdf2ba37	-0.11851924
8	0x3d9dbcde	0.07702039
9	0xbb655164	-0.003499114
10	0x3d16c1ec	0.036806032
11	0x3dfe9d19	0.12432308
12	0xbddeb113	-0.10873618
13	0x3c2194e1	0.009862156
14	0xbdc0aaa8	-0.0940755
15	0x3dab747c	0.08371827
16	0x3bdc26ab	0.006718477
17	0x3dee4654	0.11634508
18	0xbdd5ab0c	-0.10433015
19	0x3d1a379c	0.03765069
20	0xbdcfd5c5	-0.10148195
21	0xbdcb9435	-0.099403776
22	0xbdd02d2b	-0.10164865
23	0x3a715c1b	0.0009207145
24	0xbc8b94f9	-0.01703881
25	0x3da7c714	0.08192268
26	0x3d62113a	0.05519221
27	0x3ddfa6f7	0.10920518
28	0x3dd22788	0.10261446
29	0xbdd8c1eb	-0.10583862
30	0x3d5d26b7	0.053992
31	0xbb8bb143	-0.0042630746
32	0xbd64cbaf	-0.05585831
33	0x3dd522ba	0.10407014
34	0x3d9f8e2b	0.07790788
35	0xbdab21f5	-0.08356086
36	0x3df5ba6b	0.11998447
37	0xbd6d2663	-0.057897937
38	0x3c6b5be0	0.014365166
39	0x3d4d2fb4	0.05009432
40	0x3dddba31	0.10826529
41	0xbddb2b55	-0.10701624
42	0xbc8b30fd	-0.016991133
43	0x3d21fbd5	0.039546806
44	0xbd4011e5	-0.046892066
45	0x3c346c6f	0.011012181
46	0x3d0eb7bc	0.03484319
47	0xbdc797b3	-0.09745731
48	0x3df9af74	0.12191668
49	0xbde0817e	-0.10962199
50	0xbd493146	-0.049119256
51	0xbd6b50fc	-0.05745028
52	0xbd56df7c	-0.052459225
53	0xbde98a2e	-0.11403309
54	0x3cf64e20	0.03006655
55	0x3d86a9e4	0.06575373
56	0xbdcb851a	-0.099374965
57	0x3d97122c	0.07376513
58	0xbdd1aa0e	-0.102375135
59	0x3d7beb05	0.06150343
60	0xbb907f65	-0.004409718
61	0x3dc0f791	0.094222195
62	0x3c0275cc	0.007962655
63	0xbcab05bb	-0.020876756
64	0xbcab3be8	-0.020902589
65	0xbd819db1	-0.063289054
66	0xbdea1863	-0.11430433
67	0x3b81087f	0.0039377804
68	0x3dfc7748	0.123274386
69	0xbd777de5	-0.060422797
70	0x3cbc273f	0.022967933
71	0x3baacb35	0.0052122124
72	0xbdd51bf5	-0.10405723
73	0x3d66a6da	0.056311466
74	0xbd07e527	-0.03317752
75	0xbdade63d	-0.0849118
76	0xbc96ec78	-0.018423304
77	0x3de48e04	0.111599
78	0x3ded68dc	0.11592266
79	0x3d05e7f5	0.032691915
80	0x3d31158f	0.04323345
81	0xbca08aad	-0.019597376
82	0x3cf90821	0.030399384
83	0xbc903368	-0.017602637
84	0xbe222d73	-0.1583765
85	0xbd86b73b	-0.06577917
86	0x3d067148	0.032822877
87	0x3dd787bf	0.105239384
88	0xbdfa6341	-0.122259624
89	0x3c98e6d8	0.018664762
90	0xbe36fefb	-0.17870705
91	0xbddfc247	-0.10925727
92	0xbd73ddc8	-0.05953768
93	0x3d6c799c	0.057733163
94	0xbdf2086c	-0.118180126
95	0x3db224e0	0.086984396
96	0x3da40a9b	0.08009835
97	0xbded8dc9	-0.11599309
98	0xbc6583be	-0.014008461
99	0xbe0a1fb7	-0.13488661
100	0xbc93e888	-0.018055215
101	0xbda356ee	-0.07975565
102	0xbda51708	-0.080610335
103	0xbdff3279	-0.12460799
104	0xbe4543a4	-0.19264084
105	0xbcb51b2d	-0.022107685
106	0x3d74f483	0.059803497
107	0x3d0e8452	0.03479416
108	0xbe2b1f8e	-0.16711256
109	0xbb5c8fc5	-0.003365503
110	0xbe307cf8	-0.17235172
111	0xbde98d6b	-0.114039265
112	0xbe1349ab	-0.14383571
113	0x3d2dd795	0.042441923
114	0xbd721ff4	-0.059112504
115	0x3cf5c7f0	0.030002564
116	0x3d2f77d0	0.04283887
117	0xbe259a0e	-0.16172048
118	0x3da970ac	0.082734436
119	0x3dba3cbf	0.09093618
120	0x3d363bdc	0.04449068
121	0x3cf028b3	0.029316282
122	0xbcd014f0	-0.025400609
123	0x3dc53dbb	0.09630915
124	0x3caec368	0.021333411
125	0xbdd627dd	-0.10456822
126	0xbd9703a2	-0.0737374
127	0x3dec7f30	0.115476966

fc4.bias f4 [2]
0	0x3c2a1d3a	0.010382945
1	0xbe0d9d71	-0.1382959
