simpledemo/my_network_2.pth (torch, 70849 bytes, 8 tensors)

fc1.weight f4 [64, 4]
000000 e0 08 f0 be b6 4d 98 be fd a8 3a 3d b2 27 a2 3e
       -0.4688177 -0.2974679 0.045571316 0.3167091
000010 58 0b 84 be a4 11 0d 3e f8 0f 84 bd 00 ac 27 be
       -0.25789905 0.1377626 -0.06448358 -0.16374207
000020 82 ab dc be c6 b9 c6 be ac eb 9d be be d3 97 3c
       -0.430996 -0.3881361 -0.30843866 0.018533584
000030 14 e7 58 be d8 74 0d 3e 75 6f 2d be cc 20 94 bd
       -0.211819 0.13814104 -0.16937049 -0.07232818
000040 40 25 2b bc e6 c6 b5 be 4c 76 eb be d9 6c 5b 3e
       -0.010445893 -0.3550331 -0.4598869 0.21428241
000050 b0 fa e5 bd a7 be ce be bb f9 d6 be 28 aa 77 3e
       -0.112294555 -0.4037983 -0.41987404 0.24186003
000060 b0 38 ab be 05 7c f5 3e 06 d6 d3 3e 26 8c fc 3d
       -0.33441687 0.47946182 0.41374224 0.12331419
000070 fa ea c7 3e 3e c2 8b bd 9b 13 83 3e 93 b7 92 3e
       0.3904646 -0.06824158 0.25600895 0.2865568
000080 e8 e2 d0 3e e8 58 a9 3d ca 21 5e be 10 e6 13 be
       0.40798116 0.08268911 -0.21692577 -0.1444323
000090 bc 18 7a 3e b0 0e 4d be a0 c6 0f bd 3e 31 8c be
       0.24423498 -0.20025134 -0.035101533 -0.2738132
0000a0 30 e3 49 bd 65 c3 04 3f c9 d9 68 3e 02 5a ec 3e
       -0.04928893 0.5186065 0.22739328 0.4616242
0000b0 ba 6d d6 3e 6b f2 7f be 4f 74 f3 be 3a 73 e0 3e
       0.4188059 -0.24994819 -0.47549674 0.4383791
0000c0 40 df c7 bc db 46 c0 3e 11 54 29 3e 41 cd cc 3e
       -0.024398446 0.37554058 0.16535975 0.40000346
0000d0 78 24 c3 bd aa 81 d8 3e 39 d1 83 3d 49 ef e0 3d
       -0.0952844 0.42286426 0.064363904 0.1098314
0000e0 72 0a ea be 73 37 0b be f2 5b 99 3e 65 7d e4 be
       -0.45711094 -0.13595371 0.2995296 -0.44626918
0000f0 36 05 a0 3e 52 88 86 be ed ea 18 3e f1 7f b9 be
       0.31253976 -0.2627588 0.14933367 -0.36230424
000100 7c 66 e8 3e 1d 01 f6 3e 39 91 72 be 3b 30 12 3e
       0.4539069 0.48047724 -0.2368821 0.14276211
000110 14 f9 e5 be 70 66 9b 3e 47 a3 39 3e db 77 75 be
       -0.44916594 0.3035159 0.18128692 -0.23971502
000120 f2 7e 9c 3e 38 43 9c 3d 08 82 d6 3e ed 78 b0 be
       0.30565602 0.076300085 0.4189608 -0.3446726
000130 aa 7d aa 3e 20 dd 6e be 00 80 8d 39 22 a7 c1 be
       0.33299 -0.2332654 0.00026988983 -0.37822825
000140 ec f1 82 be 9e 89 c7 be d5 4f f0 3e 86 64 a0 3e
       -0.25575197 -0.3897218 0.46935907 0.31326693
000150 fc b2 1e be 7e 55 85 3e ea db d9 be 14 33 2d be
       -0.15497965 0.26041788 -0.42550594 -0.16914016
000160 4c 09 6b be 39 67 9f be cd 5b b3 3e 34 59 46 3e
       -0.22952765 -0.3113344 0.35030976 0.19369966
000170 68 79 af be 00 f8 42 bd 2e 2d b2 be 94 cc c3 be
       -0.34272313 -0.047599792 -0.34800094 -0.38242018
000180 20 47 58 3d 74 dd d0 3e cf 86 c0 be e6 c4 0a 3e
       0.052802205 0.40793955 -0.3760285 0.13551673
000190 80 68 bf be 78 c6 d7 be 4f 8a 98 3e d1 4d 08 be
       -0.37384415 -0.42143607 0.2979302 -0.13310935
0001a0 e0 98 bd be 31 0d 85 3e ee 8f 56 be 20 66 ec 3e
       -0.37030697 0.25986627 -0.20953342 0.46171665
0001b0 00 e4 08 bd d5 87 95 3e 60 b5 34 3d d3 01 d5 3c
       -0.033420563 0.29205194 0.044118285 0.026001846
0001c0 1a 0b a4 3e 6d 3d 22 3e 10 8a 36 be 9c a6 83 3e
       0.3203972 0.15843745 -0.17826104 0.2571305
0001d0 ec 80 6f be df e3 57 3e 33 8b ce 3e 1d e9 29 be
       -0.23389024 0.2108302 0.40340576 -0.16592832
0001e0 24 95 67 be 4f 5c 76 bd 49 8f 4e ba a2 f1 6c 3e
       -0.22615486 -0.060146626 -0.00078796275 0.2313905
0001f0 fc 91 6a 3e ae 19 06 3f 4a 3e 94 3e 8c 28 86 be
       0.22907251 0.52382934 0.28953773 -0.2620281
000200 46 19 d1 3e a6 e0 be 3d a0 a0 6e be ba f3 f4 3d
       0.40839595 0.09320192 -0.23303461 0.1196055
000210 24 63 db 3e b1 d5 b6 3e d2 b9 ac be 09 60 db be
       0.42849076 0.3570991 -0.3373552 -0.42846707
000220 ac d7 e3 be 8b af bb bd 5d ed 65 3e 76 47 e3 be
       -0.44500482 -0.091643415 0.22453828 -0.44390458
000230 e0 1d 09 bd 7c 39 b4 be 50 d8 2f 3d 5a e5 97 be
       -0.033475757 -0.35200107 0.0429309 -0.2966717
000240 d0 e0 f3 be 3d 1b f5 be e5 a0 34 bd 27 29 0a 3d
       -0.47632456 -0.47872344 -0.044098753 0.033730652
000250 44 0e 96 3e 50 df c3 be a0 dc 00 bd 20 a6 e2 bc
       0.2930776 -0.3825631 -0.031460404 -0.027667105
000260 a0 cd b0 bc 7f ef d0 be c2 71 b1 bb b8 9e 8b be
       -0.021582425 -0.4080772 -0.0054151723 -0.2726953
000270 00 e0 28 bb 4b 8c f7 3e d9 ce dc 3e a4 bc 6b 3e
       -0.002576828 0.48349223 0.43126562 0.2302118
000280 06 c7 c1 3e 05 30 b1 3d b4 1a 6f 3d d9 66 c3 be
       0.37847155 0.08651737 0.058375075 -0.38164404
000290 c8 d5 c0 be 66 41 0e 3e b5 d2 07 3e 4f 71 e5 bd
       -0.37663102 0.13892135 0.13263972 -0.112032525
0002a0 80 8a 6d be 31 fe 96 be 61 7a b9 3e 06 a0 c5 be
       -0.23197365 -0.29490808 0.3622618 -0.3859865
0002b0 f4 d0 66 3e 83 b4 9e be 93 36 55 3e 28 c5 80 3e
       0.22540647 -0.30997095 0.208216 0.25150418
0002c0 90 7f 87 bd 1b 9a ba 3c 22 a3 cd 3e 35 a9 00 be
       -0.066161275 0.022778561 0.40163523 -0.12564547
0002d0 40 3b 72 3d 19 53 42 3e ad 77 37 3e e3 0c f1 3e
       0.059138536 0.18977012 0.17916746 0.47080144
0002e0 62 c4 fe 3e a7 e3 ea 3e 84 a8 26 3e de 4a 49 3e
       0.49759203 0.4587681 0.16275221 0.19657466
0002f0 62 4a f0 be 68 79 cf be b5 64 ec 3e 80 be b5 be
       -0.4693175 -0.40522313 0.46170583 -0.35496902
000300 80 2e e1 bb 3d 32 c7 3e 73 dd e3 3e cc 03 90 3c
       -0.0068719983 0.38905516 0.4450489 0.017579935
000310 9e 07 8b 3e 13 4e 08 bf 71 53 ac 3e 7e 38 75 3e
       0.2715425 -0.5324413 0.3365741 0.23947331
000320 bc 4d 14 be 98 0b 78 3e 84 46 83 3e 5a e7 ae 3e
       -0.14482778 0.24223173 0.25639737 0.34160882
000330 80 89 a6 bd cc d4 d7 3e 65 00 a7 be 9f 8a a5 3e
       -0.08131695 0.4215454 -0.32617489 0.32332322
000340 b8 be 15 3e a0 52 06 3e 32 8d cc be 36 c7 8e be
       0.14623535 0.13117456 -0.39951473 -0.2788636
000350 bc bd fb 3e 4f 1d fe 3e db 16 0c 3d 0d 6b 45 bb
       0.49168193 0.49631736 0.034201484 -0.0030123622
000360 08 54 3d 3e 2b 43 2c be 23 6a a6 be 29 aa c9 bc
       0.18489087 -0.16822498 -0.3250285 -0.024617271
000370 9c 6a 30 3e aa da d2 be 00 c9 59 bc 60 ee 77 bd
       0.17228168 -0.41182452 -0.013292551 -0.060530066
000380 82 00 bb be 79 c1 a0 3e 5d 71 76 3e bb 32 c9 3d
       -0.36523825 0.31397608 0.24066682 0.09824129
000390 7c e0 e4 be e8 0a 07 3f 88 ec a8 be fc 6b ab 3d
       -0.44702518 0.52751017 -0.3299296 0.08370206
0003a0 7c d0 29 3e a2 fc bd 3d 26 f2 89 be b7 0a b7 3e
       0.16583437 0.092767015 -0.26942557 0.35750362
0003b0 ba c5 c8 3e 25 a5 a2 3e 4b 67 0a 3e 81 6a 93 3e
       0.39213353 0.3176662 0.13515966 0.28792194
0003c0 68 e7 bc be b6 a3 54 bd 02 c3 15 3e 31 01 44 3e
       -0.368953 -0.05191394 0.14625171 0.1914108
0003d0 30 3c 72 3d c1 9d 55 3e bf da 03 bf 17 c5 e2 3e
       0.05913943 0.2086096 -0.51505655 0.44290993
0003e0 60 93 ec bc 53 b0 b6 3d 9c c3 e0 3d 9b d9 eb 3e
       -0.028878868 0.0892035 0.109748095 0.46064457
0003f0 78 de 23 3e be 95 8b bd 12 db 5b be 76 3e 82 3e
       0.16002834 -0.068156704 -0.21470287 0.2543828

fc1.bias f4 [64]
000000 77 a6 d2 3e 76 2c 92 be 7a 80 14 3e 3f e2 08 3f
       0.41142628 -0.28549546 0.14502135 0.53470224
000010 a8 83 6f be 89 4c 04 3f 87 7c 31 bd 93 38 ab bd
       -0.23390067 0.51679283 -0.04333165 -0.083604
000020 fa 44 4f bd 84 f9 4c be ed 21 cc bd 8b 12 43 bd
       -0.05060289 -0.20017058 -0.09967408 -0.047625106
000030 54 da 5a be b4 87 92 bb aa 26 94 3e 07 2f 05 3e
       -0.21372348 -0.0044717435 0.28935748 0.13006221
000040 f0 1d 24 be 7d fe 08 be b7 4d 98 3c 1c de 7e be
       -0.16027045 -0.1337833 0.018591745 -0.24889416
000050 ee ac dc 3d 9e e5 a0 be 85 86 f4 3e e2 20 bb be
       0.10775171 -0.31425184 0.4775888 -0.36548525
000060 12 1f f5 3e ab 8f 5a 3e 78 6d 96 be fe 29 46 be
       0.47875267 0.21343867 -0.29380393 -0.19351956
000070 f8 e9 b4 bb a7 d6 c8 be 6b e0 e5 3e e5 77 f0 3e
       -0.0055210553 -0.39226267 0.4489778 0.46966472
000080 8b 12 83 be c0 ea ae 3e 6f ad 74 3e f4 78 33 be
       -0.25600085 0.34163475 0.23894285 -0.17526609
000090 3a 24 c2 be f4 70 d9 be 77 7e 50 3e 22 10 b4 3e
       -0.37918264 -0.4246899 0.20360743 0.35168558
0000a0 07 48 0e 3e 69 6d 70 3d 90 aa cb be 47 37 e6 be
       0.13894664 0.05869809 -0.39778566 -0.44964048
0000b0 28 09 4e be 8c 82 6c be 6c 3a 1b bc 40 6c c8 3c
       -0.2012068 -0.23096675 -0.009474378 0.02446568
0000c0 4b 5a 7e 3e 1c b3 d3 be b7 dc 9a 3d eb f5 96 be
       0.24839132 -0.41347587 0.07561629 -0.29484496
0000d0 b4 05 46 be a7 8d 09 3e 12 ac da 3e 00 24 85 bc
       -0.19338113 0.13432942 0.42709404 -0.016252518
0000e0 c9 ac f5 be 43 c1 68 be 46 f9 b6 be 9a dc dc 3e
       -0.47983387 -0.22729973 -0.35737056 0.43137056
0000f0 ca 73 a5 3b e3 51 40 be 4f f1 c2 be b0 79 e7 3c
       0.0050492035 -0.18781237 -0.3807473 0.028256267

fc2.weight f4 [128, 64]
000000 dd 65 f8 3d f2 f9 b8 bd 19 d6 11 3e 7b 20 e4 bc
       0.12128804 -0.09032048 0.14241828 -0.02784752
000010 01 44 ac bd dd 65 05 bd 7b 3b 8b bd 62 00 a1 bd
       -0.08411408 -0.032567848 -0.067984544 -0.07861401
000020 6f 01 91 3d 9a de e6 bd aa 80 fb ba a4 67 ab 3d
       0.070803516 -0.11272927 -0.0019188125 0.08369377
000030 5d 52 00 3e 11 f1 c7 bd 5f 3c 05 3e db c6 83 3d
       0.12531419 -0.09762777 0.13011311 0.06434413
000040 80 0b 5b 3c 8a f7 df 3d 76 f8 a9 bd 48 30 d8 bc
       0.013369441 0.10935886 -0.08299343 -0.02639021
000050 71 93 25 bd 5e d3 ee 3d d4 c5 00 3e b0 47 16 3c
       -0.040423814 0.11661409 0.12575465 0.009172365
000060 1c 27 ea 3d 63 df 37 3c 8a 97 6b bd 0d 3d 1a bc
       0.11433241 0.011222693 -0.057517566 -0.00941397
000070 cb 38 4c 3b d4 91 ac 3d 5f 22 44 3d 32 43 02 bb
       0.003116178 0.08426252 0.04788434 -0.0019876477
000080 30 66 11 3d 8c 76 df 3d 6f ef 39 bd d4 9e 5c bd
       0.035497844 0.10911283 -0.045394357 -0.053862408
000090 ae a6 1a 3d 08 b9 10 3d 2a 6b 07 bd d2 62 db 3d
       0.037756614 0.03533271 -0.033061184 0.10712208
0000a0 30 9d cd bd b3 ef ab 3d 73 39 26 3d 69 a0 d2 bc
       -0.10039747 0.083953284 0.04058213 -0.025711255
0000b0 ee da fe bb 94 ba d9 3d 89 da fc 3d c7 1b 6f 3d
       -0.0077775633 0.1063129 0.1234637 0.0583761
0000c0 65 e2 d6 bc 44 6a e9 bd 2d 6f d6 3d a0 11 af 3d
       -0.026231 -0.11397222 0.10470424 0.085482836
0000d0 bc 72 e5 3d 45 7d 85 bd 0b 38 1e bd c0 b9 49 3b
       0.112035245 -0.06518034 -0.038627665 0.0030780882
0000e0 a5 fe 18 bd c4 80 2f 3e a0 f8 45 bd 39 eb 1c bd
       -0.037352223 0.17138964 -0.04833281 -0.038310263
0000f0 0d a6 a3 bc eb 30 1e 3d fb 2b a8 bd 18 d4 94 bd
       -0.01997664 0.03862087 -0.082115136 -0.07267016
000100 32 11 81 bd 48 83 ac bd ba 94 2a 3d 4e 4a 27 3e
       -0.06302108 -0.084234774 0.041645743 0.16336939
000110 25 03 8d bd c5 ca 80 3d 17 0f 4b bd 36 48 e0 3d
       -0.068853654 0.06288675 -0.049574938 0.10951273
000120 d9 ab a1 bc 10 3b fc bd 44 fd 15 bb 9a 7f e5 3d
       -0.019735264 -0.12315953 -0.0022886554 0.11205979
000130 30 e0 6f 3d 65 ea 5a bc 87 b3 13 3c a0 e2 80 3d
       0.05856341 -0.013361548 0.009014971 0.06293225
000140 29 a2 a3 3d d3 73 5b 3d 29 55 d3 3d 60 28 bd bd
       0.07989914 0.053577255 0.103189774 -0.092362165
000150 85 ed 00 3e 20 e7 9a bd a8 57 00 3e 60 fc 1a 3c
       0.12590607 -0.07563615 0.12533438 0.009459585
000160 15 3f 5d bd 80 7c fc 3c 4c 85 99 3a 75 e9 0a 3d
       -0.054015238 0.030821085 0.0011712699 0.03391405
000170 58 f4 e8 bd d9 ff 90 3d ac 5c 87 3c 8e ad 02 bb
       -0.1137473 0.07080049 0.016523682 -0.0019939872
000180 c8 03 c1 3d f0 29 43 3d 9e 40 80 bd 88 a2 a6 3d
       0.09424549 0.047647417 -0.06262325 0.08136469
000190 6c 46 12 bd 94 24 8c bd fe 46 0e 3e 2c ad 42 bc
       -0.03571169 -0.06842914 0.13894269 -0.011882108
0001a0 7d 18 94 3d c2 27 1e bc e6 eb 44 bd ce dd 93 bd
       0.07231233 -0.009653034 -0.048076533 -0.0722004
0001b0 af 3c 69 bb ac 6d dd bc 0e 83 50 3d 26 e3 6e 3d
       -0.0035589149 -0.027029835 0.050906233 0.058322094
0001c0 74 73 aa bd 7b 5e c5 bd cf 50 14 3d aa 9c 88 bd
       -0.08322802 -0.09637161 0.036209878 -0.06670506
0001d0 d2 a8 95 3d 06 09 c0 bc 62 f6 e8 bb 84 23 25 3d
       0.073075905 -0.023441803 -0.0071094492 0.040317073
0001e0 05 24 b8 bd 01 fd 8a 3d 42 89 c1 3d 5d 70 02 3e
       -0.08991245 0.06786538 0.09450008 0.12738176
0001f0 42 39 9c bd d7 a0 e3 bd 5b 64 6b 3c 05 61 d0 3d
       -0.076281086 -0.11114662 0.014367188 0.10174755
000200 51 86 8d bd ea 41 f8 3d 3f 61 b5 bc c6 64 82 3c
       -0.069103844 0.12121947 -0.022141097 0.015917193
000210 b8 b3 57 bd 4a 55 12 bd d5 88 34 3d 9d db 96 bd
       -0.052661628 -0.03572587 0.044075806 -0.07366107
000220 d0 ff 98 bd f4 c6 f7 bd 77 ef 98 bd 9a d1 45 3d
       -0.07470667 -0.12098494 -0.07467549 0.048295595
000230 fa f4 2f bd 75 b7 9d 3d 00 37 c9 bd 73 95 8a 3b
       -0.042958237 0.07701007 -0.098249435 0.0042292415
000240 c3 a5 55 3d dd 33 ed bd b3 8d bb bd 98 ec b9 bc
       0.052160036 -0.11582158 -0.09157886 -0.022695825
000250 45 a6 62 bd 78 cb bd bd 72 43 9e 3b 44 de f4 3d
       -0.05533435 -0.09267324 0.0048298175 0.11956456
000260 ab 32 1c 3e 19 ab 85 bd 38 be b5 3d cf 54 c8 3b
       0.15253703 -0.06526775 0.08874172 0.0061136256
000270 04 71 f0 3d 80 e5 80 3d 98 5e 04 3d e6 a0 bb 3d
       0.11740306 0.06293774 0.032316774 0.09161548
000280 4d ea 07 bd b3 af be 3d 8a ec 8f bd bc f6 1a 3d
       -0.03318243 0.09310856 -0.07027538 0.03783296
000290 03 02 c4 3d d4 ff 4e bd 5d 24 ce bd 92 ca 6c 3c
       0.09570696 -0.050536945 -0.100655295 0.014452593
0002a0 22 72 33 bd 84 d4 d4 bd 4b e2 9b 3c 1e b7 43 bd
       -0.043810017 -0.10392097 0.019028803 -0.047782056
0002b0 41 be c9 bd ba 43 94 3c 65 7e 4b 3d 6a c8 b2 bd
       -0.09850741 0.0180987 0.049681086 -0.08729632
0002c0 bc be 99 3d 6b df bc bd 27 37 be 3d 1f 31 d0 3d
       0.07507083 -0.09222301 0.09287863 0.10165619
0002d0 32 b8 c1 3d 04 c0 3a 3e c9 9f 78 3d 1c 43 03 3d
       0.094589606 0.1823731 0.060699258 0.032046422
0002e0 3f 2a 13 be ad ec 24 3d 54 94 5b bd 2d e8 0f 3e
       -0.14371584 0.040264774 -0.053608254 0.14053412
0002f0 e8 d7 42 bc 27 eb 5d bd 6c 0b f3 b8 02 32 4f 3d
       -0.011892296 -0.054179337 -0.000115892704 0.0505848
000300 b8 39 83 bd b4 a8 0e bd 7c b5 d5 bd a4 5e 18 bd
       -0.06407493 -0.034828857 -0.10435006 -0.03719963
000310 28 07 c7 bc 04 88 9c 3d 70 4e ff bd 7a f9 f8 bd
       -0.024295405 0.076431304 -0.12466133 -0.12156959
000320 4c 9e 06 bd 74 de 4a bd e2 ee 8d 3d 64 27 eb 3d
       -0.032865807 -0.049528554 0.06930329 0.114821225
000330 56 49 a3 3d e0 a2 81 bd a0 ba a1 bb 5e 11 d7 3d
       0.07972972 -0.06329894 -0.0049355775 0.105013594
000340 4c 1a c6 bd 00 fb 93 3a f8 b1 82 3c c0 92 f7 3c
       -0.096729845 0.0011290014 0.015954003 0.030221343
000350 84 23 79 bd 58 60 af bd 90 cf 6a bc 9c 00 72 bd
       -0.060824886 -0.08563298 -0.014331713 -0.059082612
000360 b4 b2 66 bd a6 a6 8a bd 58 9b 73 bd a8 a3 a1 3c
       -0.05632277 -0.06770067 -0.05947432 0.019731358
000370 a0 e8 2f bd 04 fa 98 3d 38 36 a1 3c 80 3c fe 3c
       -0.042946458 0.07469562 0.019679174 0.031034708
000380 aa 23 f5 bd b4 cc 3e bd 8a 7d d7 bd a4 31 e4 bd
       -0.11969693 -0.04658194 -0.105219916 -0.11142281
000390 46 a3 cf bd 50 97 88 bd 7c a1 b8 bd 88 8c 4a bd
       -0.10138564 -0.066694856 -0.09015176 -0.049450427
0003a0 84 72 fa 3d c6 ba e5 3d ea 30 8e 3d 60 0d be bc
       0.12228873 0.11217265 0.06942923 -0.023199737
0003b0 d0 11 03 bc 00 78 42 3b 30 c1 01 bd c0 ed 51 bd
       -0.007999852 0.0029673576 -0.03167838 -0.051252127
0003c0 70 8a 6f 3d fc 76 15 bd b8 39 ca 3d 80 07 0e 3d
       0.058481634 -0.036490425 0.0987429 0.03467512
0003d0 f8 83 80 3d f0 2f 94 bd b0 b1 e6 3d c4 ce dd 3d
       0.06275171 -0.07235706 0.1126436 0.10830453
0003e0 c8 87 86 bd 62 68 e3 bd 88 6a 60 bd 98 0f 83 3d
       -0.06568867 -0.11103894 -0.054789096 0.06399459
0003f0 80 78 ea bc 88 03 be 3c 50 0e d4 3c 10 20 ba bd
       -0.028621912 0.023195043 0.025885731 -0.09088147

fc2.bias f4 [128]
000000 e0 63 5a 3c 3d 61 83 3d 35 6f 9f bd 0a 8a a3 bd
       0.013329476 0.06415031 -0.07784883 -0.07985313
000010 d5 da 9f bd 2a 50 a4 3d 98 8f cc 3c 78 3d e3 3b
       -0.07805411 0.080231026 0.024970815 0.006934818
000020 9e f2 8c bd fb d6 b0 bc 9f 70 a8 3d 0c fd ad 3d
       -0.06882213 -0.021586886 0.08224606 0.084955305
000030 9b e3 d9 3c 03 fa 9b bc f7 4f 11 3e 72 08 f5 bd
       0.026597789 -0.019040113 0.1419066 -0.119645014
000040 8c 0b d5 3c 3c 94 dc bd c2 c3 82 3d 9b 18 74 3c
       0.026006483 -0.10770461 0.06384994 0.0148984445
000050 8e f1 92 3b 9d 2d bd bd c7 4b 44 bd c4 1d 85 bd
       0.004484362 -0.09237216 -0.04792383 -0.06499818
000060 92 04 12 3e 43 b5 64 3b 9c 38 fe bd 2c 95 4e 3d
       0.14259556 0.003489808 -0.12413141 0.05043523
000070 7e 71 97 bd 16 f8 2c ba 00 d8 98 3d 04 e1 cb 3d
       -0.07394694 -0.0006598247 0.07463074 0.09955028
000080 5f c6 80 bb 1a 68 a4 bd 06 a3 bc 3d 8f d9 12 bd
       -0.0039298977 -0.08027668 0.09210782 -0.03585201
000090 c4 ac 5b bd 51 22 24 3d 1f 0c f1 bd 3c fe aa 3c
       -0.05363156 0.04007179 -0.1176989 0.020873182
0000a0 84 ec 8a bd f0 6a 29 bd 4f 22 cb 3d 90 13 9a bd
       -0.06783393 -0.04136175 0.09918653 -0.075232625
0000b0 f4 9e fc 3d 35 b2 d7 bb 70 41 87 bd 54 1e 6b bd
       0.123350054 -0.006582523 -0.06604278 -0.05740197
0000c0 dc 0d b0 bc 85 b4 8a 3b d6 39 c1 3c 7f 3e 54 3d
       -0.021490984 0.0042329454 0.023587149 0.051817413
0000d0 b3 05 d5 3d 80 f8 42 bd b7 7f ee 3b a7 1d 2a 3e
       0.10401478 -0.04760027 0.0072784084 0.16612874
0000e0 97 1c 84 3d db b3 bf bd a6 d3 1e 3e 0e 27 f5 bd
       0.064507656 -0.093604766 0.15510425 -0.1197034
0000f0 da 58 36 3c 74 21 85 bd 20 eb f6 bd 28 46 02 3e
       0.011129582 -0.06500521 -0.12056565 0.12722075
000100 3f 3f cc bd e1 7a 85 3c 80 76 b5 bb 59 7d 0b 3a
       -0.09973001 0.016293945 -0.005537808 0.00053211075
000110 e5 18 8d bd 5e e9 02 3d cc f4 0f bd 61 3a 9d 3d
       -0.06889514 0.031960838 -0.035145566 0.076771505
000120 b9 ac c2 3d 76 dd 77 3b 1d 05 1b 3e 7a 43 42 3c
       0.095056005 0.003782121 0.1513867 0.011856908
000130 14 9a 2c bd 9b e4 88 bd eb d7 df bd 4a 10 bd 3c
       -0.042139128 -0.06684228 -0.10929855 0.023079056
000140 e1 51 14 3e 2f 74 ad bc 4d e6 6f 3d ec e5 78 3d
       0.1448436 -0.021173565 0.05856924 0.060766146
000150 db 32 fa 3d 33 2f a5 bb 79 e2 b1 bc 24 a5 70 bd
       0.12216731 -0.005041027 -0.021714436 -0.05875124
000160 c4 f6 41 3d f3 4a 6a 3c c0 73 b6 3d 04 7e 6a bd
       0.047354475 0.014300096 0.08908796 -0.057249084
000170 57 3f 87 bd ae b7 56 3d 99 02 0e 3e 9a 9d 32 bd
       -0.06603878 0.052421264 0.13868178 -0.04360733
000180 d7 d9 94 bd fa 3a a1 bd 5c 5e 28 3e a6 6b 47 3b
       -0.07268112 -0.07872577 0.16442245 0.0030429154
000190 13 d2 c2 3d 1a 89 94 bd 55 19 c4 3d e8 22 cf bd
       0.09512725 -0.072527125 0.09575144 -0.1011408
0001a0 b3 f9 87 bd c8 fb d2 3d 13 e2 71 3c 2c e7 65 bd
       -0.06639423 0.1030193 0.014763373 -0.056128666
0001b0 7d bd af 3c d6 f1 64 bd be 83 6b bc 6f 4d 5d bd
       0.02145266 -0.055894695 -0.0143746715 -0.054028925
0001c0 a8 d4 fb 3d da 83 1f 3e b7 fa 85 bc 67 e9 c4 bd
       0.1229642 0.15577641 -0.016354902 -0.096148305
0001d0 3e f0 03 be 2a 2f 54 bd 4f 55 6a bc f3 fb 51 3d
       -0.12884614 -0.05180279 -0.014302566 0.051265668
0001e0 53 d3 0d be 1f c2 e3 3d a5 a6 a4 3c 70 b3 34 bc
       -0.13850145 0.1112101 0.020098994 -0.011029109
0001f0 67 a0 88 bd 95 04 c8 3c 04 f6 b8 3c b7 52 8e 3d
       -0.06671219 0.024416247 0.022578247 0.0694937

fc3.weight f4 [64, 128]
000000 95 d2 77 bd 71 5c 81 bd e6 70 0f 3d 6c 12 f5 bc
       -0.06050356 -0.0631646 0.035019778 -0.02991601
000010 81 26 3d bd 2c c5 4d 3d 43 b0 10 bd a0 96 10 3b
       -0.0461793 0.050236866 -0.035324346 0.0022062436
000020 21 19 82 3d 68 d3 14 3c dc 29 ad bc 7e 38 94 3d
       0.06352449 0.009083606 -0.021138124 0.072373375
000030 1b d9 ad bd 6f c5 55 3d 05 e5 1a bd ae 87 21 bd
       -0.08488675 0.05219024 -0.037816066 -0.039436035
000040 20 3c 48 bd 71 0b 68 bd 7b 1c 32 bd f6 02 28 3d
       -0.048885465 -0.056651536 -0.043484192 0.04101845
000050 0e 6d 82 bd 72 17 40 3d de 86 4c 3d 16 42 fa bc
       -0.06368457 0.04689736 0.049933307 -0.03054909
000060 eb e1 4c 3c e2 c6 ca bd dd a1 ae bd ba 05 1f bd
       0.012505035 -0.09901215 -0.08526967 -0.03882382
000070 cf 93 a3 3d 3b 7f 7d 3d 2c fa 01 3d 74 f6 3f bd
       0.079871766 0.061888915 0.031732723 -0.046865895
000080 0b 83 25 bc a6 9b 7b 3d ad 50 a1 bd 4d ff 58 3d
       -0.010102044 0.061427735 -0.07876716 0.05297785
000090 c8 52 7d 3c a1 0e 1c bc 6a 9e 2d 3d 59 1f 4a bc
       0.015461631 -0.009524972 0.042387404 -0.012336575
0000a0 f7 68 42 3d 0f 7f 00 bd 9e b1 09 3d 9f 95 99 3d
       0.047463384 -0.031371173 0.033616655 0.07499241
0000b0 7a a2 13 bd fa bd 67 3d d8 99 c5 bc 00 73 1d 3b
       -0.03604362 0.05657766 -0.02412121 0.0024024844
0000c0 60 38 06 3d cf 0f 5c 3c e7 b3 77 bd ca e2 44 bd
       0.032768607 0.013431503 -0.060474303 -0.048067845
0000d0 4d f5 6a bd 2c f2 92 bd 88 24 b3 3c c7 57 5e 3d
       -0.057362843 -0.07175097 0.021868005 0.05428293
0000e0 e6 fa 76 3d c6 b2 95 bc 37 2e 78 bd 80 4f f4 ba
       0.06029787 -0.018273722 -0.06059095 -0.0018639416
0000f0 50 69 9d bd 05 52 15 bc 0f 3e c1 bd ac 4e 32 bd
       -0.076861024 -0.009113793 -0.09435665 -0.04353206
000100 99 fb 06 bd be a4 5d 3d f4 bd 18 bd 73 89 21 bd
       -0.032954786 0.05411219 -0.03729053 -0.039437722
000110 78 09 9a bd 72 62 13 3d a2 6e 8a bd 8e 23 c8 3c
       -0.07521337 0.035982557 -0.06759383 0.024431016
000120 9d 26 4d 3d f7 1e a9 bd 60 a2 84 3b 80 69 66 bd
       0.050085653 -0.08257859 0.004047677 -0.056252956
000130 18 28 fb 3c f1 94 8b 3d 4d f2 b3 bd 83 c5 3c bd
       0.030658767 0.06815518 -0.087864496 -0.0460868
000140 d2 90 23 bd ac da 22 3d 30 cf 94 3d 60 fd 38 3b
       -0.039933033 0.039759323 0.072660804 0.0028227195
000150 f9 ed c0 bc b1 1f 8d 3d 5e 9b 83 bd 43 1a 13 bd
       -0.023550974 0.0689081 -0.06426118 -0.035913717
000160 3b c1 d0 3b 87 0f 74 bc da 94 c4 bd 07 66 4f 3d
       0.006370691 -0.01489628 -0.09598704 0.05063441
000170 23 92 7d 3b 15 ab 91 bc 7b fd 34 3d 71 9f 3d bd
       0.003869184 -0.017781774 0.04418705 -0.046294633
000180 e6 42 82 bd 5e 1b 91 bd 83 89 17 3d 33 98 5b bd
       -0.06360416 -0.07085298 0.036996376 -0.053611945
000190 28 34 c2 3c e3 38 07 bd e0 f6 8c bd 9f 8b 0f bd
       0.02370651 -0.033013236 -0.06883025 -0.035045262
0001a0 7c 29 a0 bd 0d 7a 6e 3d 9a 6a c4 bc c3 d4 8e 3d
       -0.078204125 0.058221865 -0.023976613 0.06974175
0001b0 e5 38 ac bd ec 91 f9 bc a6 95 ce bd f0 5d 0c bc
       -0.08409289 -0.030465089 -0.10087137 -0.008567318
0001c0 70 65 92 3d 09 83 b2 3c f5 09 76 bc bc 5e 8a 3c
       0.07148254 0.021790998 -0.015017022 0.016890876
0001d0 78 36 6d bc b6 da 6d 3d 34 f4 2f 3d 60 9e 71 3b
       -0.014478318 0.058069907 0.0429575 0.003686808
0001e0 e6 b6 7b 3d 3d ba 88 3d a1 5a bc bd 70 e3 bc bc
       0.061453722 0.06676147 -0.091969736 -0.02305767
0001f0 f3 5f cd 3c bf 60 d4 3c 06 99 5e 3c 90 6e 92 bc
       0.025070166 0.025925038 0.013586288 -0.017874986
000200 b8 26 3e 3b e7 5a 1e bd 43 3c 8d 3d 8d 2a 9c bd
       0.0029014777 -0.03866091 0.0689626 -0.076253034
000210 5e ea df bc 82 4e 8a bd 00 55 ce 39 b7 90 b4 3d
       -0.027333435 -0.067532554 0.00039354712 0.08816665
000220 60 8f de 3c ec de ce 3c 9c 0a ae 3c 57 0c 4b 3d
       0.027167976 0.025252782 0.021245293 0.049572315
000230 15 5d ed 3d 54 af c5 bc da d7 ca 3d 24 54 f2 3c
       0.115900196 -0.024131455 0.09904452 0.029581137
000240 0f 3a fe bc 3a 76 46 3d e4 8d b8 bb 32 74 15 3a
       -0.031033544 0.048452593 -0.005632149 0.00057012134
000250 57 da 81 bd 67 53 de 3c f7 e2 c3 3d f4 b9 4f bd
       -0.06340473 0.027139379 0.095647745 -0.050714448
000260 a5 38 a2 3d 31 db c0 3d 73 81 5b bd c2 4c ed 3c
       0.0792096 0.094168074 -0.05359025 0.028967265
000270 a9 5e 79 bd 6e e2 85 bc 36 58 82 3d bc 54 07 3d
       -0.06088129 -0.016343322 0.06364481 0.033039793
000280 54 8a 21 3d 20 c0 f7 3b 3f 77 85 bd 2c de ba 3d
       0.03943856 0.007560745 -0.06516885 0.09124407
000290 b4 a6 df 3c 6b ec 02 bd b8 a6 87 bb 2e d2 81 bd
       0.02730117 -0.031963747 -0.0041397475 -0.06338917
0002a0 f5 2b d7 bc f9 0a 92 3d 62 0f 08 3c 46 0e 7e 3d
       -0.026266078 0.07130999 0.008304449 0.06202533
0002b0 48 4b ad 3d 11 26 76 bd 04 6f 2f bc 3b ca a8 3d
       0.084616244 -0.060094897 -0.0107076205 0.082416974
0002c0 4a e7 25 3d c1 46 a5 bd 12 e1 8c 3d 87 72 72 bd
       0.040503778 -0.08070136 0.06878866 -0.059191253
0002d0 57 5b 87 3d 7f ac 2b bd db ef 4a 3d f9 70 50 3c
       0.066092186 -0.041912552 0.04954515 0.012722247
0002e0 a0 34 91 bc 0e 7e ba 3d 7d 11 a5 3d ca e2 e3 bb
       -0.017725289 0.09106074 0.08059976 -0.0069545256
0002f0 e4 17 57 3d 78 eb be bc fd a0 34 bc a6 dc af 3d
       0.05251302 -0.02330564 -0.011024711 0.08587007
000300 6f 56 ac bc 70 f2 40 3d a8 9c 49 bc 79 60 87 3c
       -0.021037308 0.047106206 -0.012305416 0.016525494
000310 d0 96 f0 bc cc 89 62 bc b0 9b 1f bd af d6 20 bd
       -0.029368788 -0.013826799 -0.038966835 -0.03926724
000320 40 30 8b bd b5 5f 9f bd 75 70 9b 3d 5e 0d 8d bd
       -0.06796312 -0.077819265 0.07589809 -0.06887315
000330 41 4b 4c 3d 41 35 9b 3d 85 da 29 3c ba be 88 bd
       0.049876455 0.07578517 0.0103670405 -0.06677003
000340 0c 4a 0c bd c3 f4 0c 3d 86 65 bb 3d 73 ca ce 3d
       -0.034250304 0.03441311 0.091502234 0.10097208
000350 95 67 1b 3c 1c 01 2d bb e2 5f 64 bd 4a e2 24 3d
       0.009485145 -0.0026398366 -0.055755503 0.04025487
000360 ee 3e da 3c 1b 17 c1 3d f5 e2 4b 3d 38 60 38 3d
       0.026641335 0.09428235 0.04977699 0.045013636
000370 6e 8f 72 bd b9 a0 b9 3d 6a 5d 4f bc 88 c8 93 3d
       -0.059218816 0.090638585 -0.012656549 0.07215983
000380 44 3b 88 bd 1c a6 2e 3d 8d 3f 05 3d 8d 5d c7 bc
       -0.06651929 0.042638883 0.03253131 -0.0243366
000390 df 26 87 3d be 21 95 bc 4b d1 79 bd c0 34 d5 3b
       0.06599211 -0.018204566 -0.060990613 0.0065065324
0003a0 3a 4e 76 3c 09 08 a5 3c 27 f8 bd bb af 4b 8c 3d
       0.015033299 0.020145433 -0.0057974043 0.06850373
0003b0 d2 44 ac 3d 7d f1 8a 3d a3 05 00 3e df e8 f9 3c
       0.08411564 0.067843415 0.1250215 0.03050655
0003c0 39 98 b3 3d 3f 3a 31 3d c9 26 ae 3d 52 d8 6c bd
       0.087692685 0.04326844 0.085034914 -0.057823487
0003d0 97 48 93 bd 00 01 12 bb 98 a9 ec bc 70 e5 15 bd
       -0.0719158 -0.0022278428 -0.028889462 -0.03659576
0003e0 99 6d a9 3c 1b 41 5f 3c 91 7b dd 3c 22 09 4c 3d
       0.020682143 0.013626362 0.02703646 0.049813397
0003f0 0f 87 86 3c f8 63 70 bc 03 56 37 bd 59 c4 3c 3d
       0.016421823 -0.014672272 -0.04475976 0.04608569

fc3.bias f4 [64]
000000 27 f2 1b bd d7 69 84 3d 17 08 fd 3d 13 e0 1b bd
       -0.03807273 0.064655 0.12355059 -0.03805549
000010 6d 84 bc bd 3b 0f ed 3c 61 54 5e 3b 4a a4 88 bd
       -0.09204946 0.028937927 0.0033924805 -0.06671961
000020 26 61 1e 3c e9 00 d2 3c 71 96 04 bd 24 38 5c bd
       0.009666717 0.0256352 -0.032370035 -0.053764477
000030 b5 53 98 bd ab 8f 10 3d 52 a5 c4 bb 18 e7 6b 3d
       -0.07437841 0.035293262 -0.006001153 0.057593435
000040 11 76 7e 3c a2 43 8d 3d 94 1d c4 bc ab 85 db 3d
       0.015531079 0.068976656 -0.023939885 0.107188545
000050 10 5c 11 bc fa 25 57 3d c1 cb 27 3c 81 8f a4 3d
       -0.008872047 0.05252645 0.01024145 0.08035184
000060 c2 6f 50 3d dc 75 2c 3d 2c cd 5f bd 50 94 a6 bc
       0.05088783 0.042104587 -0.054639027 -0.020334393
000070 80 9f 57 3d 56 57 a7 bd 40 d7 92 3d 6d b1 61 3d
       0.052642345 -0.08170955 0.07169962 0.055100847
000080 fb a9 8a 3d 94 08 06 3b 95 c9 4c bd a6 f4 21 bd
       0.067707025 0.002045189 -0.04999693 -0.039539956
000090 df 5b e6 3c 28 59 17 3c 3d 65 e3 bc 80 f6 a4 bd
       0.02811998 0.009237565 -0.027758235 -0.08054829
0000a0 42 2f ad 3b 2b 12 8f ba 30 83 e8 3b 10 e6 29 bd
       0.0052851746 -0.0010915449 0.007095717 -0.04147917
0000b0 26 d6 0c 3d f0 d2 63 3d d0 17 ab bb 8b d4 d9 3d
       0.034383915 0.055621088 -0.0052213445 0.106362425
0000c0 aa ae 32 3d 9b 72 41 3b 70 d2 6e 3d b8 50 b5 bc
       0.043623604 0.0029517773 0.058306158 -0.022133216
0000d0 d1 d9 29 3d 11 7d cd 3d ea 56 87 3d 2e 4c 5d bd
       0.04146749 0.1003362 0.066083744 -0.05402773
0000e0 d8 60 5c bd 3b 5d de 3d 1c 41 b2 bd 60 8d b1 3d
       -0.053803295 0.10857626 -0.08703825 0.08669543
0000f0 42 3a 91 3d f7 63 95 3d bf 93 e3 3d bb c1 3c bd
       0.0709119 0.072944574 0.11112165 -0.046083193

fc4.weight f4 [2, 64]
000000 51 13 be bd c0 0b b9 3d 46 1a 04 bc cc 95 c7 3c
       -0.09281028 0.09035444 -0.008062905 0.02436342
000010 29 41 fe ba ec 47 f9 3c 13 e0 2f bd 40 19 43 3d
       -0.0019398081 0.030429803 -0.042938303 0.047631502
000020 e1 df 7f bc 88 a5 e8 bc 91 68 f5 3d 32 96 f4 3d
       -0.015617342 -0.028399244 0.11982835 0.1194271
000030 ea f9 96 3d 00 bb de 3d 6f 64 9f 3b 15 34 aa bd
       0.07371886 0.10875511 0.0048642675 -0.08310715
000040 56 21 55 bd c5 0c e0 ba d8 72 4f bd d6 7c 42 3d
       -0.052033745 -0.0017093649 -0.050646633 0.047482334
000050 58 bc 4a 3d 64 e4 25 3d d2 dc 4e 3d de 3d d2 3d
       0.049496025 0.040501013 0.05050356 0.102657065
000060 95 4d b8 3c 6b b6 a9 bc f4 0b 00 3d 88 25 ab 3d
       0.022497931 -0.020716866 0.0312614 0.08356768
000070 e0 96 93 bc dc e6 aa 3d 28 dd ec 3d 96 9e 16 bd
       -0.018016279 0.08344814 0.1156562 -0.036772333
000080 a7 a1 9a bd 3b ea db bd 9d 04 d7 3c 46 79 c1 bd
       -0.07550364 -0.10738035 0.026247317 -0.09446959
000090 68 85 91 bc 7d 76 d6 bd cd 43 04 be 50 6a 74 bd
       -0.017763808 -0.104718186 -0.12916489 -0.0596717
0000a0 61 e0 ab bc 48 48 90 3d 36 cd df bd cc e5 b4 bd
       -0.020981016 0.070450366 -0.10927813 -0.08832893
0000b0 d9 71 eb bd 3f 45 e4 bd e5 69 e6 3d 66 23 b7 bd
       -0.11496324 -0.1114602 0.112506665 -0.089422986
0000c0 20 de f0 3b 52 0f 8b 3d 45 7f 31 bd 2c c0 07 3d
       0.007350698 0.067900315 -0.043334264 0.033142254
0000d0 c0 bd b7 3d 9c ae 07 3d de 2c 89 bd 78 af 81 3c
       0.08971739 0.033125505 -0.06698011 0.01583074
0000e0 88 99 2e bd 9b 30 9c 3d 1f 8d 75 3d 17 0a c6 3d
       -0.042626888 0.07626458 0.059949037 0.09669893
0000f0 c2 cd a0 3d 07 0e 1a be 74 74 28 3d 9e 54 00 3e
       0.07851745 -0.15044414 0.041126683 0.12532279
000100 d2 4d ba 3d 77 20 0e be 37 23 70 bd 99 35 8e 3d
       0.09096874 -0.13879572 -0.058627333 0.06943817
000110 6f 28 27 3b c7 3d 1e be 09 28 d8 bd 70 c1 2b 3c
       0.0025506278 -0.15453254 -0.10554511 0.010483131
000120 1e ea 7c 3d 71 0c c8 3d 93 39 b9 bd ae 0d d8 3d
       0.06174671 0.09767998 -0.090441845 0.10549484
000130 23 23 ad 3c f5 34 2c be f0 b3 a8 bd 63 b1 e6 3d
       0.021134919 -0.16817077 -0.08237445 0.112643026
000140 ea d8 1b be d8 83 37 3d e0 13 33 3d b5 63 24 be
       -0.15219465 0.04480347 0.043720126 -0.1605366
000150 04 09 54 3d 14 52 6b bd f9 88 61 3d 91 c4 0f be
       0.05176641 -0.057451323 0.055062268 -0.14039828
000160 70 0c 92 3c d6 77 c8 3d 58 a0 ce bd c0 cb 11 bb
       0.017828196 0.09788482 -0.10089177 -0.0022246689
000170 3d 70 0f be 62 9d 83 bd ce c7 80 3d f0 14 92 3d
       -0.1400766 -0.06426503 0.0628811 0.071329
000180 a2 b9 ef 3b 9c c3 7c 3d f7 78 14 be e9 59 92 3d
       0.0073158303 0.061709985 -0.1449927 0.07146055
000190 c0 b3 c1 3d bb 02 07 3d c8 96 af bd 7c 99 c7 bc
       0.09458113 0.03296159 -0.08573681 -0.02436518
0001a0 42 19 31 be 70 ee b2 3d ee 57 c9 bd 07 d8 37 bd
       -0.17294791 0.087368846 -0.098312244 -0.044883754
0001b0 95 b1 15 bc e1 40 06 be c1 b8 2e be e0 71 12 be
       -0.009136577 -0.13110687 -0.17062666 -0.14301252
0001c0 e0 fa f1 bc 01 13 a0 bb c3 73 cb 3d b4 11 eb 3d
       -0.029538572 -0.004885078 0.09934189 0.11477986
0001d0 7f 40 d0 3d 46 dd c9 bd 57 97 37 be 40 a5 18 bc
       0.10168552 -0.09856658 -0.17928825 -0.009316742
0001e0 e0 8a 52 bd 8c 16 c1 bc 44 31 cb 3d 1e 4f de bd
       -0.051401973 -0.023570322 0.09921506 -0.10854934
0001f0 15 f0 ee bd 7e 70 13 be a6 13 9d bd 14 c5 ec bd
       -0.11666886 -0.14398381 -0.07669763 -0.11561027

fc4.bias f4 [2]
000000 dd ab 42 ba e4 a7 83 3d
       -0.00074261223 0.06428507
