simpledemo/my_network.pth (torch, 70829 bytes, 8 tensors)

fc1.weight f4 [64, 4]
00000000: 28ac 1a3e 4070 8abd 0005 8ebd 54ec 263e
00000010: e4cf fdbe b5a2 753d bee1 05be 5892 d13e
00000020: 5080 463d 8be2 f73e 01ac e43e b051 65be
00000030: 68df a2be 2003 e1be 70ae 283e 47a4 a73e
00000040: 20e3 403e adaf 9abc 9b40 923e 5cae 393e
00000050: 106f 453d 820a 2a3e 60ee 933c 4332 bf3e
00000060: 74b2 11be 67f1 963e 2cbf 063e 9b78 80be
00000070: 80ef 4a3d 4476 10bf 0819 6f3e c574 00bd
00000080: b097 d33d 8c78 833e 4156 88be 7748 bf3e
00000090: 1cb3 3e3e d1a0 06bf d7d8 4e3d 1ca3 8e3d
000000a0: 6894 d2be 5d3e 2fbd ad35 353e 64f1 be3e
000000b0: 2081 04be d3a9 c93e c425 f53e fa0e a13d
000000c0: 54a8 6bbe 7a44 4e3e 4a8c 55be 0e34 cebe
000000d0: a882 b33d 2698 e43e 8bab ff3e 3e26 0cbd
000000e0: 1029 403e 3ec4 dabe cf6f ad3e 8294 8abe
000000f0: 7223 93be 756e 32be c83d 8bbe 69ed b8be
00000100: e2b1 c83e 69f7 ecbe f6fd c43e 67ea c8be
00000110: 6019 0fbe 55b0 893d 2d5d 46be be35 41bc
00000120: 00d0 41bd 51c3 b23e 1970 713d c85e dfbe
00000130: 84b4 dc3e e4ef a6bd d76b f23e 7bc8 023e
00000140: 3cf2 e13e d630 db3d 02f5 fa3e c57c 3cbe
00000150: 2859 bcbd 2d32 123f ea4b 8f3e a22f 90be
00000160: e888 86bd 90b8 023f 090e 80be ada2 3c3e
00000170: 4013 31bd f852 d3bd e8c3 26be c0ed 33bd
00000180: f066 cb3e 381a a3be 5f7f ebba a54c 09be
00000190: 9ceb 9a3e e608 aabd a976 fa3e 6244 a5be
000001a0: 8078 0c3c 7e92 3c3e a95f 9b3e c65c 4cbe
000001b0: 5c17 513e 4389 53bc 02c3 b4be aa30 e13e
000001c0: 408a 12bc e239 a63e a90f cdbe 6733 d43c
000001d0: e0a3 c33d f69e 1fbe 4ebd a93e eba3 0abe
000001e0: ae86 bfbe a2eb 373e 5e97 e93b 5bf7 593d
000001f0: 3a68 cabe 0ec1 093f 39d8 f8bd 505c a93e
00000200: dc4b e83e cffa acbd d91b 8abe 7755 cf3d
00000210: ac4a cabe e24b c63e a1b1 aa3c c840 b2be
00000220: 3cc3 dabe 6c32 d2bd ce78 bd3e 3a19 9ebe
00000230: 4a9d 9c3e 0029 56bd a097 ec3c 66ea ebbe
00000240: b0fb e13e dc73 b33e 76e4 c73e 6f40 e03e
00000250: d0ba 05bd 0173 dbbe 698e fb3d f14e 3abe
00000260: 20c6 e83e f1b3 45be aaf8 043f 3042 fc3e
00000270: a06b 98bd d3e1 4a3e e6b7 573e a2c5 c4bd
00000280: 62c2 d9be 0f74 bc3e 684c a9be b330 bc3e
00000290: eaa0 ffbe 3990 5f3d 6aa9 dabd ba53 bdbe
000002a0: 40fc b1be 2ed3 a8be d8f5 f4bd 58c6 27be
000002b0: 1004 8b3d 5e78 f43e 8941 90bd ff59 bc3e
000002c0: 70a3 07bd fcfd bcbe 80c9 b8bb 241e 36be
000002d0: 10d0 843e 2a48 823e 921b 9c3e 6486 a0be
000002e0: 80bd ef3d e6f6 7b3e 9e64 753e fb64 d4be
000002f0: 5437 8abe 78ba a0bd 398f 563e 4a3a eb3e
00000300: 1452 013e db76 323d 8ede 423e a79e 99be
00000310: a80f d83d 7113 ccbd c8c7 753e 4c45 8e3d
00000320: 30d8 debd 8494 bf3e b757 953e c4a7 3d3e
00000330: 0058 acb9 862c 0dbd 7a6b a73e 5570 df3e
00000340: 6833 103e 1772 853e 80b8 7abe 9dd4 cbbd
00000350: 9c6f dc3e 90ce 053f 5512 bc3e 2c27 c0bd
00000360: 2c90 a43e 6f0b 42bd 2dee d13d fccf 7cbd
00000370: dc26 bd3e 3994 2c3e 69a7 303d fbb3 cbbc
00000380: d66f bc3e 4c11 b9be 0ecf cd3e 44bd 613e
00000390: fc1d d6be d669 48be baa8 e53e 8ad3 bdbe
000003a0: 74d5 b2be 87f8 26be 0908 603e d007 a13d
000003b0: c049 a6bc 4c9c 233d c276 d83e 8d75 763e
000003c0: 007f e7bd 3e98 8fbe 568b de3d 0543 97be
000003d0: 78ca c9bd d6b2 a93e 54de 4c3d fb93 5bbe
000003e0: 1e33 ec3e c563 85bd 143a 3f3d d4cf d63d
000003f0: 2021 1dbd f82e b2be 16f0 dcbe 90ce b7be
0.15104735 -0.06759691 -0.069345474 0.1630109 -0.4957267 0.059969623 -0.13074395 0.40931964
0.048462212 0.48415026 0.4466248 -0.22394443 -0.3181107 -0.43947697 0.16472793 0.3274252
0.18836641 -0.018882597 0.28564915 0.18132919 0.04820162 0.16605571 0.018058002 0.37343034
-0.1422823 0.2948105 0.13158864 -0.25092015 0.04954481 -0.5643046 0.23349392 -0.03136136
0.103316665 0.25677907 -0.26628307 0.37359974 0.18623012 -0.52589136 0.050499763 0.069647044
-0.4112885 -0.042784084 0.17696257 0.3729354 -0.12939882 0.39387378 0.47880375 0.07864185
-0.23013431 0.20143309 -0.20854297 -0.4027409 0.08765155 0.4464733 0.49935564 -0.034216158
0.18765664 -0.42727846 0.33874366 -0.27066427 -0.2873798 -0.17424949 -0.27195573 -0.3611863
0.39198214 -0.4628251 0.38475007 -0.39241335 -0.13974524 0.06723086 -0.19371481 -0.011792598
-0.047317505 0.3491464 0.058944795 -0.43627 0.43106472 -0.08151224 0.473479 0.1277179
0.44130123 0.10702674 0.4901505 -0.18406971 -0.09196693 0.5710781 0.27987605 -0.2816134
-0.065690815 0.5106287 -0.25010708 0.18421431 -0.04323125 -0.103185594 -0.1628567 -0.043927908
0.39726973 -0.3185594 -0.0017967037 -0.13408144 0.3025788 -0.083024785 0.48918656 -0.32278734
0.008573651 0.18415257 0.3034642 -0.19957265 0.20419067 -0.012911144 -0.3530503 0.4398244
-0.008944094 0.32466036 -0.4005101 0.025903417 0.09552741 -0.15587983 0.3315224 -0.13539092
-0.3740744 0.1796098 0.00712864 0.053214412 -0.39532644 0.53810203 -0.12150616 0.3307824
0.45370376 -0.084462754 -0.2697437 0.10123723 -0.39510095 0.3872977 0.020836653 -0.3481505
-0.42727077 -0.102635235 0.3700623 -0.3087862 0.30588752 -0.052285194 0.028880894 -0.4607727
0.44137335 0.3504933 0.3904149 0.4379916 -0.03264886 -0.4286118 0.12283022 -0.18194176
0.45463657 -0.19306923 0.5194193 0.49269247 -0.07442403 0.19812708 0.21066245 -0.09608008
-0.42531115 0.36807296 -0.33066106 0.36755905 -0.49927455 0.0545809 -0.106768444 -0.3697794
-0.34762764 -0.32973617 -0.119609535 -0.16384256 0.06787884 0.47748083 -0.0704375 0.36787412
-0.03311485 -0.36912525 -0.005639255 -0.17784935 0.2593999 0.25445682 0.30489784 -0.31352532
0.11706066 0.24605903 0.23964164 -0.41483292 -0.26995337 -0.07848066 0.20953073 0.4594291
0.12628967 0.04357038 0.1903021 -0.30003855 0.10549861 -0.09964646 0.24001992 0.06946811
-0.10881078 0.37417996 0.29168484 0.18521029 -0.00032871962 -0.03446629 0.32699186 0.4364039
0.1408211 0.26063606 -0.24484444 -0.09952662 0.430539 0.52268314 0.36732736 -0.093824714
0.32141244 -0.047374185 0.102505066 -0.061721787 0.3694371 0.16853417 0.043128405 -0.024866095
0.36804074 -0.3614601 0.40197033 0.22044855 -0.4181975 -0.19571623 0.4485529 -0.37075454
-0.34928477 -0.16305743 0.21878065 0.07862818 -0.020298839 0.03994398 0.42278105 0.2406828
-0.1130352 -0.2804584 0.1086642 -0.2954332 -0.09853071 0.33144253 0.050016716 -0.21443169
0.4613275 -0.0651317 0.046686247 0.10488859 -0.03836167 -0.3480146 -0.4315192 -0.35899782

fc1.bias f4 [64]
00000000: 8232 c93e ad4f 923e 40ad 74be d4ca d53e
00000010: 145d 6abe 86e3 3e3b a9cd ed3c 1e8e e0be
00000020: 6a31 22be 68a3 91bd 142d a63e a3ac c1be
00000030: d9f4 023f 178d d5be 8639 94be 1173 a23e
00000040: 8fdc 5abe d0cf 353e 7ec1 b33c 28ee b7be
00000050: 6aa1 583e 6ddb 793d 2aa0 f63e 04e9 27be
00000060: 300d e63d 8cee 35be c7a5 d4be 7f77 a0be
00000070: 0a3f b23e 0132 96be a3e5 943e c45d 98be
00000080: 9acb bfbe 838f 0bbe d8ae 81be aa81 85be
00000090: d8bc b83e b6d6 993d 606f 583e fa16 953c
000000a0: 8562 b8bd 4b5e 9e3e 82d6 d3be 0c5d c23e
000000b0: 80f4 8bbe 45cd 9c3e 07dc 6abe 7428 e03e
000000c0: 074e ddbd 03e0 6b3c 2267 073f 419a dabe
000000d0: f5b2 5c3e 16bf cb3d 0932 da3e 1972 52bc
000000e0: 217f b7be 80d5 d83e 098b 9bbe d9ba 263d
000000f0: 01ba 8e3e 5151 ce3e d362 df3e 58d5 1cbe
0.39296347 0.28576413 -0.23894215 0.41756308 -0.22887069 0.0029127314 0.02902873 -0.43858427
-0.15839162 -0.071112454 0.32456267 -0.37827024 0.5115486 -0.41709206 -0.28950137 0.31728414
-0.21373199 0.17755055 0.02194285 -0.35923886 0.21155325 0.061000276 0.4816907 -0.16397482
0.11232984 -0.1776678 -0.41532728 -0.31341168 0.3481372 -0.29335025 0.2908145 -0.29759037
-0.37460023 -0.13628964 -0.25328708 -0.26075488 0.36081576 0.07511656 0.21136236 0.018199433
-0.09003166 0.30931315 -0.41374594 0.37961614 -0.27334976 0.30625358 -0.22935496 0.43780863
-0.10805898 0.01439667 0.52891743 -0.4269581 0.21552642 0.09948556 0.426163 -0.012844586
-0.3583918 0.42350388 -0.30379513 0.040705536 0.27876285 0.40296414 0.43630084 -0.15315759

fc2.weight f4 [128, 64]
00000000: 54fa 923d ca17 e93d 06ad 923c 8399 7dbd
00000010: 6905 c53d 89f5 233d 1c72 723d 0940 71bc
00000020: b1fd 31bd 9f74 dfbd 7c02 233d 8a3d 8a3d
00000030: a482 0c3e 8390 1d3d 1ae6 4c3c 5a26 2bbd
00000040: 2242 d5bc eda5 9abb 4e40 b43c fbe6 c93b
00000050: ac56 d2bd 712b 4cbd 0e31 263e d29d edbd
00000060: 898b ab3d 8b17 0bbc 818f 8fbc 5483 913d
00000070: f0bf e73d f334 e3bd 535f d13d adae 943b
00000080: b1a6 68bd 5195 213e 5916 11bd 9ed4 f2bd
00000090: 3117 033e 1710 77bd 915d 303d 1b6b e1bc
000000a0: d4db 8f3d 5348 81bc 2408 64bd c325 2b3d
000000b0: 1281 86bd 9021 a4bd 4846 943d 63f4 8a3d
000000c0: 36f5 d2bb c4c3 d1bd 1f92 133e ea6e 9cbc
000000d0: e814 2e3e 232f f13d d707 2f3c bcd9 283e
000000e0: c374 773d 53da 4e3d ecba bd3d 2ff1 843b
000000f0: 9309 8e3d 55c1 213e 806a b83d c22c a83d
00000100: f07d c9bd acc5 e03c c50d a13d 5517 553d
00000110: c6f0 943d 23fd 8f3d 4bcf 363c 670d d2bc
00000120: 1bff c6bd 8d80 03be 5ec5 73bd cf83 dd3c
00000130: 7cec 0c3e 216f cebd da0c b73c 6810 283e
00000140: ef8a 8bbc d882 3b3e 67a1 c93d efb6 653c
00000150: bf90 09bd a336 b53d 8719 a23d 3a58 923d
00000160: f8c0 233e d995 a3bd f0a7 12bc bede fcbc
00000170: 5587 55bd 0ce7 5bbc 2127 743d c523 e8bc
00000180: 9f96 bebc 85ac 413c b291 f4bd feb0 d1bd
00000190: c80b b7bd 69c3 873d 37e0 c63d e1cd 3abd
000001a0: 2b17 353d b2ed 2d3e 263c 9ebd 5648 b23d
000001b0: 985f 33bd 8577 f33c 97c9 083d f861 563d
000001c0: d90f f4bd 5a2f 3c3c 1b7e 493d 8d7b d5bd
000001d0: 065a b93c 6c4e b7bc dc23 d83d 1c18 69bb
000001e0: 85da 223d c5e8 f7bc 8fc0 263d 9bc4 8f3d
000001f0: 08fb 0b3e b2c3 4e3d 7933 36bd 66d4 c83d
00000200: 80c8 89bb 3230 c0bd 30a1 6e3d 7401 74bd
00000210: 9873 6a3d 701d 62bd 9c97 313d 009b 96ba
00000220: 10a7 08bc 48de b13d fe6b b1bd 0864 fbbc
00000230: 1889 e63d 4846 303d 00ff 243b 3842 e3bd
00000240: 34da 93bd c0b2 8ebd e4ab c53d 40b9 d3bc
00000250: 88cb 333d 70ac a43d dc4d a4bd 40c4 7c3d
00000260: 4cc2 4ebd 5053 543c f0a2 ff3d 40d6 39bc
00000270: d6cb 993d 02ba d2bd 30c3 1ebc 8a00 e93d
00000280: 9218 dd3d d007 2cbc f0aa 25bc 7479 c0bd
00000290: 84bf 6cbd 188d 443d 40be c1bd 98c1 7dbd
000002a0: 4c29 b1bd f4c8 f0bd 6ab2 a73d 6e9d d43d
000002b0: e01e cc3b 889e 083d 50e9 8c3c 80fc a4ba
000002c0: 8cb6 813d c8f8 86bc 30e4 acbc 224d e73d
000002d0: b6a3 bcbd 00a5 09bc 4034 52bc a095 51bd
000002e0: 20ad 533c e64c bfbd 0203 c53d 5440 67bd
000002f0: 28d9 1dbd a071 2abc e082 b9bb c822 42bd
00000300: 7019 ddbd 680c 71bd 5846 5e3d 947b 94bd
00000310: c047 b2bd 8863 6e3d ae99 f53d 2e5c fc3d
00000320: e85b 93bd 0098 67bb d657 f2bd 2066 47bc
00000330: e446 383d 6e8e fe3d 0a2f 873d f8cd c7bc
00000340: ca2b b5bd 08c3 e63c 9cbc 50bd a0c1 60bc
00000350: d247 c4bd b83c 593d de87 9a3d 1875 bdbd
00000360: 0887 3c3d 1cc7 ab3d ca8c c5bd b0be 763d
00000370: 9a7e ba3d 1c43 61bd c694 a93d 1897 573d
00000380: 26f4 c33d 3286 b43d 2664 c4bd 00de c3bd
00000390: cef1 fabd 9cce a03d dcd1 bebd d28a c13d
000003a0: a0e7 99bb 98a9 9abc 2cb6 533d 167a eebd
000003b0: d6cd a8bd 4084 ec3c 58c6 1abd 18c3 53bd
000003c0: 80ab 423b 24af 74bd 40ab 05bd 04e9 9d3d
000003d0: dc79 5dbd 1c39 c0bd 4494 4e3d 10e1 a5bc
000003e0: 8c5c 8c3d 02e6 edbd 002c c53b 10e8 12bc
000003f0: 68b0 da3d c8c4 a93d 34c6 e83d 92fa f03d
0.071766526 0.113814905 0.01790477 -0.06191398 0.096201725 0.040029082 0.059190854 -0.01472474
-0.04345483 -0.109109156 0.03979729 0.06750019 0.1372171 0.038467895 0.012506032 -0.04178462
-0.026032511 -0.004719487 0.02200332 0.006161568 -0.102704376 -0.049846116 0.1622965 -0.116023675
0.083762236 -0.0084895 -0.017524483 0.07105127 0.11315906 -0.11094084 0.1022326 0.0045374245
-0.056799594 0.15779616 -0.035421703 -0.1185696 0.12801816 -0.06031808 0.043057982 -0.027516892
0.07024351 -0.015781557 -0.055671826 0.04178406 -0.06567587 -0.08014214 0.072399676 0.06784894
-0.006437923 -0.102424175 0.1441121 -0.019095857 0.17000163 0.11776569 0.0106830215 0.16489309
0.060414087 0.05050118 0.09264168 0.0040570716 0.0693542 0.15796407 0.09004688 0.08211662
-0.09838474 0.027438007 0.078639545 0.052024204 0.072724864 0.07030704 0.011157821 -0.025641156
-0.09716626 -0.12842007 -0.059514396 0.02704039 0.13762087 -0.1007979 0.022344995 0.16412508
-0.017034022 0.18311632 0.09845238 0.014020666 -0.033585306 0.08848312 0.07915025 0.07145734
0.1599158 -0.079875655 -0.008951172 -0.03086793 -0.052131016 -0.013421785 0.05960763 -0.028337369
-0.023265181 0.011820917 -0.11941852 -0.10238837 -0.08937794 0.066290684 0.09710734 -0.045606498
0.044211548 0.16985205 -0.07726316 0.08705203 -0.043792337 0.029720077 0.033395376 0.052339524
-0.11917085 0.011485899 0.04919253 -0.10423956 0.022625934 -0.022376262 0.10553715 -0.0035567349
0.039759178 -0.03026236 0.040710982 0.070199214 0.1366998 0.0504796 -0.044482682 0.09806137
-0.0042048097 -0.093841925 0.05825919 -0.0595717 0.057239145 -0.055203855 0.043357477 -0.0011490285
-0.008340612 0.08684975 -0.08663176 -0.030687347 0.11256617 0.043035775 0.0025176406 -0.110966146
-0.07219353 -0.069676876 0.09651926 -0.02584517 0.043895274 0.08040702 -0.08022663 0.061710596
-0.050478265 0.012959316 0.1248225 -0.011342585 0.07509582 -0.102893844 -0.009690091 0.11377056
0.10795702 -0.0104999095 -0.010111555 -0.09398165 -0.05779983 0.04798612 -0.094601154 -0.061952204
-0.08650455 -0.11757079 0.08188327 0.1038159 0.0062292665 0.033354312 0.017201096 -0.0012587458
0.06333646 -0.01647605 -0.021104902 0.11294009 -0.09210913 -0.0084011555 -0.01282984 -0.051168084
0.012919694 -0.09340839 0.09619714 -0.056457832 -0.038537174 -0.010403067 -0.0056613535 -0.04739645
-0.107958674 -0.058849722 0.054266304 -0.07250133 -0.087050915 0.05820039 0.11992203 0.123222694
-0.07195264 -0.0035338402 -0.118331596 -0.012170345 0.04498948 0.1242951 0.06600769 -0.024390206
-0.08846243 0.02816917 -0.050961122 -0.013718039 -0.09584011 0.05303642 0.07545446 -0.092508495
0.046027213 0.083875865 -0.09645994 0.060240448 0.091061786 -0.05499564 0.082803294 0.05263433
0.09568052 0.08814658 -0.09589414 -0.095638275 -0.12253152 0.078519076 -0.09317371 0.09450306
-0.0046968013 -0.018879697 0.051687405 -0.1164438 -0.08242385 0.028871655 -0.03778681 -0.051699728
0.0029704273 -0.05973734 -0.03263402 0.0771046 -0.054071292 -0.09385893 0.050434366 -0.02024892
0.068535894 -0.11616136 0.006017208 -0.008966461 0.10678178 0.08289486 0.11365929 0.117665425

fc2.bias f4 [128]
00000000: c17f df3d b569 0d3e 342b eabd d0b6 dabd
00000010: dc87 1a3e c98c 8c3d 2114 bebd 5210 bd3d
00000020: d2ac f7bd e34f ed3c ccb9 143d e8a2 a83d
00000030: 31f8 b73d 786c 11bd 7cc0 163e cf0d 8b3d
00000040: 6424 a8bd cd60 cb3d eaac f33d f0a5 c5bc
00000050: 4012 6dbc 2ebb 9c3d c018 d1bb 8dde 303c
00000060: 3372 61bd 792a e83d 6d2c 003e b4e4 c03d
00000070: e8b2 e73c 37f8 0b3e 77e7 edbc c747 bd3d
00000080: c907 d73d c638 8a3d 6cd5 803c d4e2 00bd
00000090: 432d 93bd c6ec d33d f2f6 82bd 4c1e 26bd
000000a0: 861a 8a3d 2960 043e 565a cfbd cd10 fe3d
000000b0: 1e24 d3bd 964b dc3d b6b3 cc3d 95ce c2bb
000000c0: 7af0 f83c 58f0 483d c573 a83d 2168 f63c
000000d0: c25c c03d e100 67bc ef4b 68bd 019a 80bc
000000e0: 868f fe3c 2c24 fe3d ca3a 213e 974b 8c3b
000000f0: 6bb2 a43d f9e0 2b3d 5dec d6bd 0acd 953d
00000100: 0577 ef3d dbaf 523d b408 9bbd 6cfa 463d
00000110: 76ae 003d 443b 07be ec3f 193e 2a8e 9bbd
00000120: 0e8a 94bd 31f8 f0bd a3b9 373d 38d1 eebd
00000130: 53ac 07be 4014 fc3b 3315 fb3c 9150 d63d
00000140: 29d6 653d 4364 f2bc 2420 74bd 66f4 76bd
00000150: bc85 abbc 70a0 55b9 0189 093c a0d6 59bc
00000160: a8df 033e fb78 b4bc c262 623d 49f1 35bd
00000170: dbd0 c83d f92c aebb 5864 c9bc 0f6d afbd
00000180: f540 74bd 5464 fcbd 796e 113e c2c6 b93d
00000190: 86be d23d 3015 06bd 7730 8e3d 5746 cebd
000001a0: ded3 943d d599 2d3e 5e39 c6bd 2148 f2bd
000001b0: 12f8 363d 0814 2cbc e0db fe3c 7da1 b4bb
000001c0: 0a82 cbbd f613 023e a84f babd 5081 7dbd
000001d0: bb39 4c3d c8ba bc3d 2910 f5bd 3118 bebc
000001e0: 34b1 9a3d 8186 bc3d 40a5 07bd e63d 70bd
000001f0: 779a 183e 4470 9b3d d921 473d 2d5b 48bd
0.10913039 0.13809855 -0.114340216 -0.106794 0.15090889 0.0686279 -0.09281183 0.092316285
-0.1209351 0.028968757 0.036310002 0.08234197 0.08982886 -0.035503834 0.14721864 0.06789743
-0.08210066 0.09930573 0.11898215 -0.024126977 -0.014469683 0.07652889 -0.0063811243 0.010795248
-0.05504055 0.11336226 0.12516947 0.09418622 0.028283551 0.13668905 -0.029041035 0.09242206
0.10499532 0.0674911 0.015726767 -0.03146632 -0.07186367 0.10347895 -0.06394757 -0.040556237
0.0674334 0.12927307 -0.10124652 0.12405548 -0.10309623 0.107566044 0.09995215 -0.0059450367
0.030388106 0.049057335 0.08225206 0.03007895 0.09392692 -0.014099331 -0.05671304 -0.015698435
0.031074297 0.12409243 0.15745082 0.004281472 0.08041843 0.041962598 -0.104943015 0.07314499
0.11692623 0.05143724 -0.07570019 0.048578665 0.03141638 -0.13206202 0.1496579 -0.07595475
-0.07252894 -0.11766089 0.04485477 -0.11660999 -0.1324933 0.0076928437 0.030649757 0.104645856
0.056112442 -0.029588824 -0.059600964 -0.06029167 -0.020937793 -0.0002037303 0.008394481 -0.0132957995
0.12878287 -0.022030344 0.055269964 -0.04441956 0.09805461 -0.0053154198 -0.02458398 -0.08565723
-0.05963226 -0.123238236 0.14202298 0.09071113 0.10290246 -0.03273505 0.06942838 -0.1007201
0.07266973 0.16953214 -0.09678911 -0.11830164 0.044670172 -0.010502823 0.031110704 -0.005512415
-0.09936912 0.12702927 -0.090972245 -0.0618909 0.049859744 0.09215313 -0.11965973 -0.023204895
0.0755333 0.09205342 -0.03311658 -0.05865278 0.14902674 0.07589772 0.048616264 -0.048915077

fc3.weight f4 [64, 128]
00000000: 5d0a 093d e340 1e3d ca1c 633d 686f 233c
00000010: a04d 583d 5e39 90bd 3d41 96bc 9e3d 503d
00000020: 09d5 843d aa7a c3bd a3a6 9c3d 5279 733c
00000030: 7374 343d d188 6cbd 55f6 d83d dcd7 073d
00000040: cf96 a53d ae73 053c 7a66 f4bc e755 923d
00000050: 6ab2 c33a 31a4 0a3d 3bd1 5e3d bdb3 cd3d
00000060: e2ff 3e3c 285a 073e e8fa dfbc 751b b93d
00000070: 2db0 c03c 0b94 ef3d aedd 93bd 4619 c33c
00000080: 7a39 173d 9d6a cc3d a34f 0abc 29a9 973d
00000090: 107b a93d 695c 98bd f4c9 873c c3f9 933d
000000a0: 3dd2 873d 76ed e33d 778c 4fbd 9caf 9d3d
000000b0: b7e0 e53b 426e c93d 1fb4 47bd 3401 f83b
000000c0: b2c9 e83c 50ae a2bb 793c b93d 3147 07bc
000000d0: 9a39 463d d787 05bd 58fa 3dbd 9280 dfbc
000000e0: fa84 bd3d 0914 71bb 3eaa 9ebb 6cb1 94bd
000000f0: 45d9 c1bd f489 e63c 3a63 78bd aa72 c23d
00000100: f4e3 763d 848c af3c eec1 213d 00cb 7c3b
00000110: 48ef 4b3d db67 953d 19c0 953c 2894 f53c
00000120: 6602 513d 49dc 643d 78ea 37bc a5d8 e03c
00000130: e8e1 9abc 2893 96bd 2782 973d 4281 0cbd
00000140: d6f4 823d 0e50 853d 5b53 a73d 47c0 2f3d
00000150: cec9 aa3c 66d7 3abd f83e 703d 67d8 47bd
00000160: f6df 2f3d 809c be3d 5128 c03d f85b a53d
00000170: 1930 71bd a82d a93d 08ce 823d 7b30 c1bc
00000180: 79ad 9a3d 89d1 8dbd 7afe 4a3d 7b87 993d
00000190: e43b 113d bfbe 193d 8d4f b63d 5274 313d
000001a0: 5774 f23c d8d4 8b3d 5f5a bcbd be69 9bbd
000001b0: 63e1 ecbc 9fce 5abc 946c c73c 4cf6 f83b
000001c0: ff1f 62bd 4ec2 d53d 92a1 10bd 1699 8abd
000001d0: 6bcb c03d 3742 b93d 9f37 4ebd 96a3 57bd
000001e0: 5646 b03d fc71 bbbc c8fb c13c 13df 8dbd
000001f0: 2130 4ebd d9fd 823d a9a3 ae3d ecfe 36bc
00000200: 09a3 9f3b b610 ab3c 7d6b 8d3d eed7 1b3d
00000210: 2e4c 0c3d 85ff a1bc a9ff 63bc b16d 753d
00000220: a71c 9f3d 0daf d63c 8598 593d f625 82bd
00000230: 58dd 2fbd c5c3 6dbd 55db 12bd 94c2 91bd
00000240: c745 1b3c 9653 20bb 7acc 94bd 34eb c2bc
00000250: 7406 103d 037b bcbc d29f aabc 31cc 883d
00000260: d848 603c 1cec 233d 071a d43c bb5e 98bd
00000270: 45d5 203d b92a 853d 726e 3ebd 24af 8e3d
00000280: 85ad 123d 59bb a7bd 4d51 8c3c dfae 1dbd
00000290: 2f94 24bc dd1f 643a b23f 8fbd bff4 9d3d
000002a0: 4640 0ebd 4f49 63bc 124a 913d eaa3 73bc
000002b0: c9a6 023d 3d80 51bd 7e61 433d ac61 86bd
000002c0: aa1a 263d 60e2 323b 0483 a7bc 4aed 32bb
000002d0: 2c9a eb3c 1cad e53b 6db7 9ebd 42c8 a1bd
000002e0: 501b dabc 8e46 7ebd d3b5 57bd 3b27 7e3d
000002f0: c8db 89bd f0de 99bd 21db c4bd b3a8 f93c
00000300: 6d77 4d3d d85a 3a3c 31c8 2e3d c29a 5dbd
00000310: 7a3b 42bc 5ea6 c9bc 3303 78bd 77b3 b6bc
00000320: 58d1 0b3d f97d 5ebc b3d5 a7bd cc17 30bd
00000330: 024f 973d 65ec 993d b4e2 8a3d e560 6ebd
00000340: e1b6 963d 6323 efbc 6006 bfbc 1c63 053c
00000350: 23ab 523b 3e71 0fbc 2382 683d a76d 8b3d
00000360: a44e bebd ae1c 3fbd 35b3 223c 3b11 75bc
00000370: 991e db3c b854 7439 d905 b7bd 8d73 7d3d
00000380: 17c5 88bc 3025 e2bc 0f2b cdbd 933b 0a3d
00000390: f805 0cbd b103 c9bd 4de6 483d a836 5b3d
000003a0: 5471 7dbd 7d28 ed3b ab94 87bd 0ddd 87bd
000003b0: 590e a0bd 0313 23bd b8d9 7fbc bff6 4bbd
000003c0: 3111 9abd e4e9 933d 9862 2a3c b02e 40bc
000003d0: a4ee 6d3d 509c b6bd 244a a73c 3573 023d
000003e0: 6553 e53c 384f 90bd d785 8f3d 0350 5abd
000003f0: 050d a0bd 4d33 f0ba d68a 7ebd 9bd6 96bc
0.03345715 0.0386361 0.055447377 0.009975292 0.052808404 -0.07042192 -0.018341655 0.050840013
0.06485946 -0.09544881 0.07648971 0.014860468 0.044056367 -0.057747666 0.10593859 0.033164844
0.08085405 0.008145256 -0.02983402 0.07145291 0.0014930491 0.03384799 0.054398756 0.10044048
0.011657687 0.13217986 -0.027341321 0.0903844 0.023521507 0.11698159 -0.072200164 0.023815762
0.03692005 0.09981272 -0.008441838 0.074053116 0.082754254 -0.07439501 0.016575791 0.07225373
0.06631897 0.111292765 -0.050671067 0.076995105 0.0070153135 0.09835483 -0.04875576 0.007568503
0.028416488 -0.0049646273 0.09044737 -0.008256719 0.048394777 -0.03260025 -0.046381325 -0.027282987
0.09253879 -0.0036785624 -0.004842072 -0.07260403 -0.09465269 0.028141953 -0.060641505 0.09494527
0.060275987 0.021429308 0.039491586 0.0038573146 0.049788743 0.072951995 0.018280076 0.029977873
0.051027678 0.055874143 -0.011225335 0.027447054 -0.018906549 -0.073522866 0.073978715 -0.034302957
0.06394355 0.0650941 0.08170196 0.04290798 0.020848181 -0.045615576 0.0586538 -0.04879036
0.042938195 0.09307194 0.0938269 0.08074182 -0.05888376 0.08260661 0.063869536 -0.023582688
0.075526185 -0.06924731 0.049559094 0.07496544 0.035457507 0.037535425 0.08901892 0.043323822
0.02959649 0.06827706 -0.091969244 -0.07588528 -0.028916067 -0.013354926 0.024343766 0.0075977203
-0.055206295 0.10437451 -0.035310335 -0.0676748 0.09413799 0.090458326 -0.050346013 -0.052646242
0.086071655 -0.0228815 0.023679629 -0.06927314 -0.050338868 0.06396074 0.085273094 -0.011169177
0.00487173 0.020881992 0.069052674 0.038047723 0.034252338 -0.019775162 -0.013915935 0.059919063
0.07769137 0.026206518 0.05312397 -0.06354897 -0.0429357 -0.05804803 -0.035853703 -0.07117191
0.009477085 -0.0024463884 -0.07265563 -0.023793794 0.035162404 -0.023007875 -0.020828161 0.066795714
0.013689242 0.040020093 0.025891317 -0.074399434 0.03926589 0.06502289 -0.046492048 0.06966999
0.035810012 -0.081900306 0.017128611 -0.03849685 -0.010045095 0.0008702258 -0.06994571 0.07712697
-0.034729265 -0.013872459 0.07094206 -0.014870623 0.03189734 -0.05114769 0.047700398 -0.06561598
0.040552773 0.0027295575 -0.020448215 -0.002730208 0.028760038 0.0070091616 -0.077498294 -0.07899524
-0.026624352 -0.062079005 -0.052663635 0.06204913 -0.06731373 -0.07513225 -0.09612108 0.03047595
0.05016272 0.011374198 0.042671386 -0.054102667 -0.011855001 -0.024615463 -0.060549926 -0.022302372
0.034135193 -0.013579839 -0.08195057 -0.042991444 0.073881164 0.07515792 0.067815214 -0.058197875
0.073591 -0.029191678 -0.02331847 0.008141305 0.0032145462 -0.008755026 0.056764733 0.06808024
-0.09292343 -0.04665821 0.009930422 -0.014957721 0.026747989 0.00023301214 -0.08936662 0.061877776
-0.016695542 -0.027605623 -0.100179784 0.03374822 -0.03418538 -0.09815157 0.049047757 0.05351892
-0.061875656 0.0072374926 -0.06620153 -0.06633959 -0.078152366 -0.039813053 -0.015615873 -0.049795862
-0.0752281 0.072223455 0.010399483 -0.011729881 0.058088914 -0.08916533 0.020421095 0.03184815
0.027993867 -0.0704636 0.0700795 -0.05329896 -0.07814983 -0.0018325836 -0.062144123 -0.018412879

fc3.bias f4 [64]
00000000: aac5 61bd 55da 833d de52 af3c 7667 ce3c
00000010: 9ab6 d63d 6b8a 9e3c 5c9d 903d 24b4 4ebd
00000020: 233a e6bc 4b86 fd3c eb2e e23c c732 15bd
00000030: 338f 8fbd ab36 573d 6a2c 263d 4c03 0c3d
00000040: 8026 b4bd 9dc6 4bbd 2024 57bd 951d bebd
00000050: 7b67 683c ea31 03bd 5551 5dbd 3129 35bd
00000060: 8e19 58bd 5516 8c3c 6c7b 24bb 62cc aabc
00000070: cfdc 3c3d 0646 8f3d a658 cd3d 1ffc 553d
00000080: b158 073d 810d 3d3d e944 a43c 6db6 18bd
00000090: 202b 493d 5c46 4a3d 9f51 2b3d 41b5 8abd
000000a0: 0408 ee3a cf66 95bd bafd 5bbd 3adb d4bc
000000b0: e23c 9cbd 7d53 a6bd 6edf 043d 12f5 913c
000000c0: bd76 723d 08ba 493d 38de 2f3d 764c 6f3d
000000d0: cedd dd3c fc76 e0bc 8840 123d 9363 9bbd
000000e0: 6719 023c e4f1 e83d ec80 3a3d ec40 6a3d
000000f0: d679 653d a9c6 eabc c51d 6e3d 6ef7 313d
-0.055120148 0.06438128 0.021401819 0.025195818 0.10484047 0.019353112 0.07061264 -0.050464764
-0.028103894 0.030947825 0.027610263 -0.03642538 -0.07009735 0.05254237 0.0405697 0.03418283
-0.08796406 -0.04974996 -0.052524686 -0.09282986 0.014184828 -0.032030024 -0.054032642 -0.044228736
-0.052758746 0.017100492 -0.002509798 -0.02084941 0.046109017 0.06995778 0.10026674 0.052242395
0.033043567 0.046155456 0.02005239 -0.03728335 0.049113393 0.049383506 0.041825887 -0.06772853
0.0018160348 -0.07295 -0.05370877 -0.025983442 -0.076288 -0.08121393 0.03243964 0.017817054
0.05919527 0.04924968 0.042936534 0.05842253 0.027083304 -0.027400486 0.035706073 -0.07587352
0.007940627 0.11374262 0.045533106 0.05719082 0.056024395 -0.028659182 0.05813386 0.043448858

fc4.weight f4 [2, 64]
00000000: be8e 3c3d 9282 713c 7e7a e6bd 4797 a2ba
00000010: 730d 293d 1046 fe3a ff58 ac3d abce 473c
00000020: d10e 9ebd bb88 76bd 509a c0bc 9657 8abd
00000030: a08c 63bc 326b 6e3c 7029 353c 589b 15bc
00000040: ed4f b73c 6260 e0bd f692 b9bd 07e6 d83d
00000050: 264a 9bbd eccc f0ba 4284 9abd fb0c de3d
00000060: 26ad 5abd 09de 97bd bd2b 723d fe67 a4bd
00000070: 80cf 573d c080 b3bd 648a d13b 247b b7bc
00000080: 83e0 023e 0794 023e 9fc8 aebc 7b0e e23d
00000090: 65db ef3d 9745 043e 9ba0 e93d 7d91 86bc
000000a0: 09d3 a7bd 0eb6 eebd cf82 c9bd bf19 d3bc
000000b0: 842c afbd 7c9f 943d fe30 e63d 67ad 33bd
000000c0: b619 e1bd 778d d53d 23a5 9d3c d864 4c3c
000000d0: 5f33 5abc 1fbd 723d 0aef 873d 8a5a 543c
000000e0: d39d 603d 2fbe 1cbe 570e e8bd a949 883d
000000f0: e123 f03c 2116 9c3d 55ec c7bd b02e f13d
00000100: 676f dbbd e13a 043d 9ac8 cebd d0f5 12be
00000110: 3b74 1ebe b7bd 70bd 0871 b23c 7202 a03d
00000120: c59d f93c a51d 95bd 8d8a 9abd 7b84 8d3c
00000130: e455 643d 88ff 8a3d e90b 96bd 07d9 e13c
00000140: 9d54 ce3c 688b 1ebd 32cf ed3d c951 6e3d
00000150: 0e42 cfbd 0d77 d83d 175e 91bd b988 6a3d
00000160: 6d0e 52bd 133d 03be ff7a 59bd 79b5 833d
00000170: 87d9 863d 6167 07be 1f19 05be b99f 1abe
00000180: 5499 bcbd 1fbf 953d 2945 563c aa68 953d
00000190: 806a 943c 050f 0dbe 4658 25be 3b83 ec3d
000001a0: b878 d83d 80db 1dbd cbce 2b3d 6872 79bd
000001b0: da07 cfbd 3c35 c9bd bc39 c63d cd41 583d
000001c0: 2487 60bc 6b72 f1bc c744 f3bd f80d 1abe
000001d0: 7311 20be 1375 cfbd 87b3 fdbd 713d 083c
000001e0: 6d42 cf3d 3d04 b4bd 8005 3a3d 3224 9a3d
000001f0: b85a 10be 559d f2bd c00f 32be 1bbc d8bc
0.046034567 0.014740603 -0.11253832 -0.0012404703 0.04127259 0.0019399542 0.08415412 0.01219527
-0.0771767 -0.06018899 -0.023511082 -0.06754987 -0.013888508 0.014551925 0.011057243 -0.009131275
0.022376979 -0.109558836 -0.09061234 0.10590749 -0.07582502 -0.0018371618 -0.075447574 0.108423196
-0.053387783 -0.07415397 0.059123743 -0.080276474 0.05268812 -0.087647915 0.0063946713 -0.022397585
0.12780957 0.1275178 -0.021335898 0.11037918 0.11711768 0.12917171 0.11407586 -0.016426796
-0.08194549 -0.11655818 -0.09839403 -0.025769113 -0.085534126 0.07256982 0.11239813 -0.04386654
-0.10991232 0.10427373 0.019243782 0.012475215 -0.013317912 0.05926239 0.0663739 0.012961039
0.054838013 -0.15306924 -0.1133086 0.066546746 0.029313983 0.07621408 -0.09761874 0.11776483
-0.10714608 0.032282714 -0.100968555 -0.14351583 -0.15474026 -0.058774676 0.021782413 0.078129664
0.030470738 -0.07281045 -0.07545958 0.017275086 0.055745974 0.0678702 -0.073264904 0.027569307
0.025186831 -0.038707167 0.11611785 0.058183465 -0.10120021 0.10569582 -0.07098024 0.057259295
-0.05128329 -0.12816267 -0.053095814 0.064310975 0.06584459 -0.1322303 -0.12997864 -0.15099992
-0.092089325 0.07311844 0.0130780125 0.07295354 0.01811719 -0.13775261 -0.16146955 0.11548468
0.105699 -0.03853941 0.04194526 -0.060900122 -0.101089194 -0.09824607 0.09678981 0.052797128
-0.013704095 -0.029473504 -0.118783526 -0.15044391 -0.15631656 -0.10129752 -0.12387758 0.00831543
0.101200916 -0.08789871 0.0454154 0.07526435 -0.14097106 -0.11846415 -0.1738882 -0.026456883

fc4.bias f4 [2]
00000000: c67f cabc c8af 483c
-0.02471913 0.012248941
