simpledemo3/RealInvNetwork.pth (torch, 70357 bytes, 8 tensors)

fc1.weight f4 [64, 2]
000000 de 57 90 3e a8 57 fb bd f4 f7 35 be e6 85 0f be
       0.28192037 -0.122725785 -0.17770368 -0.14015922
000010 e5 cd 0d bf f7 9d 6d be f8 7c 4c 3e 7b 9d 0e bf
       -0.55392295 -0.2320479 0.19969547 -0.55709046
000020 b7 9c 02 bf 95 df 31 3f f0 4a 3d be 32 a7 2c bf
       -0.5102038 0.69481784 -0.18485618 -0.6744262
000030 0a 27 dd 3e 2e 11 61 be 42 ff d8 be 50 a8 18 3d
       0.43193847 -0.2197921 -0.42382246 0.03726989
000040 42 7b 9f 3e 03 63 34 3f 0b 7e 23 3f 1a 2d 28 bd
       0.31148726 0.7046358 0.638642 -0.041058637
000050 a0 63 2b 3d 60 29 b0 bc 80 7a af bb 01 0f f4 be
       0.041843057 -0.021504104 -0.0053551793 -0.47667697
000060 8c a8 21 bf ba e6 31 3f 54 6d 00 be ae 8e 75 be
       -0.6314781 0.69492686 -0.12541705 -0.23980209
000070 f6 36 16 bf 80 2f 0e bc 4a a1 9a 3e 8d 48 2d 3f
       -0.58677614 -0.008678317 0.3020118 0.6768883
000080 c0 5c dd be 09 84 1d bd 56 ae b4 3e 99 3a 32 3f
       -0.43234825 -0.038455997 0.35289258 0.6962066
000090 b4 62 85 3e 86 9d d8 be 81 dc 1c bf 2f 77 01 3f
       0.26051867 -0.4230768 -0.6127396 0.50572485
0000a0 00 4d 3e 3d 8a 8e 17 3f f2 8c da 3e 8c 58 0e 3e
       0.04646015 0.5920187 0.42685658 0.13900965
0000b0 74 08 23 3e 26 1c b9 3e bf 5d 2e 3f da 76 0f bf
       0.15921193 0.36154288 0.68111795 -0.5604073
0000c0 ad 74 95 be e2 57 2a 3f ec d1 f6 be 41 df c8 3e
       -0.2919058 0.6654035 -0.48207033 0.3923283
0000d0 b3 e4 00 3f c0 c2 b5 3e f9 db a9 be bb d7 a0 bd
       0.5034897 0.35500145 -0.33175638 -0.07853647
0000e0 52 d6 df be f6 b7 1d 3e f9 77 01 bf e8 c0 08 3f
       -0.437182 0.15402207 -0.5057369 0.5341935
0000f0 c6 30 ae 3e 9f ba 22 3f b6 a5 98 3e a2 00 24 bf
       0.34021586 0.6356601 0.29813927 -0.64063466
000100 d6 c7 c9 3e 66 0d cf be 40 71 4f bc 62 14 0e bf
       0.39410275 -0.4043991 -0.012661278 -0.5549985
000110 ec a6 41 be 8c 07 8f be 51 f2 31 bf 8f d5 cd 3e
       -0.18911332 -0.27935445 -0.6951037 0.40201995
000120 60 8e 7c bd ac c3 78 be db 63 00 3f 0f 50 e1 3e
       -0.061659217 -0.24293393 0.5015237 0.44006392
000130 81 6f 28 3f 44 05 90 be f8 4d 01 3e fe 00 ed 3e
       0.6579514 -0.28129017 0.12627399 0.4628982
000140 a2 e3 a1 3e 15 d2 3b bc 48 07 86 3d c6 7f 30 3f
       0.31618983 -0.011463662 0.065443575 0.68944967
000150 e5 59 1d bf 7a e3 1a bf 2f d4 d5 be 02 4b bc 3d
       -0.61465293 -0.6050335 -0.41763446 0.09193994
000160 90 e0 d3 bd 92 8e cd 3e eb a8 2d 3f f5 21 4b 3e
       -0.10345566 0.40147835 0.67835873 0.19837172
000170 1b 26 2c 3f e2 c1 6e be 38 03 65 be fa 32 6b 3e
       0.67245644 -0.23316148 -0.22364509 0.22968665
000180 00 43 78 bd 2b 95 1c 3f c0 21 7d bd 79 81 88 be
       -0.06061077 0.6116511 -0.061799765 -0.2666128
000190 80 34 d0 bd c1 7e da 3d d7 26 2d 3f c2 9d a3 3e
       -0.101662636 0.10668708 0.6763739 0.31956297
0001a0 ee 20 ec 3e 25 29 1d be 9a 52 a2 3e 2f 9d a8 3e
       0.46118873 -0.15347727 0.31703645 0.32932422
0001b0 cd b8 0f 3f a8 b3 30 be 3c df 1f be 54 c3 92 3e
       0.5614136 -0.17256033 -0.15612501 0.2866465
0001c0 2c 17 07 bf fd b7 38 bf 30 76 ed bd 6d a0 6d 3e
       -0.5276973 -0.72155744 -0.11594808 0.23205729
0001d0 7a f7 b8 3e b7 a0 29 3f a9 1f d3 be 69 a9 19 3d
       0.3612631 0.66260856 -0.41235092 0.037515078
0001e0 5c ef 77 3e e6 0b b0 3e 00 08 8d 39 b8 0e 83 bd
       0.24212402 0.34384078 0.00026899576 -0.06399292
0001f0 90 ad 11 3e 03 c2 3f 3f dd 61 a3 be fc 85 21 be
       0.14226365 0.74905413 -0.319106 -0.15773767

fc1.bias f4 [64]
000000 30 d3 28 bd ce 63 48 3e 23 07 00 3e f2 f5 9c 3e
       -0.04121703 0.19569322 0.12502722 0.3065639
000010 a2 73 96 bd 4e 7b f8 be 5b 8b f2 be 3e 9c 05 bf
       -0.07346274 -0.48531574 -0.47371945 -0.5219153
000020 e2 5d 67 be 70 c4 f1 3e 68 cc 7f be 01 dd e5 be
       -0.22594407 0.47220182 -0.24980319 -0.44895175
000030 55 0c a8 3e de cc 8c 3e 50 6e f8 be b0 65 ba be
       0.3282191 0.2750005 -0.48521662 -0.36405706
000040 ab a3 cd 3d 96 2f 0c bf 93 d1 0f bf d4 af 07 bf
       0.10040983 -0.5476011 -0.5617916 -0.5300267
000050 ac a2 78 3e fa dd 27 bf ba 7e ec be 56 b2 80 be
       0.24280804 -0.65573084 -0.46190435 -0.2513606
000060 3a 2c b7 be f6 09 53 bd 6e 3d 1d 3c 4d c9 06 3f
       -0.3577593 -0.05152317 0.0095971655 0.5265091
000070 44 a7 ac bd 14 91 7b 3e bf 8c 65 3e ce 78 b6 3e
       -0.08430341 0.24567062 0.22416972 0.35639042
000080 9b 32 2d bf 77 2c be be 1f 82 1a bf 3d 18 3a 3e
       -0.6765534 -0.371433 -0.603548 0.18173309
000090 4f 04 06 3e 93 9a 02 3e 90 f6 84 bd 12 50 c7 3d
       0.13087581 0.12754278 -0.064923406 0.09732069
0000a0 6f 2b 0d 3f 91 6b 97 3e 83 2e ad 3e 77 96 2b 3f
       0.551444 0.29574254 0.33824548 0.67026466
0000b0 9a 62 30 bf 4d 29 f6 3e 05 88 00 3e 42 b3 af 3e
       -0.68900454 0.48078385 0.12551887 0.3431645
0000c0 1e c6 64 3e d1 4e 01 3f 0b 6c b4 3e cd 96 b9 be
       0.223412 0.5051089 0.3523868 -0.36247864
0000d0 f4 3f a9 3d 1a e0 25 3e 83 c8 bf be 01 3c 14 3f
       0.08264151 0.16198769 -0.37457666 0.5790406
0000e0 50 22 e1 3e aa 6d 9b 3d 73 09 27 3f 65 57 80 3e
       0.4397149 0.07589276 0.65248793 0.25066677
0000f0 ba 5f fc be 57 b8 06 3f f8 42 ce be 68 d9 cb be
       -0.49291784 0.5262503 -0.40285468 -0.39814305

fc2.weight f4 [128, 64]
000000 ee db df 3d 08 ad d9 bd 84 ba 04 bd da 89 8d bd
       0.1093062 -0.10628706 -0.032404438 -0.06911059
000010 c8 31 b7 bd 30 23 46 3d 00 3f b4 bb 48 ba da bd
       -0.08945042 0.0483734 -0.0055006742 -0.106800616
000020 22 ac b9 3d 40 b1 b1 bb 38 14 9d bc e0 c4 fd bc
       0.09066035 -0.005422741 -0.01917468 -0.030977666
000030 6c 59 b5 3d 50 1c 45 bc 3a c7 99 3d ae da a3 bd
       0.088549465 -0.012030676 0.075087026 -0.08000694
000040 60 f7 df bb ae a5 a7 3d e2 f3 ee 3d 78 71 d5 bc
       -0.0068349093 0.08185898 0.11667611 -0.026055083
000050 70 73 77 3c d8 8c 10 3d 7c 62 14 bd 74 b7 63 3d
       0.015103206 0.03529057 -0.036226735 0.055594876
000060 d4 1a 4f 3d b6 0d da bd 1c 51 af bd c8 14 eb bc
       0.050562695 -0.106471464 -0.08560392 -0.028696433
000070 88 ab eb 3c 20 b3 54 3c 3a 47 c0 bd 46 77 f8 bd
       0.028768316 0.01298216 -0.093885854 -0.121321246
000080 00 a4 58 b9 58 4a 86 3d c4 88 d0 bd 60 80 f0 bc
       -0.0002066046 0.06557149 -0.10182336 -0.029358089
000090 9e af fe bd e2 b5 92 bd 34 fe b2 3d c0 a4 3f 3b
       -0.1243584 -0.07163598 0.08739892 0.0029242486
0000a0 78 05 08 bd ce 1f a2 bd 28 46 18 3d 1c 47 76 3d
       -0.03320834 -0.079162225 0.03717628 0.06012641
0000b0 34 c3 72 3d 48 54 cf bd 72 f2 ee 3d 80 19 d4 3d
       0.05926819 -0.10123497 0.116673365 0.10356426
0000c0 80 ee 39 3b da 25 c0 3d ec 7a ad 3d 10 7e 47 bd
       0.0028370917 0.093822196 0.08470711 -0.048704207
0000d0 46 53 ff bd 14 32 be bd 28 eb bc bc e8 e7 b7 bd
       -0.12467055 -0.092868954 -0.02306135 -0.089797795
0000e0 ec 6c b9 3d d8 fe df bd a4 ec c7 bd ee 1e dc 3d
       0.09053978 -0.109372795 -0.097619325 0.10748087
0000f0 7c 5a f0 3d ce fa ea bd 20 9d 8f bb 6a 4f f9 3d
       0.117360085 -0.114736184 -0.0043827444 0.1217335
000100 00 7e 99 3b 02 d9 a8 3d bf f9 75 be 61 dc a6 be
       0.00468421 0.08244516 -0.24021052 -0.3259001
000110 2f c7 cd 3b d0 77 15 bd 22 ac f6 3d 78 59 9c bd
       0.006279848 -0.036491215 0.120445505 -0.07634252
000120 e6 19 05 3e ae 32 18 bc b0 85 6d bd 00 dd 70 ba
       0.1299816 -0.009289427 -0.057988822 -0.0009188205
000130 2a 93 c2 3d 03 13 97 bd 30 67 dd 3c c3 89 8b bd
       0.095007256 -0.07376673 0.027026743 -0.06813385
000140 0d c7 a5 bd 6e 44 12 3e 04 57 f0 3d 7c 01 35 bd
       -0.080946065 0.14283916 0.11735347 -0.04419087
000150 89 1d eb 3d 54 71 63 3d 4a 5f 9d bd a8 24 c8 bd
       0.11480243 0.055528 -0.076841906 -0.097726166
000160 73 94 6b be a3 25 a0 3d b6 0a 5f bd af 20 4f 3d
       -0.23005848 0.07819679 -0.054453574 0.05056828
000170 b3 ec 28 be e1 ae e8 3d 0d 1c 84 3d 1f a6 a9 be
       -0.16496544 0.113614805 0.06450663 -0.33134553
000180 a8 12 a8 3d fc 57 56 bd d4 94 6b bd 70 23 48 bd
       0.082066834 -0.052330002 -0.05751498 -0.04886192
000190 f4 58 f9 bd 8b 89 e4 3d 28 dd ff 3d 63 18 ae 3d
       -0.121751696 0.11159047 0.12493354 0.08500745
0001a0 b6 48 a6 3d 60 ec 2d 3c ea 89 62 be 66 ad 75 bd
       0.08119337 0.010615438 -0.22122923 -0.05997982
0001b0 5c ec 14 bd 69 05 d8 3d 39 cc 98 be 36 36 bb bd
       -0.036358222 0.10547907 -0.2984331 -0.09141199
0001c0 f6 72 d7 bd d5 9e 10 3c d2 4f 46 3d 20 e6 c0 bd
       -0.10519974 0.008826931 0.048415966 -0.09418893
0001d0 05 a7 8a be 54 98 ba 3d a8 33 f3 bd 75 05 aa bd
       -0.2708055 0.091110855 -0.11875087 -0.08301822
0001e0 63 a2 6d bd 0a bb 8f 3d f5 95 51 bd 00 92 6b 3d
       -0.058016192 0.07018097 -0.0511684 0.057512283
0001f0 a8 09 1d 3d 4c 13 02 be d0 19 83 bc c0 f7 02 3c
       0.038339287 -0.12702674 -0.01600352 0.0079936385
000200 60 cf cd 3d e1 75 12 bd da 70 6e be 7e 02 de bc
       0.10049319 -0.03575695 -0.23285237 -0.027100798
000210 c6 fd fd 3b 10 70 cd 3d 66 5d ef bd b0 4e 11 3c
       0.0077511994 0.1003114 -0.11687736 0.008868858
000220 ed 76 94 bc b7 6d d9 bc a8 1a c0 bc 28 75 dc bd
       -0.018123114 -0.026541574 -0.02345021 -0.10764533
000230 56 01 30 3d 82 79 7f bc 3a ce de 3d 42 7d 54 3d
       0.042970024 -0.015592935 0.10879178 0.051877268
000240 ab 45 52 3d 4f 9b 2d 3e 1c 32 5b 3d 18 41 85 3c
       0.05133597 0.16953777 0.053514585 0.01626639
000250 f9 1f 65 bc 00 27 42 bb 10 93 ab bc c0 85 40 bb
       -0.013984674 -0.0029625297 -0.020944148 -0.0029376596
000260 2b ed 9e bd cf 51 21 3e 04 04 d0 3d 97 0a 56 bd
       -0.0776008 0.15753864 0.10157016 -0.052256193
000270 d9 31 31 3d 43 c8 c0 bc 4a 7e c2 3d 78 54 57 3c
       0.04326043 -0.023532992 0.09496744 0.0131426975
000280 9c 13 55 3d 00 85 5c bb 0e 8a a0 3d 98 90 b5 bd
       0.052020654 -0.003364861 0.07838832 -0.0886547
000290 47 64 0c 3b ff 27 33 3d 70 6b 45 bd 58 c3 45 bc
       0.0021422075 0.043739315 -0.048198164 -0.012070499
0002a0 9d d4 80 bb 94 75 18 3c 5a 26 28 be c2 5d f0 3d
       -0.0039315955 0.009305377 -0.1642088 0.11736633
0002b0 22 c6 9a 3d 87 82 ae 3d 4c 36 b0 bd 27 8c 69 3d
       0.07557322 0.0852099 -0.08604106 0.057018425
0002c0 62 c9 02 3e 00 da 04 be ed 00 d0 bd b8 9e 06 bd
       0.12772134 -0.12973785 -0.101564266 -0.03286621
0002d0 12 b5 46 bd 63 5b 75 3d 86 f3 d7 3d e0 97 48 3c
       -0.048512526 0.059901606 0.10544495 0.012243241
0002e0 ad e5 0a be ea 77 7a bd ba 85 a5 3d ea d5 b2 3d
       -0.13564177 -0.061149515 0.08082147 0.08732207
0002f0 ea 50 9d bd eb 28 2d bd 26 c0 32 bc a8 bb ff bc
       -0.07681449 -0.04227535 -0.01091007 -0.031217411
000300 32 ee cf 3d b1 b7 aa bd c2 84 0d bc 93 d9 0c bc
       0.10152854 -0.083358176 -0.008637609 -0.008596796
000310 b0 87 83 bd 70 ed 84 bd dc 22 eb 3d 48 97 7f bd
       -0.06422365 -0.064906 0.11481258 -0.062400132
000320 17 4a 81 bd 4f a9 46 3d b4 89 b4 3d 20 9d 2d 3c
       -0.0631296 0.04850131 0.08815327 0.010596544
000330 e1 96 75 bd ca dc b7 3d e4 6d b8 bd 2e 9c bc bd
       -0.059958342 0.08977659 -0.09005335 -0.092094764
000340 b5 ce c5 3d 9b 8c 5a 3c 9e 02 9b bd 90 6c 5f 3c
       0.09658567 0.013339187 -0.075688586 0.013636723
000350 2e d5 3e bd 90 f4 bc 3c 10 89 9f 3c 00 bf eb 3d
       -0.046590023 0.023065835 0.019474536 0.1151104
000360 ed f9 c7 bd 96 e7 b1 3d 6c 60 e5 bb c1 ec af bc
       -0.097644664 0.0868675 -0.00700002 -0.021475198
000370 c7 c4 e1 3d 05 32 0b 3e 1a 01 84 bc fe c1 47 3d
       0.110238604 0.135933 -0.016113807 0.04876899
000380 80 7b 97 3c 44 3a 6a bd 30 d2 be 3c d4 b4 bb 3d
       0.018491507 -0.057184473 0.023293585 0.091653496
000390 46 9d 47 bd 06 03 af 3d de df a2 3d 9f 1f e9 bc
       -0.048733972 0.085454985 0.079528555 -0.02845746
0003a0 49 5b a9 3d b1 b7 90 bc 9d e1 56 bd b5 16 00 3e
       0.082693644 -0.017665716 -0.052461255 0.12508662
0003b0 be 8c da bd 39 2b 13 3d a5 5f c7 bc c6 ba c1 3a
       -0.10671376 0.035929892 -0.024337599 0.0014780394
0003c0 95 f8 9f bc 5a af ea bd 41 7c b5 3d 28 14 b8 3c
       -0.019527713 -0.11459227 0.0886159 0.022470549
0003d0 68 75 30 be 71 41 9d 3d 3a 89 d5 bd 8a 46 6b 3d
       -0.17232287 0.076784976 -0.104265645 0.05744032
0003e0 39 d8 97 bd 47 55 c1 bd 0b ea 8f 3c be 45 95 3d
       -0.07414288 -0.094400935 0.017567655 0.07288693
0003f0 aa b4 8c 3d d6 fa a2 bc 90 d9 02 be 60 1f ab bb
       0.068703964 -0.019894999 -0.12778306 -0.005222246

fc2.bias f4 [128]
000000 fc aa 1c 3d 5c 9b d0 bd f4 27 0c 3d 75 39 a1 3d
       0.038249 -0.101858824 0.03421779 0.07872287
000010 ca d9 0f 3d c4 43 fb 3d a0 b7 cc 3b 00 58 e0 39
       0.03511981 0.12268785 0.0062474757 0.00042790174
000020 91 de db 3d 89 cd 2c bc a2 ce a9 bd f8 6d 21 bd
       0.107358105 -0.01054705 -0.08291365 -0.039411515
000030 ad f6 f2 3c b6 58 da bd 0a e3 8e 3d d5 8f 47 bd
       0.02965864 -0.106614515 0.06976898 -0.048721153
000040 ce 58 e6 3d 47 4a 39 bd 95 d4 a9 3d 74 9f fa bd
       0.11247407 -0.045236852 0.082925 -0.122374445
000050 f3 c7 07 be 5a d3 bf 3d 35 2d 6c 3d 68 ac 55 bd
       -0.13259868 0.09366484 0.0576603 -0.052166373
000060 d5 35 9a 3d 6e c0 db bd 8a 86 c5 bd 4a 29 be bd
       0.07529799 -0.107300624 -0.09644802 -0.09285219
000070 53 67 6e 3d 3e ea 92 bd b4 26 62 3d 80 8b 00 3b
       0.058204006 -0.071735844 0.05521269 0.0019614398
000080 de 1e 89 3b 94 ba f5 bc d4 65 8e bd c0 5a c7 3d
       0.004184588 -0.029996194 -0.06953016 0.09734106
000090 4c 0d 97 bd b7 d3 f3 3d 60 ea 89 bd 00 70 81 bc
       -0.07375583 0.11905616 -0.067341566 -0.015800476
0000a0 c0 5d b6 bb 54 94 df 3d a8 62 8c 3d d4 21 e1 bd
       -0.005565375 0.10916963 0.06854755 -0.1099278
0000b0 e3 c0 d7 bd 62 33 b8 3d b2 58 8c bb 10 e9 29 3c
       -0.10534837 0.089941755 -0.0042830342 0.010370508
0000c0 59 a7 88 3d f8 f5 94 3c 26 a3 fa bd 20 4e 27 bd
       0.06672544 0.018183693 -0.12238149 -0.04084599
0000d0 8c 67 d4 3d 02 cf 04 3d 20 95 67 bc 90 fd 6e bc
       0.103713125 0.03242398 -0.014134675 -0.014586821
0000e0 4a d0 82 3d a8 5c 82 bd a0 c9 ec 3b fc ed 5a bd
       0.06387384 -0.06365329 0.007226184 -0.053449616
0000f0 3a a9 97 bd d0 fe 2b bc 41 10 ce bc dc 95 9e bd
       -0.07405324 -0.010497764 -0.025154235 -0.07743427
000100 f0 19 b7 bc c6 e2 dc 3c 0b 78 2c bd 83 cf e7 3d
       -0.022351235 0.026963603 -0.04210667 0.113188766
000110 64 93 11 3d 28 ee f2 3d 21 98 a2 bd b4 3b 0e bd
       0.035540953 0.11861831 -0.079391725 -0.034724906
000120 05 9c 9f bc ef cf 45 3d 20 cb df 3d f0 95 20 bd
       -0.019483576 0.048294004 0.10927415 -0.03920549
000130 78 6b b2 bd c5 ae dd bd 8c 23 18 bd e8 e5 8c bc
       -0.08711904 -0.1082435 -0.037143275 -0.017199472
000140 00 ce 96 3c a4 82 00 3b 1f 23 df bc f7 ea c3 3d
       0.018408775 0.0019609118 -0.027238427 0.095663
000150 b4 32 8c bd 46 29 50 bd be 1e 5d 3c db e9 e8 bd
       -0.06845608 -0.05082061 0.013496099 -0.113727294
000160 18 8c f6 3d 6d 4c da 3d 44 da 11 3e 90 49 09 3c
       0.120384395 0.10659108 0.14243418 0.008379355
000170 88 70 8d bc 82 b1 9f 3c 7a 9e af bd 56 9a 08 3d
       -0.017265573 0.019493822 -0.08575149 0.03335031
000180 12 38 f0 3c 13 b0 c1 3d e1 35 48 3d f0 b0 3e 3c
       0.029323611 0.094574116 0.048879508 0.011638865
000190 e8 4a dc bd b4 35 ec 3d e9 50 36 bd 8e 05 cb bc
       -0.10756475 0.115336806 -0.044510756 -0.024782922
0001a0 4a ba 5d ba 87 ba dc 3c a2 4b da 3d e8 d1 c6 3d
       -0.000845824 0.026944412 0.10658957 0.09708005
0001b0 b0 d1 c4 3d 60 73 76 3d 50 62 e8 3c cd 98 25 3d
       0.09610307 0.060168624 0.028367192 0.040428925
0001c0 5a bf a1 bd 88 0b 9f 3c 77 ff 89 3d 6c 57 5d 3d
       -0.078978255 0.019414678 0.06738179 0.05403845
0001d0 c6 a0 e5 3d 19 31 66 3d 20 3d 08 3c aa 54 eb 3d
       0.11212306 0.056199167 0.008315355 0.11490758
0001e0 74 cf 59 bd 1e 98 cf bd 9d f2 e1 bd 12 5b 74 bd
       -0.05317636 -0.10136436 -0.11032603 -0.059657164
0001f0 30 69 f3 3b a3 dc 49 3c 28 b0 92 3d ec e4 39 3d
       0.007428311 0.01232067 0.071625054 0.045384333

fc3.weight f4 [64, 128]
000000 1c 3c 80 bd 93 e3 1a be 1c da 87 3c 03 d9 71 bd
       -0.06261465 -0.15125875 0.016583495 -0.05904485
000010 3a ee 43 be 2f 52 c4 3d d3 31 0c bd 6b fa 48 bd
       -0.19133845 0.09585988 -0.034227204 -0.049066942
000020 8f 7b 09 bd f9 8e e1 bc dc 96 b1 bd fc b2 8d bd
       -0.0335651 -0.027533995 -0.08671352 -0.06918904
000030 93 6f 1c 3e fe 8d 47 3d d0 35 c0 bc 39 3f 81 bd
       0.15276937 0.0487194 -0.02346316 -0.06310887
000040 28 d0 4d bc c6 ff 4e be e2 79 c5 3d 24 e0 af 3c
       -0.012561835 -0.20214757 0.09642388 0.021469183
000050 23 f4 20 bc 2f 59 87 3d 66 32 cb 3c a6 c8 16 bd
       -0.009823832 0.06608807 0.024804305 -0.036812447
000060 05 54 2d 3e 88 aa 10 ba b0 b2 b8 3c 1c fb be 3c
       0.16926582 -0.0005518575 0.022546142 0.023313098
000070 72 64 e1 3d 2a 88 5a 3d 43 e8 ed bc be fd 4f 3d
       0.110054865 0.053352512 -0.029041415 0.050779097
000080 b0 bc 53 bb 08 82 d6 bd 74 27 b1 bd 60 29 0e bd
       -0.0032308511 -0.1047402 -0.08650103 -0.034707427
000090 7b 9e 35 bd ce f4 83 3d 78 ab a9 bc e1 e0 82 bd
       -0.044340592 0.06443177 -0.020711645 -0.063905485
0000a0 4e 95 61 3d e8 88 f2 3c 7c 97 f8 bc 0e 81 7c 3d
       0.05507403 0.029606298 -0.03034567 0.061646514
0000b0 d2 b0 c1 bd cd 68 a1 bc 35 08 90 3d ff ae 94 3d
       -0.09457554 -0.019703293 0.07032815 0.0725994
0000c0 fc d7 18 3e 0a f6 33 bd 10 c6 40 bd 6c dc a9 3c
       0.14926142 -0.043935813 -0.047063887 0.020734988
0000d0 02 0e 71 3d cd 91 87 bb 00 4c de 3c 77 a4 a1 3d
       0.05885125 -0.004137254 0.027135849 0.07892697
0000e0 a8 50 ce bd 31 da 91 3d e8 73 49 3c 56 34 33 3d
       -0.10073978 0.07121695 0.012295701 0.043751083
0000f0 39 e5 ab 3d 6a eb 62 3d fb 39 5e ba 4a ee 53 3d
       0.0839333 0.05540029 -0.00084772677 0.051740922
000100 ff de ae bd 54 2a 09 bc 84 24 e4 bc c2 b6 a1 bc
       -0.08538627 -0.008371908 -0.027849443 -0.019740466
000110 b4 ca 25 bd b5 4c 93 3d 18 27 b0 bd 51 8d 95 3d
       -0.040476516 0.07192365 -0.086012065 0.073023446
000120 87 c3 d4 bd fe 36 87 3d 51 25 9a 3d d3 45 ac 3d
       -0.103888564 0.06602286 0.07526649 0.084117554
000130 cc 57 87 bd 51 92 5c be 18 df c2 bc 6e 1d 88 bd
       -0.06608543 -0.2154019 -0.02378802 -0.06646238
000140 03 ed a8 3d d2 26 f0 39 d1 d6 88 3d 00 d4 b0 bb
       0.082483314 0.0004580529 0.06681598 -0.005396366
000150 2c 47 7f bd dd 4c 0f 3e 32 f6 73 3c 23 d7 89 bc
       -0.062323734 0.13994165 0.0148902405 -0.016826218
000160 00 a0 e6 ba 81 9c 41 bd 8e 93 c3 3d 3e 12 17 bd
       -0.0017595291 -0.047268394 0.09549628 -0.03688263
000170 18 39 32 3c ea d1 44 bd d0 3c 15 3d d4 36 46 bc
       0.01087787 -0.048051752 0.03643495 -0.012098033
000180 ee c9 75 bd af 3e 1c bd f0 39 8c 3d 69 d1 a2 3d
       -0.06000703 -0.038145717 0.06846988 0.07950098
000190 c8 fe 85 bc 3b ee 24 bd ca 26 a3 3c bd f0 a4 bc
       -0.01635684 -0.040266257 0.019915957 -0.020134324
0001a0 eb b7 08 3d b8 62 36 be 00 80 1f 39 2b e6 c8 bc
       0.033378523 -0.17811096 0.00015211105 -0.024523815
0001b0 bb f8 8a 3d c8 51 e2 3c 77 54 a8 3d 64 e5 91 bd
       0.06785723 0.027626887 0.082192354 -0.07123831
0001c0 40 fe 97 3a f8 c9 15 3c 10 23 53 3d fe 68 5b 3d
       0.0011596158 0.009142391 0.05154711 0.053566925
0001d0 5e d4 89 bd db 5a d4 bd a7 08 0f bd e5 26 84 bd
       -0.06729959 -0.10368892 -0.03492036 -0.06452731
0001e0 a0 7d 00 3c 80 c2 69 ba 28 1b 5f 3d 64 b5 0e 3e
       0.007842451 -0.00089172274 0.054469258 0.13936383
0001f0 1b 20 3c bd 14 0d cb bc f9 28 78 3d 5a 51 61 bd
       -0.045929056 -0.02478651 0.06058595 -0.055009224
000200 c6 5a 47 3d f9 1b 4b 3d 4a e2 4b bd 72 45 8a 3d
       0.048670553 0.049587224 -0.049776353 0.06751527
000210 32 11 b3 3c e3 5d 5f 3d fc f4 ad 3c 41 32 42 bd
       0.021858785 0.054532897 0.021234982 -0.047411207
000220 ed de 85 bc 4d ea 12 bc fc 82 a5 bc 6e d0 00 3d
       -0.01634165 -0.0089669945 -0.02020406 0.031448774
000230 9a 12 a1 bd 40 c6 e4 bc 7e c1 bd bd 3a 10 9c 3d
       -0.07864876 -0.027926564 -0.09265421 0.076202825
000240 28 60 bb 3c 2e 81 3e 3c 03 c2 8e 3d bc 6d da 3c
       0.022873 0.0116274785 0.069705985 0.026663654
000250 86 57 71 3d e2 e8 54 bd 94 62 bd 3c 99 92 84 3d
       0.05892136 -0.051979907 0.023118295 0.06473274
000260 68 75 43 bd 6a 61 f0 3c 78 4b 08 3d 37 85 72 3c
       -0.04771939 0.029343326 0.033275098 0.014802269
000270 a8 7a 8d bd 3d de a3 3d 30 9c 1a bc 4e fd 3d 3d
       -0.069081604 0.08001373 -0.009436652 0.04638415
000280 9c 79 7f bd 22 d4 76 bd 24 2e 9b bc 5e 89 76 3d
       -0.062371835 -0.0602609 -0.0189429 0.060189597
000290 a0 a8 11 bb fe e4 71 3d d1 41 67 bd e2 ca 25 3d
       -0.0022225752 0.059056275 -0.05645925 0.040476687
0002a0 1a 65 7c 3d 56 5c 76 bd ea af 35 3d cc e7 cb bc
       0.061619855 -0.060146652 0.044357218 -0.024890803
0002b0 13 41 d1 bc 72 53 98 3d 30 55 31 3c 98 72 70 bd
       -0.025543725 0.07437791 0.010823533 -0.058703035
0002c0 e1 c7 d1 bc 93 b1 ad bd 20 a9 9e 3c c2 f4 50 3d
       -0.025608005 -0.08481135 0.019367754 0.05101467
0002d0 30 9f 58 3c 7c 4e c0 bd 96 57 7d 3d da 5f 01 3d
       0.013221547 -0.0938997 0.061851107 0.03158555
0002e0 6b 32 82 bd 30 dd 3d bc fe 4f 05 3d d8 ff 54 bd
       -0.06357273 -0.01158838 0.03254699 -0.052001804
0002f0 6a 74 19 3d e0 28 69 3c 92 f4 a2 bb 06 80 21 3d
       0.037464537 0.014230937 -0.0049730027 0.039428733
000300 5b 97 65 bd 4b 6b 25 3d 74 2c a1 bd 0b d9 0b 3d
       -0.056052547 0.040385526 -0.07869807 0.034142535
000310 1d 1b 37 3b e6 f8 a3 3b e2 9a 24 3d 57 5e 9e 3d
       0.0027939745 0.0050040362 0.04018677 0.07732838
000320 22 ff 91 3d ad 2b 80 bc b6 93 af bd 40 3b da bc
       0.07128741 -0.015645826 -0.085730955 -0.02663958
000330 58 59 c5 3c 2f 6e 9e bd 9b ed a4 bd 54 73 7e bd
       0.024090454 -0.077358596 -0.08053132 -0.062121704
000340 4a e8 69 bd d3 f7 6b 3d f0 0d 73 bd 79 81 cf bc
       -0.057106294 0.05760939 -0.059339464 -0.025330292
000350 96 91 6a bd 27 45 a1 bd a7 7d af bd 36 11 c8 bd
       -0.057267748 -0.07874518 -0.08568888 -0.09768908
000360 0a 00 3c 3d ed 89 6f bd 10 d8 8e bc bd 29 ae bd
       0.045898475 -0.058481146 -0.017437011 -0.08504055
000370 d0 68 8e bb 21 6a 9b bc d0 8f c2 bb b3 a3 9d 3d
       -0.0043459907 -0.018971505 -0.005937554 0.07697239
000380 bd f0 4c bd a7 fc ad ba 5f da a8 3d 14 ec f5 bc
       -0.050034273 -0.0013274149 0.08244776 -0.030019797
000390 00 ea b5 3c 10 56 cf 3b 0e 10 60 3d dd 96 b6 bd
       0.022206306 0.006327398 0.05470281 -0.08915494
0003a0 76 ba 02 3c 1f 8b 7c 3c de 4b 3d 3d 24 d0 07 3d
       0.007979026 0.015414028 0.04621493 0.033157483
0003b0 ae 45 0a 3d 69 80 9a 3d 08 bf 83 bc 72 f8 b2 bd
       0.033757858 0.075440235 -0.016082302 -0.087387934
0003c0 ca c3 60 3d 1c 73 ff 3c 34 e3 b0 3c 8c 75 cd 3c
       0.05487422 0.031182818 0.021592714 0.025080465
0003d0 70 92 08 bc 5f 4b 78 3d 89 57 9e 3d ef 61 20 bd
       -0.008335695 0.060618754 0.0773154 -0.039155897
0003e0 ba 4d 7c 3d da c4 5b 3d f5 f6 81 3d 25 89 63 bd
       0.061597563 0.05365453 0.063459314 -0.055550713
0003f0 bd a6 b8 bd ee 81 33 bd de 5a 4a 3d ba 90 64 3d
       -0.09016178 -0.043825082 0.049403064 0.055802085

fc3.bias f4 [64]
000000 c2 9b 21 3d 3d 6a 82 bd c8 f5 00 3d 44 e7 ad bd
       0.039455183 -0.063679196 0.031484395 -0.08491376
000010 0e d8 6f 3d 70 05 88 bc 78 ff 29 bd 5b a3 2c 3c
       0.058555655 -0.016604155 -0.0415034 0.010536994
000020 14 a9 f4 bc 06 45 9b 3d 4a 57 fb bc f8 2f c2 3d
       -0.029865779 0.075815246 -0.030681271 0.094818056
000030 d0 86 81 bc 80 43 b9 3d 28 37 c8 3d 57 7f 07 bd
       -0.015811354 0.09046078 0.09776145 -0.033080425
000040 1f 4f 58 3d ff 89 bf bd 0f 09 b6 bd 27 16 e2 3c
       0.05280983 -0.093524925 -0.088884465 0.027598454
000050 8f de 4b bd e1 db 86 bc 83 43 8a 3d b2 24 92 bd
       -0.049772795 -0.016462268 0.06751158 -0.07135905
000060 d4 ee b9 3c 9a 11 17 3d 28 ba 80 3b fd 6d fd 3a
       0.02269689 0.03688202 0.0039284416 0.0019335147
000070 34 7f 67 bd a9 31 4f bc 3e 61 9b bd 3b e7 1a 3c
       -0.056517795 -0.012646117 -0.07586907 0.009454544
000080 79 76 f6 3c cc c0 04 bd 60 34 74 bd 05 56 64 bc
       0.030085789 -0.032410428 -0.05962026 -0.013936524
000090 c4 77 6f 3c 86 d8 4e 3d 72 57 85 3d cd 46 3f 3d
       0.014615957 0.05049946 0.065108195 0.04669838
0000a0 ff 84 56 bd ca 37 87 ba 2e 28 84 bd 6b 8c 8d bd
       -0.05237293 -0.0010316309 -0.06452976 -0.06911548
0000b0 97 6c 7a bd 27 c8 79 bb 3d 2f 2c bc 3d c6 84 3b
       -0.061138716 -0.0038113685 -0.010509309 0.004051952
0000c0 a9 98 55 b9 d3 71 fd 3c 14 d2 a7 bd d7 a4 0c 3d
       -0.00020370133 0.030938065 -0.08194366 0.03433689
0000d0 db b7 04 3d 02 58 40 3d fe 1a 4e bd 20 0d 2a 3d
       0.0324019 0.04695893 -0.05031871 0.041516423
0000e0 b5 58 09 bd df 49 6d 3d 34 96 96 bc 3b 5a a9 3d
       -0.033531863 0.057931777 -0.01838217 0.08269163
0000f0 ac 49 61 bd 65 4b 4a bd b6 e7 bf bc f4 ec 32 bd
       -0.0550019 -0.049388308 -0.023425918 -0.043683007

fc4.weight f4 [2, 64]
000000 66 44 15 be 42 09 31 bd 15 93 ed bc d4 c5 1c 3d
       -0.14576873 -0.04322172 -0.029000798 0.0382746
000010 20 ac 9b bc af 29 3f bd be a5 6f ba 58 fb 76 3d
       -0.019002974 -0.046670612 -0.0009141824 0.060298294
000020 9d d3 39 3d 3e 11 86 3d 70 9c 18 3d 3a 6f 53 3d
       0.045367826 0.065462574 0.037258565 0.051619746
000030 31 83 02 3e a5 c3 d8 3d 6c ad 18 be d1 e6 a9 3d
       0.12745358 0.10584191 -0.14909905 0.08295978
000040 48 70 1d 3e 11 3d a2 3d a9 f3 d2 bd 64 5a a3 bd
       0.15374863 0.07921804 -0.10300381 -0.07976225
000050 3c d2 cd 3d 02 f3 0d 3c 75 63 f3 bd f8 07 a7 bd
       0.10049865 0.008663895 -0.11884204 -0.08155817
000060 16 6d cb bd ec d1 9f 3d dd 00 f1 bc 7b 7d 05 3e
       -0.09932916 0.07803711 -0.029419357 0.13036148
000070 e0 a1 bc 3b ab 56 1a 3e a4 5a be 3d 11 b3 ba bd
       0.0057566017 0.15072124 0.09294632 -0.091161855
000080 76 c5 46 bd ad 7b 39 3d 18 b8 cb bd 92 a7 95 3a
       -0.048528157 0.045283962 -0.099472225 0.0011417738
000090 55 94 a0 bd b8 fe 0e 3e d7 3e 75 bd 79 df e3 bc
       -0.07840792 0.13964355 -0.059874382 -0.027816521
0000a0 50 da 62 3c 22 05 94 bd 40 16 b9 bd 69 80 19 3e
       0.013845995 -0.072275415 -0.09037447 0.14990391
0000b0 8e 41 c7 3d 61 67 55 bc 56 6d e9 bc d3 db c2 3d
       0.097293004 -0.013025136 -0.028494518 0.095145844
0000c0 bb 14 d1 3d 5b 34 40 3d bc c2 c8 3d 5a 67 99 3e
       0.10209032 0.04692493 0.09802768 0.29961663
0000d0 fa b3 21 bb 3c 87 62 be f1 ef a6 bd 36 ee 25 3e
       -0.0024673925 -0.221219 -0.08151234 0.16204152
0000e0 d0 8f df bd a0 a6 03 be 38 d2 e0 3c 81 9e 1d 3e
       -0.10916102 -0.12856531 0.02744399 0.15392496
0000f0 7a 64 98 bd 2a d1 35 3e bb 9a c6 bd ca a7 bf 3d
       -0.074410394 0.17755571 -0.09697481 0.09358175
000100 24 ea 46 3d 98 aa fd 3d 4a 1d d4 3d 78 4f e2 3c
       0.048563138 0.12386054 0.10357149 0.027625784
000110 96 f7 8c 3d 96 f4 ac 3d 1c 15 f8 bd 68 9b 50 3d
       0.06883161 0.084450886 -0.12113401 0.050929457
000120 60 15 91 3b 40 09 a0 bc 9c 4d 5f 3d 40 1e 67 3b
       0.004427597 -0.01953566 0.054517373 0.0035265833
000130 18 87 c4 bd 6a da f0 3d e0 56 5c 3c c0 90 10 3c
       -0.095960796 0.11760409 0.013448447 0.008823574
000140 b4 72 c7 3d 80 16 56 3c 3e fd e2 3d 68 62 32 bd
       0.09738675 0.013066888 0.11083458 -0.04355088
000150 54 2d 8d 3d cc f0 11 bd 6c 06 dd 3d 24 30 f3 bd
       0.06893411 -0.035630032 0.107922405 -0.118744165
000160 f8 b9 ec bc ac 0b 39 bd 44 38 06 bd ca d6 81 3d
       -0.02889727 -0.045177147 -0.032768503 0.06339796
000170 18 44 be bc bc 4a 93 bd 30 84 af bc f4 d5 10 bd
       -0.023225829 -0.07191989 -0.021425337 -0.03536029
000180 fc 70 5e bd 38 4b f0 bd 20 21 f2 3c a8 88 f8 3c
       -0.05430697 -0.11733097 0.02955681 0.0303386
000190 b8 7f f0 bc 12 d8 fd bd 00 ff 92 bc 30 9f 2d bd
       -0.029357776 -0.12394728 -0.01794386 -0.04238814
0001a0 60 6b 1f bc d6 2b a8 bd 38 f4 f9 bd 5a a8 c8 bd
       -0.00973019 -0.08211486 -0.12204784 -0.097977355
0001b0 90 f2 83 3d 18 1c 05 bd 40 db db 3b 20 ad 46 bc
       0.064427495 -0.032497495 0.0067094862 -0.012126237
0001c0 8c c4 10 bd b4 39 e3 bd ec 85 74 bd 2e 02 eb 3d
       -0.03534369 -0.110949904 -0.05969803 0.11475025
0001d0 c8 31 69 bd 50 4b 19 3c e0 ca a4 3c a0 1c bb bd
       -0.05693224 0.009356335 0.02011627 -0.09136319
0001e0 24 e3 ba bd 60 ef a2 bc 1c dc eb 3d a0 9a b9 bc
       -0.09125355 -0.019889534 0.11516592 -0.022656739
0001f0 e0 f9 3c bd 64 a6 89 bd 50 7e 2c 3d 10 f5 0f bc
       -0.046136737 -0.067211896 0.04211265 -0.008786455

fc4.bias f4 [2]
000000 f9 3c 0c 3e c4 9f 35 bd
       0.13695134 -0.044341817
