simpledemo2/RealInvNetwork.pth (torch, 70357 bytes, 8 tensors)

fc1.weight f4 [64, 2]
000000 78 c2 71 3e 68 89 12 be 74 52 ad be 78 d8 67 3e
       0.2360934 -0.14310229 -0.3385197 0.2264117
000010 51 9e 0a 3f a2 cc b1 3e a5 f0 81 be 60 2c 6b bd
       0.5414782 0.34726435 -0.2537891 -0.057415366
000020 ec b8 25 bf a2 b4 8f be 07 81 bd be 7f a9 f2 3d
       -0.64735293 -0.280675 -0.37012503 0.11848735
000030 80 86 40 3c 33 5e 19 3f 60 a8 5d 3d 34 d1 de 3e
       0.011750817 0.5990936 0.054115653 0.43518984
000040 66 63 e3 3e bc ec 73 3e 76 7b ae 3e d0 50 0b bf
       0.44411772 0.23820776 0.34078568 -0.54420185
000050 09 1b 85 be 5e 2d c9 3e cb 40 cb be 08 54 1c 3f
       -0.2599719 0.39292425 -0.3969787 0.6106572
000060 fc 2d 2d be 4a 90 fa be cf 84 31 3f 8b dd 17 3f
       -0.16912073 -0.4893821 0.69343275 0.5932242
000070 80 91 a6 3c 3f 54 0e bf 60 68 5d 3e 0d da 07 be
       0.020333052 -0.555973 0.21621847 -0.13266774
000080 19 16 16 3f 7e 55 0e 3e f6 37 aa 3e fa 97 1b bf
       0.5862747 0.138998 0.3324582 -0.6077877
000090 c9 ee e9 be 24 a2 1a 3f da 9d d0 be 7c f3 17 3e
       -0.4568999 0.60403657 -0.4074543 0.14838976
0000a0 f8 fd 1b bf 7f db 0b be 59 b2 1a bf 7b 9d be be
       -0.609344 -0.1365795 -0.60428387 -0.37229523
0000b0 7f be 9e be 84 0b 89 3e 52 b1 2e bf 75 78 b2 be
       -0.31004712 0.26766598 -0.6823932 -0.34857526
0000c0 13 11 c9 be 7f 7e 16 3f 17 5f 12 3f 7f 5c 80 be
       -0.3927084 0.5878677 0.57176346 -0.2507057
0000d0 90 4f 03 be d2 21 18 3e d0 11 2f 3e 6b 8d cc 3e
       -0.1282332 0.14856651 0.17096639 0.39951643
0000e0 c6 6c 82 be 4d 70 c8 3e 88 1c cc 3d 72 87 08 3f
       -0.25473613 0.3914818 0.099663794 0.53331673
0000f0 45 cf 1e bf e8 65 34 bf 68 c3 16 be ff c3 56 3e
       -0.6203502 -0.70467997 -0.14722979 0.20973204
000100 00 81 2a 3d d7 df 82 3d 29 a2 26 3f f3 ca 96 be
       0.04162693 0.0639035 0.65091187 -0.29451713
000110 28 65 42 be 74 0a f2 bd 58 2d 77 3e 80 b3 73 bd
       -0.189839 -0.118184 0.24138391 -0.059497356
000120 40 4b 2e 3e 9a b9 07 bf 82 4e f0 be 1f 29 0d bf
       0.17020893 -0.5301758 -0.46934897 -0.5514087
000130 00 51 0c bc ac b4 ff 3d d6 20 a1 3e 3a e6 a5 3e
       -0.008564234 0.12485632 0.31470364 0.3240221
000140 24 f3 de be 0d 37 2d 3f 7d f0 27 bf ee 0e d9 3e
       -0.43544877 0.67662126 -0.6560133 0.42394203
000150 0f 18 1b 3f fe d3 19 bf ec f6 28 bf 70 6e 13 be
       0.60583586 -0.600891 -0.6600177 -0.14397597
000160 24 11 1c be a7 e0 d1 3e 22 77 b1 3e a3 d8 d0 3e
       -0.15240914 0.4099171 0.34661204 0.4079028
000170 5b 09 db be cd ae 32 3f 8b 9f 18 bf 61 db 03 bf
       -0.42780575 0.69797975 -0.59618443 -0.5150662
000180 64 17 e9 be 95 1d 17 3f a0 8e 8e 3c cf 65 94 be
       -0.45525658 0.59029514 0.017401993 -0.28983924
000190 dd bd 08 bf 2a 45 f6 be 86 d2 c3 be 1f 30 31 bf
       -0.5341471 -0.48099643 -0.38246554 -0.6921405
0001a0 30 ba 90 bd 2e 3b 2a bf 1d 26 1a 3f 82 2a 2d 3e
       -0.070667624 -0.6649655 0.60214406 0.16910747
0001b0 9c 32 d7 be 91 ed 1a 3e d5 45 dc be 6e d4 09 bf
       -0.420308 0.15129687 -0.43022028 -0.53839767
0001c0 df ed 26 bf ef ee 08 bf 20 fd ed be db 60 e2 be
       -0.6520671 -0.53489584 -0.46482182 -0.4421452
0001d0 99 cc 1a 3f 6e 8c cc be ed 39 0e 3f 32 fb 20 bf
       0.6046844 -0.3995089 0.5555714 -0.62883294
0001e0 48 ab 92 bd e5 02 0a bf 78 28 a5 bd 87 f1 c3 3e
       -0.071615756 -0.53910667 -0.080643594 0.38270208
0001f0 26 33 fd 3e ab 38 03 3f 26 84 b4 3e 13 d3 bc be
       0.49453086 0.51258343 0.3525707 -0.36879787

fc1.bias f4 [64]
000000 34 6d 09 bf 90 45 2b bf 17 34 93 be c2 94 28 bf
       -0.53682256 -0.6690302 -0.2875068 -0.65851986
000010 c3 d9 be be db 70 07 3f 6c 09 97 3e d6 df 2b be
       -0.37275514 0.5290658 0.29499376 -0.16784605
000020 71 3a c5 be 40 b6 ac be 8f 9c f8 be a7 a6 41 3e
       -0.3852115 -0.33732796 -0.48556945 0.18911229
000030 db 68 a4 3e f4 b6 e2 be f4 43 25 3e d7 f8 20 3e
       0.32111248 -0.44280207 0.16139203 0.15719925
000040 d2 9b cc 3e 04 21 0a bf 41 b3 00 bf cc 19 dd be
       0.3996263 -0.5395663 -0.5027352 -0.43183744
000050 bc 99 22 3e a6 91 5a be 37 cf e5 3e 15 fb e9 be
       0.15878958 -0.21344623 0.44884655 -0.45699373
000060 e2 44 e7 be 2e 02 33 3f 1f 3c 6a 3e a2 ce 0a 3f
       -0.4516974 0.699252 0.22874497 0.54221547
000070 f9 83 a4 bc 60 d7 93 3c 8a 40 7a be 6e 2b 8b 3e
       -0.02008246 0.018047035 -0.24438682 0.27181572
000080 48 31 1a 3f bc 7c e1 3e 81 3d 35 3f 30 47 97 be
       0.6023145 0.44040477 0.7079697 -0.295465
000090 df f0 06 3f 60 1a 1d bd 60 5b 0f 3f b8 8b 09 bf
       0.5271129 -0.03835523 0.559988 -0.5372882
0000a0 72 d8 1a 3f 8c 8d bb be aa 5f de be d8 ae 91 be
       0.6048652 -0.3663143 -0.4343236 -0.28453708
0000b0 1f 08 8c be 98 11 76 3e 59 b0 02 3f f2 01 0b 3f
       -0.27349946 0.24030149 0.51050335 0.54299843
0000c0 6f a8 8c bd e0 d7 f5 bc 4b c4 25 3f b9 1e bc be
       -0.06868064 -0.030010164 0.64752644 -0.3674219
0000d0 75 68 30 bf 6e f3 49 bd d4 89 d5 3d 6c f5 50 be
       -0.6890939 -0.04930442 0.10426679 -0.20406121
0000e0 7b ff 10 bf 15 27 08 3f ea 0b 5b bc 49 97 98 be
       -0.5663983 0.53184634 -0.01336954 -0.2980292
0000f0 c8 5f 10 3e ad 16 78 be b6 8e 28 bf 94 e7 fa 3e
       0.14099038 -0.242274 -0.6584276 0.49004805

fc2.weight f4 [128, 64]
000000 98 6f ce 3c 60 f4 3e 3d 26 20 86 bd b8 6d be 3d
       0.025199696 0.046619773 -0.065491006 0.09298271
000010 7e d5 bf 3d 70 c8 67 bd f7 56 e1 3b d7 a0 72 3d
       0.09366892 -0.056587636 0.006876822 0.05923542
000020 60 2b fc bb 9c 2c ba 3d aa 95 a3 bd 38 ca bb bd
       -0.0076956004 0.0909054 -0.079875305 -0.091694295
000030 24 1d 83 3c f7 34 1c be e0 54 63 bc e8 ae 27 bd
       0.016005106 -0.1525458 -0.013875216 -0.040938288
000040 13 ba 5a bc 48 fe 14 bd 80 55 dc bd b8 13 ab 3c
       -0.013350028 -0.036375314 -0.10758495 0.020883426
000050 76 84 16 3d b0 89 3f bd fe 64 85 3c c8 b3 68 bd
       0.03674742 -0.04676217 0.016283508 -0.056812078
000060 34 45 7c 3d 1a 67 9d 3d fc 98 cd 3d e3 9a 29 bd
       0.061589435 0.07685681 0.10038945 -0.041407477
000070 48 0e a1 bd a5 4f 8e bd 08 a8 ec bd 94 81 e0 bb
       -0.07864052 -0.06948785 -0.11555487 -0.0068513844
000080 45 24 05 3d f5 96 00 3e 66 d0 03 3e c6 e8 f8 bd
       0.032505292 0.12557586 0.12872466 -0.12153773
000090 44 30 cd bd 20 a3 4c bc c3 02 fc 3d 6c 01 87 3d
       -0.100189716 -0.012490064 0.12305214 0.06592068
0000a0 51 27 f6 3d 36 88 11 bd 7c c3 39 3d 64 8c 37 3d
       0.12019218 -0.03553029 0.045352444 0.04481162
0000b0 04 b7 eb bd dd 4e 30 3d 66 07 b6 bd c2 f7 11 3e
       -0.11509517 0.04304396 -0.0888813 0.14254668
0000c0 77 af ca 3d 3c 6c 39 bd 13 1e 30 3d 00 b0 84 b8
       0.098967485 -0.045269236 0.04299743 -6.327033e-05
0000d0 f0 4a 50 3d 54 74 00 3e 77 dd a9 bd 12 41 f2 bd
       0.050852716 0.12544376 -0.08294194 -0.118288174
0000e0 a8 ba 1f bd 6c 81 6f 3d 94 f4 38 bd 70 3a fd bc
       -0.03899637 0.058473036 -0.045155123 -0.030911654
0000f0 2c 62 cf bd fd b6 91 bd 5c f6 df 3d 8e 94 35 bd
       -0.10126147 -0.0711498 0.10935661 -0.044331126
000100 a0 30 5f bc c0 38 66 bb 6d 82 d8 3d b0 3a ec 3d
       -0.013622433 -0.003512904 0.10571752 0.11534631
000110 0a 9b b2 bd 96 fe b2 bd aa db dd 3d 16 78 59 bd
       -0.087209776 -0.08739965 0.10832913 -0.05309304
000120 c0 8a 7e 3b 30 71 f3 3d 3c 8a 4a 3d 40 c3 0f 3e
       0.0038840026 0.11886823 0.049448237 0.14039326
000130 40 fc ec 3b 70 6c 3e 3e d8 7b 99 bb 80 70 0a bd
       0.007232219 0.18596053 -0.004683953 -0.033798695
000140 d7 c3 1a bc f8 75 b9 bd 90 f8 f6 bb 46 7c 83 3d
       -0.009446106 -0.09055704 -0.007536955 0.06420188
000150 61 1b 12 be 3c 46 ea bd 1d 7d 09 3e a4 a8 2d 3d
       -0.14268257 -0.114391774 0.13426633 0.042397156
000160 96 57 0c 3e 27 82 d1 3d fa 6f 0d bd 69 88 89 3c
       0.13705286 0.10229903 -0.034530617 0.016788678
000170 69 e0 bd bc bd 39 72 bd 38 7c a7 3c d2 44 c3 bd
       -0.023178296 -0.059137095 0.020444974 -0.09534611
000180 49 51 c3 3c 94 26 29 3c fe 17 51 bc 8c b8 25 3d
       0.02384247 0.010324139 -0.012762068 0.0404592
000190 24 a9 9e 3d 80 96 ec 3a b8 55 05 3d 8a 39 e0 bd
       0.07747105 0.0018050224 0.03255245 -0.10948475
0001a0 30 43 78 ba f0 cb 1d 3d 74 05 e0 3d e8 7a 13 bd
       -0.0009470461 0.038524568 0.1093854 -0.036005884
0001b0 c7 36 a1 3d a6 84 90 bd 40 16 8c 3d 05 3e 0a be
       0.07871776 -0.07056551 0.06840181 -0.13500221
0001c0 27 e7 1a 3c 92 08 d5 bd 4f ea dc bc 88 41 97 3d
       0.009454525 -0.10402025 -0.026967196 0.07385546
0001d0 be e6 84 3d cf 3c 36 3d 20 03 77 3c 5c 7e 2f bd
       0.06489323 0.044491585 0.015076429 -0.042845115
0001e0 2c 66 ac 3d 81 fc 20 be d5 53 ab bd 80 89 50 bb
       0.08417925 -0.15721323 -0.08365599 -0.0031820238
0001f0 16 e7 00 3d 8f db e1 bc 80 37 09 bc 73 c2 02 bd
       0.03147038 -0.027570514 -0.008375049 -0.031923722
000200 e8 c7 d1 3d 00 87 6c 3d 24 10 f5 3d d4 a5 cb bd
       0.10243207 0.057745934 0.11965969 -0.099437386
000210 90 df 80 bd 2a f9 b7 3d 88 8c c1 3d 58 0f c5 bc
       -0.06292641 0.08983071 0.09450632 -0.024055168
000220 80 34 b2 3c 00 fa ef b9 34 0e 41 3d 3e 43 fb bd
       0.02175355 -0.00045771897 0.047132686 -0.12268685
000230 64 cd 8a 3d 88 63 81 3c 88 ef 48 bd 9c 99 85 3d
       0.067774564 0.01579453 -0.04905656 0.06523439
000240 cc 16 79 bd e0 2e ba 3b 82 2b 9b bd 90 b7 09 bd
       -0.060812756 0.0056818575 -0.07576658 -0.033622324
000250 28 af f1 bd 78 96 b8 3d ac 6c 48 bd 70 f3 2d bd
       -0.118009865 0.09013075 -0.048931763 -0.04246849
000260 44 6b 80 bd 1c 54 f3 bd 08 a5 0a 3d 28 c9 89 bc
       -0.06270459 -0.11881277 0.033848792 -0.016819552
000270 e0 13 df bd 9c b6 4e bd b8 7d da bc 00 43 61 3d
       -0.10892463 -0.05046712 -0.026671275 0.054995537
000280 18 81 f1 bc 48 29 58 3d 50 c4 7e bc 3c 71 99 3d
       -0.029480502 0.052773744 -0.015549734 0.07492301
000290 20 bd d6 3b 96 4f ee bd e0 d1 4e 3c 10 8f 8f bd
       0.006553307 -0.116362736 0.01262328 -0.07009709
0002a0 60 33 01 3d 44 1c 79 3d 80 d9 64 bb 64 ce 2f 3d
       0.031543136 0.06081797 -0.003491968 0.04292144
0002b0 a0 a5 f6 bb 3c 0f 28 3d 78 2c a1 bd 64 07 62 bd
       -0.0075270683 0.041030154 -0.0786981 -0.05518283
0002c0 a0 49 c0 bd 38 11 b8 3c fa c6 8b 3d 44 b1 c8 bd
       -0.09389043 0.022469148 0.06825061 -0.09799436
0002d0 bc e8 47 3d 80 9f aa 3b 4c 51 ab bd 38 9a d0 bd
       0.048805937 0.005207002 -0.083651155 -0.10185665
0002e0 28 17 d6 3c 2c 6e 2f bd 98 81 32 bd d8 92 1c bd
       0.026134089 -0.042829677 -0.04358062 -0.03822598
0002f0 50 a3 76 bc 8e fe f0 3d f8 c8 ce 3d be 2c e4 3d
       -0.015053585 0.117673025 0.100969255 0.111413464
000300 d4 0e cc bd 2a 5a e0 3d 2c b4 a7 3d b0 95 07 bc
       -0.09963766 0.109546974 0.08188662 -0.008275434
000310 2c cd 97 3d 0b bc e8 3d 48 71 34 bc df b4 c6 bd
       0.0741218 0.11363991 -0.0110133365 -0.09702467
000320 fc 36 7a bd 24 2e 2c bd 2c 13 3e bd 94 94 a2 bc
       -0.061087593 -0.04203619 -0.046405002 -0.019846238
000330 dc ee e9 bd ce ac 0c 3e ba c2 81 3d c5 cc 0f bb
       -0.11422512 0.13737795 0.06335969 -0.002194212
000340 dc 0d 99 3d d8 5b ec 3d 09 fe ab 3d c0 98 18 3b
       0.074733466 0.11540955 0.08398063 0.0023284405
000350 bc fe 8a 3d 90 c6 0b 3c 03 90 f2 3d f0 32 94 3d
       0.06786868 0.008531228 0.11843874 0.07236278
000360 14 c8 89 3d 22 90 57 bd d2 e5 b5 bc bd e8 99 bd
       0.06727615 -0.05262769 -0.022204313 -0.075150944
000370 bd b7 92 3c dd c6 37 bd 58 ae e7 bd 75 0b 8d 3d
       0.017909879 -0.044867385 -0.1131255 0.06886951
000380 c3 cc 7d bc 28 d0 32 3c b8 6c b3 3d 2c 1d ae bd
       -0.0154907135 0.010913886 0.08760971 -0.08501658
000390 4a 62 f1 bd fe fc a5 3d 8f 63 d6 bd 3e 27 d2 bd
       -0.11786325 0.08104895 -0.10468208 -0.10261391
0003a0 6d 5e e7 3c fe 74 a5 3d 40 4b 09 3c 10 38 fe bc
       0.028243268 0.08078955 0.008379757 -0.031032592
0003b0 38 1e 84 3d 10 14 a5 3d 46 3b 1b bd 9d 28 95 bd
       0.06451076 0.08060467 -0.037898324 -0.07283137
0003c0 b2 35 35 bd e0 6a 78 bc 73 bb 25 bd 8e bf a8 3d
       -0.04424066 -0.0151622 -0.04046197 0.08239661
0003d0 40 5d ad 3b 58 7a 8c bc bd 1a e5 3c 42 45 a6 3d
       0.0052906573 -0.017148182 0.027966851 0.08118679
0003e0 4c 0f 90 bd de 55 58 3d 49 52 86 3c 7c cc 8c 3d
       -0.07034168 0.052816264 0.016396658 0.0687494
0003f0 02 6f 30 bc 7b a6 5f bc 00 5f 06 bb 8d 33 d1 3d
       -0.010768654 -0.013650532 -0.0020503402 0.10214911

fc2.bias f4 [128]
000000 da 9e 62 bd 3e 03 d8 bb 00 39 f9 ba bc 75 bf 3d
       -0.055327274 -0.0065921834 -0.001901418 0.09348628
000010 54 5f 47 bd ec 93 bc 3d 44 1d f1 bd 2a 3b 8e bd
       -0.048674896 0.09207901 -0.1177316 -0.069448784
000020 82 3b cf 3d 79 71 67 bd 37 c0 f5 3d 2c 74 97 3d
       0.10118772 -0.0565047 0.11999553 0.07395205
000030 f2 a4 dc bd d0 6c c5 3c 0a db 20 bd d0 2c 40 bd
       -0.10773648 0.024099737 -0.039271392 -0.046917737
000040 e0 5e c8 bb f0 d0 98 bc 62 fb e1 bd e2 99 83 bd
       -0.0061148256 -0.018654317 -0.110342756 -0.06425835
000050 6b 0d ae bd b2 45 98 bd a8 36 43 bd e1 78 dd 3d
       -0.08498653 -0.07435168 -0.047659546 0.108140714
000060 52 d0 27 bd e0 e1 06 3d 90 50 93 3d 73 cf 61 bd
       -0.040970154 0.032930255 0.071931005 -0.05512948
000070 eb 06 1f 3c 4b ca 7f bd e0 15 94 bc 9b 5d cc bc
       0.009706239 -0.06244878 -0.018076837 -0.024946978
000080 23 d7 e8 bb a7 77 0e 3c 96 f0 e0 bd 88 10 01 3e
       -0.0071057244 0.0086955195 -0.10983388 0.12603962
000090 42 4c fb 3d 86 5b d8 3d c4 e0 97 3d ac 0e d0 bd
       0.122704044 0.10564332 0.074159175 -0.101590484
0000a0 4e 66 f2 bd 86 67 ac 3d 26 1b f8 3d 0e 31 d6 bd
       -0.11835919 0.08418183 0.12114553 -0.10458575
0000b0 74 f8 75 bd 80 74 b9 ba d1 47 87 bc 2c ca cd bd
       -0.060051396 -0.00141491 -0.016513737 -0.10048327
0000c0 3b 9f 6e bc d0 72 eb bc f4 24 7e 3b 2c ef 03 bd
       -0.014564331 -0.02874127 0.003877935 -0.032210514
0000d0 53 e6 0f 3e c0 ef d9 bb db 76 c5 3d e6 0b 5b 3d
       0.14052705 -0.006650895 0.096418105 0.053478144
0000e0 e8 c3 8e 3d e0 25 57 3d 30 7d 46 3d d8 b6 03 3e
       0.0697096 0.052526355 0.04845923 0.12862718
0000f0 89 3d a8 3c 65 e9 da 3d 74 fd b2 3b 54 f9 10 3d
       0.020537155 0.10689048 0.005462343 0.035394028
000100 3e e2 f9 bc 01 bb cf 3c 82 aa e8 bd 5e 07 df bd
       -0.030503388 0.025357725 -0.11360647 -0.10890077
000110 44 8e 79 3d 50 69 59 3c 07 fa f7 3d f0 04 fb 3b
       0.06092669 0.013269737 0.12108236 0.0076605007
000120 51 c5 f0 3d 0c 4f da 3d d4 eb 07 bd 48 61 ee bc
       0.11756385 0.10659608 -0.033183888 -0.029099122
000130 5f ad 39 3d b4 dc 8b bd 73 a4 09 bd 0b 86 ec bc
       0.045331355 -0.06829205 -0.033604097 -0.02887251
000140 07 10 4e 3d 40 b6 a9 3b 00 a9 e9 3c f8 3b 19 bd
       0.050308254 0.0051791966 0.028522968 -0.037410706
000150 28 a7 de bd 00 9b 94 bc 48 e0 f1 bd ba 21 92 bd
       -0.10871726 -0.018140316 -0.118103564 -0.07135339
000160 72 2b c6 3b fa 72 60 3d 37 9e 6c bd 88 8e 0f bd
       0.0060476596 0.05479715 -0.057768073 -0.035048038
000170 b0 9d e6 3c a9 d3 6e bc 9d 7e 86 3d 85 b0 86 3d
       0.028151363 -0.014576831 0.06567118 0.06576637
000180 42 6b fe bd d0 2f 57 bd fc d0 70 3d 77 ea 35 3d
       -0.124228016 -0.052535832 0.058793053 0.044413056
000190 aa 10 86 3c a7 d6 96 bb 1c 34 61 3d 29 0c ab 3c
       0.016365368 -0.0046032253 0.054981336 0.020879822
0001a0 06 87 a4 bb b4 ef 9c bd b6 b5 66 bd 5f 38 97 bd
       -0.005020979 -0.07662907 -0.056325637 -0.07383799
0001b0 5c a2 c7 3d 6c d4 f2 bc 7c 7c 81 3d c0 3a 70 3c
       0.097477645 -0.029642306 0.06322572 0.014662445
0001c0 fe 10 d1 bd a8 a1 93 bd d7 a9 f0 bc ee 76 8b 3d
       -0.10208319 -0.07208568 -0.029377861 0.068097934
0001d0 7c e7 8b 3d 6d 17 c6 bc 33 d9 62 3a 98 20 98 bd
       0.068312615 -0.024181092 0.0008653581 -0.07428092
0001e0 36 7a d9 3d e0 f5 1b bd 30 a8 92 3d 4c 76 79 bd
       0.10619013 -0.03807628 0.071609855 -0.060903832
0001f0 e8 33 c3 bd 87 14 62 3d b0 c7 26 3d 8c 17 a8 bd
       -0.09531385 0.055195358 0.04071778 -0.08207616

fc3.weight f4 [64, 128]
000000 7a fb 9e bc 57 e5 8c 3d 10 3f b0 3b 77 f9 b0 3d
       -0.019407023 0.068796806 0.0053786114 0.08641332
000010 26 29 39 3d 9b 56 05 37 c2 fc 27 3d 75 4d 99 3d
       0.045205258 7.947582e-06 0.041012533 0.07485477
000020 66 5d 49 bd 0b 3b 8e bd 00 ae 4d 3d c1 86 64 3d
       -0.049161337 -0.06944855 0.050214767 0.055792574
000030 d9 c7 ad bd 57 e2 08 3d 8b ae 4f bd ec f6 51 bd
       -0.084853835 0.03341898 -0.050703567 -0.051260874
000040 a6 9d 44 bd a7 26 6f bd b0 6f 2d bd 68 86 aa 3c
       -0.048001908 -0.05838647 -0.04234284 0.020816043
000050 39 c3 22 bd ee 0f 0a bd 1a 44 b4 bd ad e9 15 bc
       -0.03973696 -0.033706598 -0.08802052 -0.009149951
000060 b6 d3 80 3c 18 f5 0d 3c d7 af 0c 3d a3 88 62 bd
       0.015725952 0.008664392 0.03434738 -0.05530609
000070 3c 6d 0a 3d 45 d2 f4 3d 8c fe f1 3c 03 04 29 3d
       0.03379558 0.11954168 0.029540323 0.04126359
000080 2f 06 54 bd b5 41 98 3d 80 29 cd 3b 11 26 08 3d
       -0.05176371 0.074344076 0.0062610507 0.033239428
000090 03 00 9e 3c 0a 1d a7 3d bf 30 36 bc ae 73 46 bd
       0.019287115 0.08159836 -0.01112002 -0.048450164
0000a0 a3 68 98 bd a6 d5 1e 3d dc d8 cc bc 07 91 b0 bd
       -0.07441833 0.03877797 -0.02500575 -0.08621412
0000b0 88 5b b3 3d f4 e3 44 bd cc 22 c9 3d a9 9d 23 3d
       0.087576926 -0.048068956 0.0982109 0.03994528
0000c0 5c e1 ac 3d 4a ba 1c 3d a3 0c 79 3c 8f 54 93 3d
       0.084414214 0.038263597 0.015200767 0.07193863
0000d0 86 6b 18 3d f4 ba 50 bd 69 4c 90 3d d0 f6 d2 3d
       0.037211917 -0.050959542 0.07045824 0.10300982
0000e0 2d 01 6f bd 10 d0 af bc 0b 22 62 3d f1 09 98 3d
       -0.05835073 -0.021461517 0.055208247 0.07423771
0000f0 01 c1 cd 3d 40 3b 89 bd 92 55 63 3d b5 76 80 3d
       0.10046578 -0.06700754 0.055501528 0.062726416
000100 5c 19 d0 3c fb fd 9d 3d c8 ec 24 bd 98 47 09 bd
       0.025402717 0.077144586 -0.040264875 -0.033515543
000110 41 dc 2c 3d 35 ed 8e bd 48 cf a2 bc ed d0 40 bd
       0.042202238 -0.069788374 -0.01987423 -0.047074247
000120 02 9a d2 bc 88 7a 95 3d e3 09 87 3d 4a 25 31 3d
       -0.025708202 0.072987616 0.065936826 0.043248452
000130 6a 8d 46 bd c0 28 e7 ba 90 c4 9d 3d cc 74 5d bd
       -0.048474707 -0.0017636046 0.07703507 -0.054066464
000140 f6 dc e2 bb 93 57 8c 3d 8e 98 83 3d 56 7c ea 3c
       -0.0069233133 0.06852641 0.06425582 0.028623741
000150 92 f3 93 bd b5 0e b3 3d 74 b6 d5 3d 02 c8 e6 bc
       -0.07224192 0.087430395 0.10435191 -0.028171543
000160 f7 13 a8 bc e6 2b 88 3d 1c 3b 62 bc 38 de 70 3c
       -0.020517332 0.06648998 -0.013808038 0.014701419
000170 90 fe 84 3b 00 0b 70 bc 39 77 a3 3d 28 d0 2c bd
       0.0040586665 -0.01465106 0.07981724 -0.0421907
000180 d5 12 b1 bd 4b 76 97 3d 53 57 56 3d 7c bb 25 3d
       -0.0864617 0.073956095 0.052329373 0.040462002
000190 e7 54 f3 bc e0 7d 40 3d 8a c0 cb 3d 0b bb 87 bd
       -0.02970357 0.046995044 0.09948833 -0.066274725
0001a0 87 5a c6 3d 08 26 ba 3c 2a df 83 bd ea 8f 01 3d
       0.096852355 0.022723213 -0.064390495 0.031631388
0001b0 38 bd a0 3c 11 27 e7 bc de 93 2b 3d e4 16 a9 bc
       0.019621477 -0.02821687 0.041889064 -0.020640798
0001c0 09 72 65 bd 5b f7 8d bd 7e fc 3e bd 65 b2 ab 3d
       -0.056016956 -0.06931945 -0.046627514 0.083836354
0001d0 d0 2d 3a bc 2f 33 53 3c b3 bc 25 bd 80 45 5b bc
       -0.011363462 0.012890621 -0.04046316 -0.013383269
0001e0 42 73 a3 b9 7b 58 a8 3d d6 fe 21 3d 3a 84 ec bc
       -0.00031175656 0.08220001 0.03954967 -0.028871644
0001f0 8a 27 14 3d c8 af 4e 3d 73 d0 27 bd b4 f0 9b bc
       0.03617052 0.050460607 -0.040970277 -0.019035675
000200 32 96 8c 3c 9c 50 88 3d d0 9b c0 bb 38 09 8b bc
       0.017161462 0.06656 -0.0058779493 -0.01697217
000210 b2 64 1f 3d c6 29 6b bd 4d e7 a3 bd b7 da b2 bd
       0.03891439 -0.057412885 -0.080031015 -0.08733123
000220 76 a8 5e bd 66 a9 8a bc a8 47 83 bd aa cf b8 bc
       -0.054359876 -0.016926479 -0.06410152 -0.02255996
000230 77 97 94 3d d1 e2 13 bd 60 6b 06 bd 48 42 ea bb
       0.07255452 -0.03610498 -0.032817245 -0.0071490146
000240 64 2a 88 bd 97 45 b8 3c 4f 29 e8 bc 57 e5 c9 bc
       -0.0664871 0.02249412 -0.02834001 -0.02464549
000250 cb f5 9f bd 9e 7a 8b bd ee 7c 04 3d 8d f7 e6 3b
       -0.07810553 -0.06810497 0.032345705 0.0070485533
000260 8c c0 72 3d 48 c8 91 3d e0 85 aa bc 0c f5 29 bd
       0.05926566 0.07118279 -0.02081579 -0.04149346
000270 f0 ef af 3b 82 cb 80 bd d0 a5 ce bc f0 0b 8f 3d
       0.005369179 -0.06288816 -0.02522555 0.06984699
000280 e2 f6 70 bd 8c de 4e 3d 93 48 4d bd 4a e2 53 bd
       -0.058829196 0.050505206 -0.05011804 -0.051729478
000290 d8 23 7b 3d d1 52 66 bc 3e f0 7a 3d 7d 4a 4c bd
       0.06131348 -0.014057831 0.06126427 -0.049875725
0002a0 4e d9 88 bd 23 fe 83 3d 7e 7b 00 bd a6 4a 1a 3d
       -0.066820726 0.06444957 -0.03136777 0.037668847
0002b0 3e c9 0a 3c c9 66 87 3d 75 6c f0 3c 61 6a 90 bd
       0.008470831 0.066114016 0.029348591 -0.0705154
0002c0 50 ad 19 3c 4b 0a 42 bd 81 d8 49 3a bb da 9c bd
       0.0093797 -0.047373097 0.0007699803 -0.07658907
0002d0 b8 3d 05 bc f3 e4 98 bd 2b 70 8f bd 43 54 a0 bd
       -0.008132391 -0.074655436 -0.07003816 -0.07828572
0002e0 e0 49 8d bc a9 fe cb bc 4a a6 8b bd b9 d5 89 3d
       -0.01724714 -0.024901705 -0.068188265 0.067302175
0002f0 77 40 fd 3c 23 f8 92 3d 77 8f b6 bc c3 fe 8d bd
       0.030914528 0.071762346 -0.022285206 -0.069333576
000300 24 27 3b 3c fd 93 57 3d 26 ca e7 bc d8 4b bd 3c
       0.011422906 0.052631367 -0.028294634 0.023107454
000310 b3 20 66 bd 00 00 c4 b9 8b 5d 86 bc f8 72 94 3d
       -0.05618353 -0.00037384033 -0.016402027 0.07248491
000320 30 de 2d 3d 4f 9b 09 3d 82 d9 8b bd e8 97 3a 3c
       0.042448223 0.03359538 -0.06828596 0.011388756
000330 d4 55 1e 3d ae 4d b2 bd fa 7f 86 bd 17 f8 b6 3c
       0.03865607 -0.087062225 -0.06567378 0.022335095
000340 55 e1 df 3c 1d 7e 8c 3d c6 6f c6 bc 90 eb b2 bd
       0.027329126 0.06859992 -0.02422322 -0.08736336
000350 14 04 84 3c 19 c8 58 bd fa ae 87 bd ae 96 7a bd
       0.016115226 -0.052925203 -0.06625171 -0.061178856
000360 04 9c 34 bd 47 d3 77 3c 2c 5d 8b 3c eb 62 85 3d
       -0.0440941 0.015126056 0.017012201 0.06513008
000370 e2 ce 23 3d c8 d3 28 3c fb c6 df bc a8 4b 57 3d
       0.03999222 0.010304399 -0.027316561 0.052562386
000380 0c fc 96 bc 74 64 bf bb 66 98 7e bd ed 8a 99 3d
       -0.018430732 -0.0058408324 -0.062157057 0.07497201
000390 43 e7 21 bd b7 91 90 bd 5e e4 f7 3b 6d 13 7e bc
       -0.03952719 -0.07059043 0.0075650653 -0.015507561
0003a0 3a 90 a7 bd 5c ce e9 bc 25 58 af bd b1 12 6e 3d
       -0.08181806 -0.028540783 -0.08561734 0.058123294
0003b0 d8 6d 4a bd 38 da 64 bd ae e8 33 3d cb 3e 2e bd
       -0.04942116 -0.055872172 0.043923073 -0.042540353
0003c0 c0 2b ec 3a 6d cb 02 3d 9d 01 ba 3c 99 47 8e 3d
       0.001801841 0.031932283 0.022705847 0.0694725
0003d0 50 9d e7 3b 5a 5d e4 3b 1e 90 82 3d bc 99 90 bd
       0.0070683137 0.006969136 0.063751444 -0.070605725
0003e0 74 bb 18 bd 07 71 97 bd f0 c9 c4 3c 8e 9a ad bd
       -0.037288144 -0.07394605 0.024022073 -0.084767446
0003f0 67 3d 87 3d c3 bd c8 bd 3f bb 96 3c fd ec 1c bd
       0.066035084 -0.09801819 0.018399833 -0.038311947

fc3.bias f4 [64]
000000 51 85 9c 3c 21 cf 71 3d 6e e6 66 3c 54 bd d0 3c
       0.019106539 0.059035424 0.014093025 0.025480904
000010 d8 c9 b2 bd 33 44 fc 3c 27 bb 33 bc 2d 4c 16 bd
       -0.08729905 0.030794239 -0.010969914 -0.03669374
000020 ee 7f 92 3c 00 9c c2 bc 2a 03 3c 3d 08 32 83 bd
       0.017883267 -0.023756027 0.045901455 -0.06406027
000030 26 6d f2 3c 4c 2b 60 bd 1a e9 97 bd aa 4f fa 3d
       0.029593062 -0.05472879 -0.074175075 0.12222226
000040 8c 90 e6 39 8f 43 76 bc 54 50 c4 bb 6a f1 9e 3b
       0.00043976714 -0.015030756 -0.005991021 0.004850556
000050 95 04 a4 bc 6d 41 97 bc cb 97 b7 bd 61 9f 3f 3c
       -0.020021716 -0.018463815 -0.08964499 0.011695714
000060 44 b2 c3 bd 1f 92 84 bd 47 62 37 3d 47 9d cd 3c
       -0.09555486 -0.06473183 0.04477146 0.02509941
000070 e4 97 55 bd e7 4c 62 bd 64 4b e5 3c c6 72 1d 3d
       -0.052146807 -0.05524912 0.02799005 0.038439535
000080 24 2d ae 3d 14 4c f9 bc 9e 8a 24 3d 84 52 68 bd
       0.08504704 -0.030431785 0.04017126 -0.056719318
000090 b0 ac c6 3d a0 19 fc bb 49 75 95 bd 0e 89 b2 3c
       0.09700906 -0.0076934844 -0.07297761 0.021793868
0000a0 b8 70 45 3d df 86 95 bd 1b dd f2 bc c1 05 c1 3d
       0.0482032 -0.07301115 -0.029646447 0.094249256
0000b0 ca ab 2b 3d da d2 aa 3d c5 34 8d bd 47 1b 1b bd
       0.041911878 0.08340998 -0.068948306 -0.03786781
0000c0 18 c3 b3 bd 87 b1 ee bc 33 1e 31 bc ee 48 46 3d
       -0.087774456 -0.029137386 -0.010810423 0.048409395
0000d0 4c 6e ed 3b f1 2a 39 bd 35 a4 5a 3d 25 f8 c6 3c
       0.0072458144 -0.045206968 0.053379256 0.024288246
0000e0 b1 3b 90 bd 55 29 a2 bc d7 3a b3 3c 16 60 a6 bd
       -0.07042635 -0.0197951 0.021878643 -0.08123796
0000f0 81 7e 9e bd 06 cd d0 3c 5c 06 ed bc 11 e4 55 bd
       -0.077389725 0.025488388 -0.028933696 -0.052219454

fc4.weight f4 [2, 64]
000000 82 ce 41 3d 0d 15 9e 39 96 72 1f bd c8 a5 bb bd
       0.04731608 0.00030151792 -0.038927637 -0.0916248
000010 f8 f5 89 3d f5 92 d7 bd 86 80 14 bc 00 21 f9 bb
       0.06736368 -0.10526077 -0.0090638455 -0.007602811
000020 a4 69 2b be 8e ed 9c bd 08 79 ef bc f9 57 06 be
       -0.16739517 -0.076624975 -0.029232517 -0.13119496
000030 1c f7 29 3d fe d5 4c 3e f1 db 03 3c 0d f9 82 3e
       0.041495427 0.20003507 0.008048044 0.25580636
000040 8f 38 d6 3d 9d 00 82 3d 0d dc 01 bd b2 85 02 3e
       0.104600064 0.06347773 -0.031703997 0.12746313
000050 c3 e9 16 bd 3a 36 f1 3c 31 1c 1f 3e 7e e8 69 3d
       -0.036844026 0.029444803 0.15538098 0.057106487
000060 78 6a 82 bb 28 46 3e 3d 9a 17 27 3d ba 05 05 3e
       -0.003979977 0.046453625 0.040793993 0.12990466
000070 80 1e ef 3b 3e dc 9f bd d7 21 28 3d 82 cc c0 3c
       0.007297337 -0.0780568 0.041047897 0.023535017
000080 50 6d a8 3d d0 b8 a0 bc f4 9e b8 bd f1 4b b4 bd
       0.08223975 -0.019619375 -0.09014693 -0.08803547
000090 86 e5 04 3e 82 09 f8 bd 08 6a 7f bc eb 4c ea 3d
       0.12978181 -0.121111885 -0.015589245 0.11440452
0000a0 2e 1b db 3d f8 ca d8 3d 47 fc 57 bd 8c 27 77 bd
       0.106985435 0.10585588 -0.052730825 -0.06034045
0000b0 78 aa 90 bd b7 f1 ff 3d b2 4a 8d bd 21 f2 24 3e
       -0.07063764 0.12497275 -0.068990126 0.1610799
0000c0 c8 bf 89 bd 3b f4 b2 bc de 1d 2f 3e 19 10 3d bd
       -0.067260325 -0.021844974 0.17101237 -0.04615793
0000d0 8a 41 31 bd 38 67 c2 bd 54 c5 df ba 49 9b 66 bc
       -0.043275394 -0.09492344 -0.0017072358 -0.014075109
0000e0 e8 b4 9b bd c0 2d 28 bd 9e 36 d9 3d b2 b3 ac 3d
       -0.076028645 -0.041059256 0.106061205 0.08432712
0000f0 aa 38 d4 bd 60 ca ca bd 1c 6a 1c 3d 8f c7 3a be
       -0.1036237 -0.09901881 0.03818713 -0.18240188
000100 66 bf 87 3d 88 9b fe bc 26 f5 8a 3d 76 7c b2 3d
       0.06628303 -0.031080022 0.067850396 0.08715145
000110 50 91 a7 3d d8 de f0 3c 48 82 f1 3d 80 c9 b8 3a
       0.08182013 0.029403135 0.11792427 0.0014098138
000120 94 36 63 bd 24 dd e5 3d ec 8e e0 3d 40 30 23 bd
       -0.05547197 0.1122382 0.1096476 -0.039840937
000130 fa c9 f8 bd 38 d4 cb 3d dc 71 e2 3d 40 b1 b8 bd
       -0.12147899 0.09952587 0.11056873 -0.09018183
000140 cc d0 56 bd 10 ad 56 bd 00 5e 7f 3c 2a f2 c2 bd
       -0.052445218 -0.05241114 0.015586376 -0.095188454
000150 56 e3 f1 bd 40 8e d6 3d c8 42 45 3d 38 71 4f bd
       -0.11810939 0.10476351 0.04815939 -0.050645083
000160 96 ba c5 bd 64 94 db bd 16 b5 8a 3d 30 1b 93 bd
       -0.09654729 -0.10721663 0.06772821 -0.0718292
000170 d8 fb f6 3c 32 fa a8 3d 80 64 93 3b 48 ab 2e 3d
       0.030149385 0.08250846 0.0044980645 0.042643815
000180 b6 0c ff 3d f8 fc 80 bd c2 eb 9f bd 00 40 8a 38
       0.12453596 -0.0629825 -0.07808639 6.592274e-05
000190 52 f5 8d 3d 6e 13 84 bd c6 1f c0 3d f8 f5 de 3c
       0.06931557 -0.064490184 0.0938106 0.027216896
0001a0 34 cd 51 bd 08 cc ca 3c a8 7f a8 bc 34 09 c1 bd
       -0.051221088 0.024755493 -0.020568684 -0.094255835
0001b0 10 6b 41 bd 80 fc 88 3a ca ec ed 3d e0 cb d0 bc
       -0.047221243 0.0010451227 0.116174296 -0.02548784
0001c0 00 0f 8f 3d 76 f4 f0 3d a2 76 80 3d e0 ae f7 3b
       0.06985283 0.11765377 0.062726274 0.0075586885
0001d0 b2 b5 f1 3d 9c b4 b2 3d a4 d8 d0 3d ec 2f f0 3d
       0.11802234 0.08725855 0.10197571 0.1172789
0001e0 26 53 be bd 30 3a 9f bc 00 54 19 bb e0 c4 72 bd
       -0.09293203 -0.019436926 -0.0023396015 -0.059269786
0001f0 d8 91 57 3d cc ed a0 3d 6c 74 8f bd a4 49 64 3d
       0.05262932 0.07857856 -0.070046276 0.05573429

fc4.bias f4 [2]
000000 d3 98 a5 ba 80 42 4c bb
       -0.0012634046 -0.0031167567
