simpledemo4/RealInvNetwork.pth (torch, 70357 bytes, 8 tensors)

fc1.weight f4 [64, 2]
00000000: c840 15bf 6d06 aebe b7b9 113f c94f 3c3f
00000010: b483 20be fa3e b4be 3492 323e aad1 20be
00000020: ff83 073f 6e0e 90be a08d 733e 5406 f7be
00000030: 294d 253f 054f 12bf a314 dbbe ba5d 313f
00000040: df3a 0bbf bb09 87be 5e65 bf3e 906d f03e
00000050: a96e 143f cd33 1e3f 6214 eabe 8763 ff3e
00000060: f2b2 ee3e 20b5 f7bd f7d9 1bbf d8da e43e
00000070: aa70 b43e 30e8 31be 1067 3ebd de45 abbe
00000080: c9ca 20bf 8c49 f63e 1dd3 03bf c47a a13c
00000090: 2f4b 09bf 687d a93d e4c6 cfbe 2e12 e13e
000000a0: 42eb c1be 00dc f8ba 6465 3c3e 58c3 31bf
000000b0: b6c2 b83e 9acb ce3e 053d 9abe 3bdc 89be
000000c0: a055 11bf 68d0 94be bef0 833e 2a04 333e
000000d0: 50d8 51be e1b4 b4be ded6 9c3e ba4f a53e
000000e0: 2836 d1bd 8c12 1cbf f0db 35be 89f0 f5be
000000f0: 3618 f53e f05a 4cbe 8040 a8bc ac1d 48bf
00000100: 7630 983e 36c9 50be 1a47 de3e 85e2 3b3f
00000110: 3e00 803e 65f1 23bf 209f 5ebe 0698 cabe
00000120: 5a2c ab3e f23e 013f 1e7a 5dbe 5a76 70be
00000130: 4f11 a5be 2425 15bf 9be3 f3be f2e7 b23d
00000140: 5641 c13e c07d d83d 4115 87be 70cd 1ebf
00000150: e513 073f 6ee9 17bf 339c 003f d124 fbbc
00000160: b2ab 0bbf f9a9 143f 6e01 b63e 8eeb a0be
00000170: 107d 39bd 702c 3c3d 0a93 a03e c884 03be
00000180: f03e 933e 63fc c03e 98ec 28bf 3f32 d3be
00000190: 0661 79be f2a6 38bf 5807 433e 7e8c 8fbe
000001a0: 0200 bd3e 058e 3f3f 6aad c43e 7922 33be
000001b0: 1d1f 193f 6017 a0be c12f 323f e07d 2e3d
000001c0: 20e8 b6be 188c 143e 6d3b b6be 007a 9bbc
000001d0: 2014 53bd c48b 8fbe 328c 95be 0297 94be
000001e0: 5d6d 063f 30fc 22bf c03e 423e e82c 16be
000001f0: 4251 d33e 40f6 143e 6450 013e 4f23 913e
-0.58301973 -0.33989277 0.56924003 0.7355924 -0.15675241 -0.35204297 0.17438585 -0.1570498
0.52935785 -0.2813601 0.23784494 -0.48247015 0.6457086 -0.57151824 -0.42789182 0.6928364
-0.54386705 -0.2637461 0.37382025 0.4695859 0.57981354 0.6179779 -0.45718676 0.4988062
0.466209 -0.12095094 -0.6087946 0.44698215 0.35242206 -0.17373729 -0.046485007 -0.33451742
-0.62809426 0.48102987 -0.5149401 0.01971186 -0.53630346 0.082758725 -0.4058143 0.43959183
-0.378748 -0.0018986464 0.18398052 -0.69438696 0.36086053 0.4038971 -0.3012468 -0.26925835
-0.5677128 -0.2906525 0.2576961 0.17482057 -0.20492673 -0.3529425 0.3063268 0.3228739
-0.102154076 -0.609658 -0.17759681 -0.48035076 0.47870034 -0.19956565 -0.020538568 -0.78170276
0.29724473 -0.20389256 0.4341362 0.73392516 0.25000185 -0.64040214 -0.21740389 -0.3956911
0.33432275 0.5048667 -0.21628615 -0.23482648 -0.32239768 -0.582598 -0.47634587 0.08735646
0.3774516 0.1057086 -0.26383403 -0.6203222 0.5276473 -0.5934056 0.5023834 -0.030657204
-0.5455886 0.5807186 0.35547966 -0.31429714 -0.045285285 0.045940816 0.31362182 -0.12843621
0.28758955 0.37692556 -0.65986013 -0.41249272 -0.24353418 -0.7212974 0.1904577 -0.28036875
0.36914068 0.7482608 0.38413554 -0.17493619 0.598131 -0.31267834 0.69604117 0.042600513
-0.35723972 0.14506567 -0.35592213 -0.018979073 -0.051532865 -0.2803632 -0.29208523 -0.2902146
0.52510625 -0.6366606 0.1896925 -0.14665568 0.41272932 0.14547062 0.12628323 0.2834725

fc1.bias f4 [64]
00000000: 46f9 0f3f c5af d9be 2fd1 4f3e 28f4 c83e
00000010: f3ae c53e 6e8a d2be e71f b6be a877 80be
00000020: be0f 8bbe f9eb 0d3f e714 0c3f 0b27 cc3c
00000030: 42d7 e63e a329 f03c 2f61 b3be 501d 8fbd
00000040: 4617 bf3d 46c7 223f cd1e 8bbe f99a 95bd
00000050: 88fa c4bd 90bd 08be feed 1c3f 77e8 913e
00000060: 195d ea3e 76cc 2a3f 2450 39be f2f2 26bf
00000070: f1fc e4be 9171 153f 40be 8fbc 177d e93e
00000080: bb54 f43e 462f 89be 75cd ab3d 8af5 e93e
00000090: f4f6 1b3f dc0b 24bf 8c4c ad3e 99fb d43d
000000a0: babb b83e 4049 0abf f5bc b03e 3ca0 343e
000000b0: b16b 603e 800d c8be 709c 43be 0c1f d0be
000000c0: 495c 94bc 8274 97be 5d5f d73e 385f 86be
000000d0: adca c13e c5e2 cc3d 25f6 cc3e 48b1 85be
000000e0: 8bfd 2bbf 676a f5be 8170 37bc 1a7f a93e
000000f0: 7ee9 2bbf c30b bebe 1896 f4be d4e8 05bd
0.56239736 -0.42516914 0.20294641 0.39248776 0.38610038 -0.41121238 -0.35571215 -0.2509129
-0.27160448 0.5543819 0.54719394 0.02492096 0.45086104 0.029316729 -0.35035083 -0.06988013
0.09330611 0.6358532 -0.27171937 -0.07304949 -0.096180975 -0.13353562 0.6130065 0.2849767
0.45774153 0.6671823 -0.18096977 -0.65214455 -0.4472423 0.58376414 -0.017546773 0.45603248
0.47720894 -0.2679388 0.08388797 0.45695144 0.60923696 -0.64080596 0.33847463 0.10399551
0.36080724 -0.5401802 0.34519163 0.1763925 0.21916081 -0.390728 -0.19102645 -0.40648687
-0.018110411 -0.29581076 0.42064944 -0.2624452 0.37849942 0.1000419 0.40031543 -0.26111817
-0.6718375 -0.4793274 -0.011196257 0.33104783 -0.67153156 -0.37118348 -0.47770762 -0.032692745

fc2.weight f4 [128, 64]
00000000: a154 933d dab6 aabd c830 aebc 9022 48bd
00000010: 172c 6ebc f06e 323c 6083 acbc e007 d7bd
00000020: a0cb d2bb 580b 993c 045e d9ba 215c 7c3c
00000030: a5cd d13d 6fe4 3f3d 1ef1 e9bd 7639 883d
00000040: d57f d63b 39b1 81bc 2a2a d4bd 3e4f 9fbd
00000050: 2c6b 5abd 0824 72bd 3f0d d9bd 0d29 ac3d
00000060: 2791 833d 2bd9 163d 00c4 7aba a8be edbc
00000070: acdd 9bbd 7124 a7bc 8476 053d 57e8 b4bd
00000080: d23b b9bd 1e95 a63d 7a0e efbd f278 d73d
00000090: 2b20 fabd 4c7e 41bd c069 0a3d 74f8 313d
000000a0: da19 9d3d b6b6 a53d 7804 1fbd 2a1e dabb
000000b0: 7ff7 64bd 3c5f 0b3d d8ae a6bc 20d4 d8bb
000000c0: 0396 fbbd 64cc 53bd 7c2d 2abd a0e4 9f3d
000000d0: ad6c 42bd bf4b 05bd c9b5 083d fc7d 4a3d
000000e0: 405f cbbc 1044 fcbc b8f7 a6bd 5ab8 bf3d
000000f0: 9ab3 893d d8e9 8f3c c812 3ebd 9083 c2bd
00000100: 3cd1 743d 8791 03be 101f 9a3d 6ade f93c
00000110: 6f69 b43d 9c88 103d c07e dbbd 9f25 fcbb
00000120: 34f3 d7bd 56b2 f5bd b9b5 c33d b2a2 b43d
00000130: d4fe 4f3d 60b3 8bbd 804b 043d f099 dbbc
00000140: a404 e4bd e5c3 9c3d 76fb cf3d 3eb6 d73d
00000150: 7425 0b3d 586b 00bd 63a9 5c3d 0bcb f3bc
00000160: fa0a d5bd ecae d53d ac19 283d 4ae7 e4bd
00000170: 9063 58bc 8338 a83d 74a5 9f3d 04f6 01be
00000180: c597 853d 0f60 6a3d 6cd0 5a3d 08fb 1fbd
00000190: b1c8 e7bd 689c dcbc 2a13 21bc 959d d7bb
000001a0: 0aef babd 0867 523d b324 173d 3672 12ba
000001b0: ce59 b73a dec7 d2bd 008c 1f3b f4aa 113d
000001c0: 621a bbbc 2466 433d c47a 2dbd 0ab7 9c3d
000001d0: cbd5 01be 44be 823c 3ae0 17bc d067 c83c
000001e0: b8d1 083d a81f 5e3d 32d4 91bd 2dfc 67bd
000001f0: d846 983c b05b a5bc 6832 693d 876d ddbb
00000200: 96be f13d 1cdb 4ebd d275 b3bd e657 ee3d
00000210: f03a ffbd 8229 e5bd 72b4 d73d e4d3 68bd
00000220: 8848 07bd 763a 893d 9886 c2bd 1c0c 4f3d
00000230: 7c8f dcbd 0cad f33d 166a cdbd f0d1 793c
00000240: e0af 43bc 526d e03d b8cf f93d e8cc 75bd
00000250: 00dd 5ebd 200e 143d 30be 82bd f8eb 3abd
00000260: 68f5 06bd b895 d6bd 40b6 d5bc 686e b0bd
00000270: 48a8 bcbd 062d 9e3d b056 debc 4839 abbd
00000280: 946e dfbd 900e 853c a007 9abd 38f9 c43d
00000290: 56ea 8dbd 30f3 9dbd 367b a5bd a655 9c3d
000002a0: c879 4fbd 04c2 fb3d 003c 083d 6c15 2e3d
000002b0: 40c8 f7bb 0887 debc 5c0e 903d 7c46 763d
000002c0: 26a9 f7bd 20c6 173c b47b d83d dc1c b6bd
000002d0: b6aa d2bd fc5b 683d 5ec3 b93d e029 6ebc
000002e0: 7e2b d13d 98a9 7dbd 2030 aabd 5e06 a1bd
000002f0: 2c65 873d b023 51bd e417 1abd 608d 32bd
00000300: 3896 653d 6462 ad3d 40c7 33bd f4c9 703d
00000310: 20d5 efbc a07f 8f3d d69c 993d 687b a13d
00000320: 3ab7 bebd 6026 ffbb c083 643d ae32 9f3d
00000330: ec06 c3bd 603b f3bb 3e76 c93d 78d9 f4bd
00000340: aea7 e63d 98c6 98bc b4ee 4bbd 2669 d2bd
00000350: b069 753d b407 db3d a072 b8bd d000 64bd
00000360: 72fd a5bd 4c56 4f3d 8079 0b3d 1458 6cbd
00000370: 9c26 063d 2469 d4bd c0b7 e33b 786f a43d
00000380: 3ee9 d5bd 88ea 243d e0dd 9dbd ee32 a6bd
00000390: 44f5 b9bd ee4a c6bd 6893 99bc d025 19bd
000003a0: f6b3 d5bd 00a4 d2bd 5e4f eb3d 7272 cdbd
000003b0: f888 cc3d c64f d63d 8020 e83a 5418 f83d
000003c0: 38c4 f03c f493 a3bd e8c3 aa3d 201e e33d
000003d0: a8fc e2bd 1c36 70bd ccc1 f63d d89c f9bc
000003e0: e202 d03d d87a 663d 3c21 a7bd 0050 b239
000003f0: 20d6 f83d 582c 58bd 34c6 aa3d 0655 c2bd
0.07193876 -0.083356574 -0.021263495 -0.048861086 -0.014536879 0.010890707 -0.021058738 -0.10499549
-0.0064329654 0.018682167 -0.0016583805 0.015402825 0.10244302 0.04684871 -0.114229426 0.06651585
0.0065460005 -0.015831577 -0.10359605 -0.07778786 -0.053324863 -0.059116393 -0.105982296 0.08406267
0.0642417 0.0368282 -0.00095659494 -0.029021576 -0.0761064 -0.020403119 0.03258373 -0.08833378
-0.09044613 0.081339106 -0.11672683 0.10521115 -0.12213167 -0.047239587 0.033792257 0.043449834
0.076709464 0.0809149 -0.03882262 -0.006656428 -0.055900093 0.03402637 -0.020347044 -0.006617084
-0.12284472 -0.051708594 -0.041547284 0.07807279 -0.047466923 -0.03254294 0.03337649 0.049436554
-0.024825692 -0.030794173 -0.08152717 0.09361334 0.067237094 0.01756756 -0.04640463 -0.0949775
0.059769854 -0.12848483 0.07525456 0.030501563 0.08809172 0.03528653 -0.10717535 -0.0076949145
-0.10544434 -0.119969055 0.09556145 0.08820094 0.050780132 -0.068213224 0.032298565 -0.026806802
-0.11133698 0.076545514 0.10155384 0.10532807 0.033971265 -0.03135237 0.053872477 -0.029759904
-0.10402484 0.10433754 0.041040108 -0.111769274 -0.013207331 0.08213904 0.077952296 -0.12691504
0.06523088 0.057220515 0.053421423 -0.03905776 -0.11317576 -0.026930049 -0.009831229 -0.0065800645
-0.09127624 0.05136779 0.036900233 -0.0005586477 0.0013988556 -0.10292028 0.002434492 0.035563424
-0.022839729 0.04770483 -0.042353407 0.076520994 -0.12679212 0.015959866 -0.009269768 0.024463564
0.03340313 0.05422941 -0.07120551 -0.056636978 0.018588468 -0.020185322 0.056932837 -0.0067574414
0.118039295 -0.050501928 -0.08762707 0.11637859 -0.12462413 -0.111895576 0.10532464 -0.0568427
-0.033028156 0.06700604 -0.09498328 0.050548658 -0.10769555 0.118982404 -0.1003 0.015247807
-0.011943787 0.10958351 0.12197822 -0.060009867 -0.05440998 0.036146283 -0.06383932 -0.045635194
-0.03294888 -0.10477775 -0.02608788 -0.08614808 -0.092117846 0.07723431 -0.027140945 -0.08360535
-0.10909763 0.016242296 -0.075209856 0.09617847 -0.06929462 -0.077124 -0.08080141 0.07633524
-0.05065325 0.12292865 0.033260345 0.0425009 -0.0075617135 -0.027163997 0.07033989 0.060125813
-0.120928094 0.009263545 0.105704695 -0.08892223 -0.10286467 0.056728348 0.090704665 -0.014536351
0.102133736 -0.061929315 -0.0830996 -0.078625426 0.06611094 -0.051059425 -0.03762044 -0.043591857
0.056051463 0.08466032 -0.04389119 0.058786348 -0.02927643 0.070067644 0.07500617 0.07884866
-0.093122914 -0.007786557 0.05578971 0.07773338 -0.095228046 -0.0074228495 0.09837006 -0.11955541
0.11262451 -0.018649384 -0.049788192 -0.10273962 0.059915245 0.10694829 -0.09006238 -0.055664837
-0.081049815 0.05061941 0.03405142 -0.057701185 0.032751665 -0.103716165 0.006949395 0.080290735
-0.10444878 0.04026273 -0.07708335 -0.08115183 -0.09079984 -0.096822605 -0.018747047 -0.037389576
-0.104347154 -0.10285187 0.114897475 -0.10031594 0.09987062 0.10464434 0.0017709881 0.12114015
0.02939044 -0.07987204 0.083381474 0.1108973 -0.110833466 -0.058645353 0.120486826 -0.030470297
0.101568 0.056269497 -0.08160636 0.0003401041 0.12150216 -0.052776664 0.083385855 -0.09488873

fc2.bias f4 [128]
00000000: 5607 6abd eda9 79bd 422b d03d 5c69 933d
00000010: 03e0 7f3c 441b 58bd 0746 593a c029 843c
00000020: 5465 b4ba cbab 723d 19a4 843d 975f 3cbd
00000030: 67cf 6b3d 7816 703d 579e a2bd 074b 2a3d
00000040: 0032 9cbc e073 c2bc c49b f6bd 4b99 f03b
00000050: 9005 63bd 2e9f 87bd 3f03 52bd 6ba0 9cbd
00000060: 6a43 e5bd e075 2c3c 3eef e83d 4040 d73d
00000070: 8e31 043e 107e 89bd e1a2 2fbd 4eb1 cabd
00000080: 0300 cf3d 322f 5fbd 7482 82bd 60c3 133c
00000090: 5834 c2bd 4e4b df3d 25d7 3fbd 2653 86bd
000000a0: c831 373d 746d abbd a072 99bb af40 eb3d
000000b0: ced6 84bd 806a 30bd 0810 5a3d 4475 7fbd
000000c0: d20d 54bc 20df debc 5084 cd3c 26d7 433b
000000d0: 8ebf e73d 0008 863d 9cb0 96bd f8af dcbc
000000e0: 2cf0 4dbd c2c6 debd 060a ecbd 74e3 363d
000000f0: 7527 5b3d 51b5 b1bc 128a dbbd 4ff1 8a3d
00000100: c060 f8bd 99ca dd3d f4a4 e73d f035 bebc
00000110: a88a 833d 94c0 373d 1d06 023e 0061 563b
00000120: a03c cc3b fcbc 4dbd 6c0c ef3c dcc0 523d
00000130: 2211 d7bd f421 25ba fb97 8f3d dc4e 353d
00000140: b5af f63d e086 8f3c 3cda b93d 4db3 72bd
00000150: 7027 b8bc 7854 2abd ee14 9abd 7ffa f13d
00000160: 2843 f13d 88e3 84bd 24d5 fcbd 8062 a6ba
00000170: edc8 06bd da0b 0b3e 4e9a 433d 65f4 bbbd
00000180: 0f53 9e3d 9f8c f83d 38da ffbc e005 2c3c
00000190: 9cf7 0ebd dd82 d13d f404 cfbd 8e47 273d
000001a0: 00d9 ec3c 1371 65bd 77ab d6bd 1a94 acbc
000001b0: ce12 2fbd 002b ed3d d0c1 d43c b8cc 42bd
000001c0: c42d 37bd 3edb a43d 8bae 50bc 02e9 653d
000001d0: 73ee 39bd 25f7 acbd 70f1 2e3d 5cef 753d
000001e0: 96f3 c1bd 5ce1 29bd ea12 ca3d 3104 da3d
000001f0: 59b8 01bd 0039 2abb a3af a83c 54a1 053d
-0.057135902 -0.06095307 0.10164501 0.0719783 0.015617373 -0.052760378 0.0008288328 0.01613319
-0.0013763108 0.059245866 0.06476612 -0.0459896 0.05757084 0.058615178 -0.07940357 0.041575458
-0.01906681 -0.023736894 -0.12041429 0.0073424927 -0.055425227 -0.06622158 -0.051272627 -0.07647785
-0.11194499 0.01052615 0.11373757 0.105103016 0.12909529 -0.06713498 -0.042879943 -0.098970994
0.10107424 -0.05448837 -0.06372538 0.009018749 -0.0948264 0.10903035 -0.046836037 -0.06558828
0.04472521 -0.08370486 -0.004682854 0.11486947 -0.06486283 -0.043070316 0.053237945 -0.062367693
-0.012942748 -0.027206004 0.025087506 0.0029882877 0.11315833 0.06544495 -0.07357904 -0.026939377
-0.050277874 -0.10877754 -0.11525349 0.04465051 0.053504426 -0.021692904 -0.10719694 0.06784307
-0.121278286 0.10829658 0.11310759 -0.023219079 0.06422931 0.04486139 0.12697645 0.0032711625
0.006232813 -0.050229058 0.029180728 0.051453456 -0.10501315 -0.000629931 0.0701141 0.04426466
0.12045232 0.017520368 0.09074828 -0.059253026 -0.022479743 -0.041584462 -0.07523523 0.118153565
0.11780387 -0.06488711 -0.12345341 -0.001269415 -0.03290646 0.1357874 0.04775458 -0.09177474
0.07730686 0.12136196 -0.031231984 0.010499448 -0.034904107 0.10230038 -0.101083666 0.040839724
0.028912067 -0.05601604 -0.10481923 -0.021066714 -0.042742543 0.11580467 0.025971323 -0.047558516
-0.04472138 0.0804963 -0.012736927 0.056130417 -0.04539342 -0.084455766 0.04271072 0.060042724
-0.094702885 -0.041474685 0.09866889 0.10645331 -0.03166995 -0.0025973916 0.020591563 0.032624558

fc3.weight f4 [64, 128]
00000000: 1e6f 463d 0bfb 873d 53d2 9e3d 6037 2abc
00000010: 0171 1cbd e4c0 a63c 5711 ff3c 7ace a3bd
00000020: 50d3 e4bb b9cd 973d 7201 713d d046 5fbc
00000030: ee41 793d 7e7f 0cbd 94d5 d1bc 8fbb 923d
00000040: d0a4 a9bb 5387 28bd b4c6 e2bc d86c 4ebd
00000050: 7a96 3abd ae75 5e3d 31ce 2d3c 0468 3dbd
00000060: d597 98bd 4095 813a fb80 44bd 4ec2 6a3d
00000070: 07d1 673c 58ac abbc 8870 193c 7149 853d
00000080: 3405 4ebd b00b dcbb fed4 2c3d 23b8 b43d
00000090: c0cb babb df1c 1f3d c306 3b3c 2168 95bd
000000a0: 9599 9b3d 5e96 9cbd 0d73 11bd a8d1 b43c
000000b0: ab0e ab3d dbb7 42bd 60ca 463c d69d 6b3d
000000c0: 449a c93c 1299 49bd 6516 44bd 3414 aa3c
000000d0: fc3d c5bd 5ec6 493d cf73 68bd 6f70 82bd
000000e0: 7d71 40bd 7d41 32bd 403b b73a 2293 013d
000000f0: 1a72 b0bd 6d14 94bd 363e 03bd 7eed 1f3d
00000100: 32b6 2f3d 451e 593d 10fd 8cbd 114a 9b3d
00000110: 2773 023d 1ecb 483d 614c a53c 60d9 38bb
00000120: a6d8 7dbd eca6 6ebd d03e a5bd e4e0 7dbd
00000130: afd0 b4bd aa87 193d fc8d 053d b8a4 06bc
00000140: 56e2 7b3c f617 613d 2cf5 e13c 3d38 a4bd
00000150: 65df bcbd 5042 66bc 6bf4 8d3d bc56 923d
00000160: 6d3d 1abd a0f7 753b deb6 6b3d fac4 6e3d
00000170: 51d9 993c e11c 59bd bade 303d efaf a13d
00000180: 921e a1bd 1aff acbd 222a 3d3d f816 ab3c
00000190: f256 723d 4869 31bc 760f 88bd c3ca 71bd
000001a0: c0c0 363c 0d8c 63bd a126 803c 1672 8abc
000001b0: f24e 343d 2190 4abd 2b3f 04bd b9c3 a93d
000001c0: b08d 873d c636 adbd c47c 96bd 1abf 9bbb
000001d0: 90e2 703c f754 04bd 9cf4 7bbd 5a66 383d
000001e0: 84c0 803c f85b 4a3c 9186 8a3d ede2 8a3d
000001f0: c0d3 483b 44c7 43bd 40cc 243c ac10 6d3d
00000200: 3299 0ebd dd0e a8bd 828c 0c3d a08f 51bb
00000210: 730d 89bd acea f03c 2d53 9d3d 11ac a13d
00000220: 320b 3c3d 703f 5dbc 4abb 5cbd 2c88 81bd
00000230: 2f6f 813d 185b aabd 7689 1d3d a09f 3c3c
00000240: beb4 4d3d ac9e a1bc b816 f93c 0067 feba
00000250: d50c 12bd 2990 20bd deea 97bd 33a1 5dbd
00000260: ba73 2d3d 1a66 603d 3a0b dbbc f0fd 033c
00000270: ec8a c33c 7d60 28bd d2f4 523d 5277 673d
00000280: 1301 863d 8068 c5ba 7cf9 ea3c 6776 8b3d
00000290: 58b9 a9bc e01e c53c 3d6f b23d c7d1 b4bd
000002a0: 58cf fa3c 8843 a8bd 116e 74bd 867a 64bd
000002b0: 2879 ce3c e9e9 61bd daf6 743d a086 40bb
000002c0: 9dec 973d b29c 4c3d f189 78bd 8059 163c
000002d0: 167e 63bd ed10 9a3d e0c3 79bc 2e58 7abd
000002e0: 528e 723d a7f9 8c3d 76d9 283d d2b5 2f3d
000002f0: 482b 3dbc 00f5 023b 5ac3 5f3d d6f1 343d
00000300: 689b 623c ecdc 14bd d9f4 8a3d fc62 93bd
00000310: 3bc6 913d 37f7 b33d bb34 ae3d 801b 9e3a
00000320: 98d9 f23c 5ea9 303d 2a7b 373d 391c a63d
00000330: 4027 f3ba 9cb6 1abd 24c1 b73c 8fe9 a63d
00000340: dd63 27bd 430d 2ebd cb15 953d 2090 5dbc
00000350: 23b6 43bd bef7 743d 1ecc 84bd 86b0 8fbd
00000360: 002a 89b9 efe5 8e3d 0b47 9f3d b777 06bd
00000370: 8e59 3abd 98b0 b1bc 1cbd ec3c dfde 9a3d
00000380: 1074 c43c d174 61bd b2d6 2f3d c85f 523c
00000390: 80bb 7e3c 22d5 82bd 44ad 8bbd 29cd 973d
000003a0: dcf9 eabc 4dd4 1fbd ea7a febc fcd0 8ebd
000003b0: 309b 7fbd 902b 4fbc 5dbb 953d fbb7 873d
000003c0: 12c7 293d ab02 64bd ba5c 80bd 7b5d 9dbd
000003d0: 889a c63c 6312 82bd 79e2 ae3d 4212 503d
000003e0: cc24 e33c 98a8 163c 80ee dfbb d5bb 62bd
000003f0: 4af5 7c3d a0ab 633b 1021 403c e060 2abc
0.048445813 0.066396795 0.0775496 -0.010389179 -0.038193706 0.02035565 0.031136198 -0.07998367
-0.006983198 0.07412285 0.05883927 -0.013627723 0.06085389 -0.034301274 -0.025614537 0.0716468
-0.005177118 -0.04114468 -0.02768264 -0.05039677 -0.045553662 0.054311447 0.010608242 -0.046241775
-0.07450835 0.0009886399 -0.047974568 0.05731421 0.014148957 -0.020956203 0.009365208 0.065081485
-0.05029793 -0.0067152604 0.042195313 0.08824184 -0.0057005584 0.038845893 0.011415186 -0.07295252
0.07597653 -0.07645868 -0.03551011 0.022072628 0.08352407 -0.04753862 0.012133211 0.05752357
0.024609692 -0.049218245 -0.04787292 0.020761587 -0.09630963 0.049261443 -0.05675107 -0.06369101
-0.04698323 -0.043519486 0.001397945 0.031634457 -0.08615513 -0.072304584 -0.03204175 0.03904485
0.042898364 0.053007383 -0.06884205 0.075824864 0.0318481 0.049021833 0.020178022 -0.0028205737
-0.06197419 -0.058264658 -0.08068621 -0.06198205 -0.08828866 0.037482895 0.03260611 -0.008217983
0.015373787 0.05495449 0.027582727 -0.08018539 -0.092222966 -0.014053896 0.06931385 0.071454495
-0.037656236 0.003753163 0.057547443 0.05829332 0.018780382 -0.053006057 0.04318116 0.07894885
-0.07867159 -0.08447094 0.04618276 0.020884976 0.05916495 -0.010828324 -0.06643574 -0.05903126
0.011154354 -0.055553485 0.01564342 -0.016900104 0.0440206 -0.04945386 -0.032286804 0.08289284
0.066188216 -0.08457713 -0.07348016 -0.0047530057 0.014702454 -0.03230759 -0.061512575 0.045019485
0.015716799 0.012351029 0.06763948 0.06781564 0.003064379 -0.047797456 0.010058463 0.057877228
-0.034814067 -0.0820596 0.034313686 -0.0031976476 -0.06692018 0.029408775 0.0768188 0.07894147
0.045909114 -0.013503894 -0.05388955 -0.06324801 0.06320035 -0.08318156 0.03846117 0.011512667
0.050221197 -0.019728981 0.030406341 -0.0019409359 -0.03565677 -0.03919998 -0.07417844 -0.05410881
0.042346694 0.05478487 -0.026738752 0.008056149 0.023869954 -0.041107643 0.05150301 0.056510277
0.06543174 -0.0015061051 0.028683417 0.06809693 -0.020718262 0.024062574 0.08712623 -0.08829074
0.030616447 -0.082160056 -0.05967528 -0.05578091 0.025204256 -0.055154715 0.05980573 -0.0029377118
0.07418177 0.049954124 -0.060678426 0.009176612 -0.055540167 0.075227596 -0.015244454 -0.06111925
0.05921776 0.06883555 0.041223012 0.042898007 -0.011545964 0.0019982457 0.05462966 0.044175945
0.013830997 -0.0363435 0.06784982 -0.07196614 0.071178876 0.08787387 0.08506151 0.0012062639
0.029644772 0.04313027 0.044795193 0.08110852 -0.0018551126 -0.037771806 0.022430964 0.081500165
-0.04086672 -0.042493116 0.07279547 -0.013523132 -0.04778112 0.059806578 -0.06484245 -0.07016091
-0.0002616197 0.0697745 0.07777222 -0.032829013 -0.045495562 -0.021690652 0.028898768 0.075620405
0.023981124 -0.055043045 0.04292936 0.012840219 0.015547633 -0.06388308 -0.06820157 0.07412178
-0.028683595 -0.039020825 -0.03106447 -0.06973454 -0.062403858 -0.012644663 0.07311127 0.06626888
0.041449614 -0.055666607 -0.06267686 -0.076838456 0.024243608 -0.06351163 0.0853929 0.050798662
0.027727507 0.009195469 -0.0068338513 -0.05535491 0.061757363 0.0034739748 0.011726633 -0.010399073

fc3.bias f4 [64]
00000000: 2d8f ccbd 2b4c a5bd d6ae d6bc a72f adbd
00000010: 0caa 86bc b37b 8d3d 3f40 a0bd 5b89 56bd
00000020: 8cbd cb3c ef75 35bd 7ded a9bc 2753 4c3d
00000030: 63fe 8fbd 2ed7 aa3d f337 03bd fa4b 8ebd
00000040: 3646 81bd 6073 83bd e84d f53c 78ed aebd
00000050: 9ca7 97bd 47ec 36bd bd2a 8e3d 58f3 71bd
00000060: 6e8d 51bd e1b9 6b3d 7e56 a0bd 632f 8c3c
00000070: 860f 8a3d 7c93 abbd 6deb 9dbd 70cb a13c
00000080: 04f0 2dbd b946 12bc 13c8 c8bc 4f44 c03d
00000090: 8299 b2bd 58d5 a8bd 292c 8e3d c4b0 903d
000000a0: 42f0 6fbd 5703 c63c 16bd 28bd 2bb5 79bd
000000b0: aa68 dd3c 084c 80bd 3c2a 25bd 517e abbd
000000c0: d738 82bb 17b8 94bc c629 6d3d 92d9 4a3d
000000d0: 1467 783c 7aa5 703d 8cef 47bd 95fa 50bd
000000e0: a02b 4e3b 46e6 8f3c c26c 723c cb98 5d3d
000000f0: 7d66 bc3d 9f41 2e3d 6b37 a5bd 4144 18bd
-0.09988246 -0.080711685 -0.026206415 -0.084563546 -0.016438507 0.069083594 -0.07824754 -0.052377086
0.024870656 -0.044301923 -0.020743126 0.049883988 -0.07030942 0.083418235 -0.03203578 -0.06948085
-0.0631222 -0.064184904 0.029944375 -0.08541387 -0.07405016 -0.044658925 0.069417454 -0.05906996
-0.05116027 0.057550315 -0.07828997 0.01711244 0.06741242 -0.0837774 -0.077109195 0.019750327
-0.042465225 -0.008927994 -0.024509465 0.09388029 -0.087206855 -0.08243817 0.06942017 0.07064965
-0.058578737 0.024171514 -0.04119595 -0.06096379 0.027027447 -0.06264502 -0.04032348 -0.08373702
-0.003974061 -0.018154187 0.057901166 0.049523897 0.0151612945 0.05875156 -0.048812434 -0.051020224
0.0031459108 0.017565858 0.014796438 0.054100793 0.091992356 0.04254305 -0.08067211 -0.037174467

fc4.weight f4 [2, 64]
00000000: 7fd6 86bc 58ea 673d d07a cd3c 443f 583d
00000010: 98d2 fe3c 6c05 02bd 2003 b23d a449 3fbd
00000020: c28d 81bc 0239 5d3d 7fe8 c43d 1909 cd3d
00000030: 3cb6 e83d a5ad ce3d 8d04 49bc 086f e1bc
00000040: 0cdb 9cbd 4490 c93d 7469 52bd 9d7c b13d
00000050: 9030 d2bc 5595 a73d ba1c 8d3d dfbd b7bc
00000060: 52bb c83d f046 9f3d 6cc0 9a3d a61f 1ebd
00000070: f61b 58bd 387e 96bd 58cd e4bd 9cd5 aa3e
00000080: b1ef 35bd 8a9d 7bbd 48c0 f8bb f3b9 aa3d
00000090: 58cb 7a3d f6db d8bc 67f4 7bbc 9221 a9bd
000000a0: e61d 293e 8293 0d3e 6c62 fcbd f375 d23d
000000b0: ba6c 03bd c853 12bd 55db f33d d8e4 d9bd
000000c0: c271 f7bd 00bc fe3d 8914 51bd 0c6e 85bd
000000d0: 6f97 a9bd 648c 7d3d c85e bebc 9c39 b33d
000000e0: ecdd bfbd c01a 0a3e 97d0 133d 5a72 43bd
000000f0: 45fc 86be 09aa c0bd 717b 88bc b044 b63d
00000100: 3a85 913d a8a2 43bd 60ce b73b 747f 353d
00000110: 68d7 c13d 70b5 50bd b081 ee3d 1607 dbbd
00000120: dcb4 5e3d a09d 233c ae4a d6bd 48e9 343d
00000130: b06d a53c fa34 a93d 305c 3c3c ba9a ccbd
00000140: 723d db3d 004e 1aba 2e0a e6bd 12da 843d
00000150: fceb 69bd d0d0 bb3c 4ac2 af3d a2cc b33d
00000160: 2493 02bd 9ed7 97bd 6457 8bbd 5ae1 9d3d
00000170: 781c c73c 9447 ee3d 0898 9d3c 9847 1bbd
00000180: 8219 833d 009c 60b9 300e fabc 0067 f2bd
00000190: 44b6 613d de45 993d fc4d e8bd 9048 0f3c
000001a0: 288f acbd 9cbe 1dbd 605f 523d 8072 0bbc
000001b0: 0029 71ba 7c04 5abd 3c54 3f3d d0cc 12bd
000001c0: 3086 e5bc cc27 7cbd f0a8 2dbc 0006 a53a
000001d0: 3ca9 473d 2cf2 f4bd 8011 e43a 6a09 c73d
000001e0: cca3 98bd 484b af3d 542d f1bd 8078 7ebd
000001f0: 4661 c3bd 30de c63c 5c7c 6fbd 926b da3d
-0.016459702 0.056619972 0.025082976 0.05279471 0.031106278 -0.031743452 0.08692002 -0.04670109
-0.015814666 0.054009445 0.096146576 0.10011501 0.113628834 0.10091714 -0.012269151 -0.027518764
-0.076589674 0.098419696 -0.0513701 0.08666346 -0.025657922 0.0818278 0.06890245 -0.022429405
0.098013535 0.07777202 0.07556233 -0.0386044 -0.05276104 -0.07348293 -0.11171979 0.33366096
-0.04441804 -0.061429538 -0.007591281 0.08336248 0.06122908 -0.026472073 -0.015378094 -0.08258356
0.16515312 0.13825801 -0.1232346 0.10276403 -0.03208611 -0.03572443 0.11907069 -0.106393516
-0.120822445 0.12438202 -0.051044974 -0.065151304 -0.08280837 0.061901465 -0.023238555 0.087512225
-0.093685 0.13486767 0.0360876 -0.047716476 -0.2636434 -0.09407432 -0.016660424 0.0889982
0.07105489 -0.047762543 0.0056093186 0.044311002 0.094649136 -0.050954282 0.1164583 -0.10694711
0.0543717 0.009986311 -0.10463463 0.044167787 0.020193905 0.082620576 0.011496589 -0.09990449
0.10705079 -0.00058862567 -0.1123241 0.06486906 -0.057109818 0.022926718 0.085819796 0.08779265
-0.031878605 -0.074141726 -0.06803778 0.07708998 0.024305567 0.11634746 0.019237533 -0.037910074
0.064013496 -0.00021420419 -0.030524343 -0.11836052 0.055105463 0.07484029 -0.11342999 0.008745328
-0.084257424 -0.038511857 0.051360488 -0.008511186 -0.000919953 -0.053226933 0.04671119 -0.035839856
-0.028018087 -0.06156139 -0.01059936 0.0012590289 0.04874538 -0.11960253 0.0017400235 0.097185925
-0.07453117 0.08559281 -0.11776224 -0.062126637 -0.09540038 0.02427587 -0.058468208 0.10665049

fc4.bias f4 [2]
00000000: 2cbd 0ebd 4e1a d2bd
-0.034848377 -0.102589235
